Model: "efficientnet-b1"
__________________________________________________________________________________________________
Layer (type)                    Output Shape         Param #     Connected to                     
==================================================================================================
input_2 (InputLayer)            (None, 240, 240, 3)  0                                            
__________________________________________________________________________________________________
stem_conv (Conv2D)              (None, 120, 120, 32) 864         input_2[0][0]                    
__________________________________________________________________________________________________
stem_bn (BatchNormalization)    (None, 120, 120, 32) 128         stem_conv[0][0]                  
__________________________________________________________________________________________________
stem_activation (Activation)    (None, 120, 120, 32) 0           stem_bn[0][0]                    
__________________________________________________________________________________________________
block1a_dwconv (DepthwiseConv2D (None, 120, 120, 32) 288         stem_activation[0][0]            
__________________________________________________________________________________________________
block1a_bn (BatchNormalization) (None, 120, 120, 32) 128         block1a_dwconv[0][0]             
__________________________________________________________________________________________________
block1a_activation (Activation) (None, 120, 120, 32) 0           block1a_bn[0][0]                 
__________________________________________________________________________________________________
block1a_se_squeeze (GlobalAvera (None, 32)           0           block1a_activation[0][0]         
__________________________________________________________________________________________________
block1a_se_reshape (Reshape)    (None, 1, 1, 32)     0           block1a_se_squeeze[0][0]         
__________________________________________________________________________________________________
block1a_se_reduce (Conv2D)      (None, 1, 1, 8)      264         block1a_se_reshape[0][0]         
__________________________________________________________________________________________________
block1a_se_expand (Conv2D)      (None, 1, 1, 32)     288         block1a_se_reduce[0][0]          
__________________________________________________________________________________________________
block1a_se_excite (Multiply)    (None, 120, 120, 32) 0           block1a_activation[0][0]         
                                                                 block1a_se_expand[0][0]          
__________________________________________________________________________________________________
block1a_project_conv (Conv2D)   (None, 120, 120, 16) 512         block1a_se_excite[0][0]          
__________________________________________________________________________________________________
block1a_project_bn (BatchNormal (None, 120, 120, 16) 64          block1a_project_conv[0][0]       
__________________________________________________________________________________________________
block1b_dwconv (DepthwiseConv2D (None, 120, 120, 16) 144         block1a_project_bn[0][0]         
__________________________________________________________________________________________________
block1b_bn (BatchNormalization) (None, 120, 120, 16) 64          block1b_dwconv[0][0]             
__________________________________________________________________________________________________
block1b_activation (Activation) (None, 120, 120, 16) 0           block1b_bn[0][0]                 
__________________________________________________________________________________________________
block1b_se_squeeze (GlobalAvera (None, 16)           0           block1b_activation[0][0]         
__________________________________________________________________________________________________
block1b_se_reshape (Reshape)    (None, 1, 1, 16)     0           block1b_se_squeeze[0][0]         
__________________________________________________________________________________________________
block1b_se_reduce (Conv2D)      (None, 1, 1, 4)      68          block1b_se_reshape[0][0]         
__________________________________________________________________________________________________
block1b_se_expand (Conv2D)      (None, 1, 1, 16)     80          block1b_se_reduce[0][0]          
__________________________________________________________________________________________________
block1b_se_excite (Multiply)    (None, 120, 120, 16) 0           block1b_activation[0][0]         
                                                                 block1b_se_expand[0][0]          
__________________________________________________________________________________________________
block1b_project_conv (Conv2D)   (None, 120, 120, 16) 256         block1b_se_excite[0][0]          
__________________________________________________________________________________________________
block1b_project_bn (BatchNormal (None, 120, 120, 16) 64          block1b_project_conv[0][0]       
__________________________________________________________________________________________________
block1b_drop (FixedDropout)     (None, 120, 120, 16) 0           block1b_project_bn[0][0]         
__________________________________________________________________________________________________
block1b_add (Add)               (None, 120, 120, 16) 0           block1b_drop[0][0]               
                                                                 block1a_project_bn[0][0]         
__________________________________________________________________________________________________
block2a_expand_conv (Conv2D)    (None, 120, 120, 96) 1536        block1b_add[0][0]                
__________________________________________________________________________________________________
block2a_expand_bn (BatchNormali (None, 120, 120, 96) 384         block2a_expand_conv[0][0]        
__________________________________________________________________________________________________
block2a_expand_activation (Acti (None, 120, 120, 96) 0           block2a_expand_bn[0][0]          
__________________________________________________________________________________________________
block2a_dwconv (DepthwiseConv2D (None, 60, 60, 96)   864         block2a_expand_activation[0][0]  
__________________________________________________________________________________________________
block2a_bn (BatchNormalization) (None, 60, 60, 96)   384         block2a_dwconv[0][0]             
__________________________________________________________________________________________________
block2a_activation (Activation) (None, 60, 60, 96)   0           block2a_bn[0][0]                 
__________________________________________________________________________________________________
block2a_se_squeeze (GlobalAvera (None, 96)           0           block2a_activation[0][0]         
__________________________________________________________________________________________________
block2a_se_reshape (Reshape)    (None, 1, 1, 96)     0           block2a_se_squeeze[0][0]         
__________________________________________________________________________________________________
block2a_se_reduce (Conv2D)      (None, 1, 1, 4)      388         block2a_se_reshape[0][0]         
__________________________________________________________________________________________________
block2a_se_expand (Conv2D)      (None, 1, 1, 96)     480         block2a_se_reduce[0][0]          
__________________________________________________________________________________________________
block2a_se_excite (Multiply)    (None, 60, 60, 96)   0           block2a_activation[0][0]         
                                                                 block2a_se_expand[0][0]          
__________________________________________________________________________________________________
block2a_project_conv (Conv2D)   (None, 60, 60, 24)   2304        block2a_se_excite[0][0]          
__________________________________________________________________________________________________
block2a_project_bn (BatchNormal (None, 60, 60, 24)   96          block2a_project_conv[0][0]       
__________________________________________________________________________________________________
block2b_expand_conv (Conv2D)    (None, 60, 60, 144)  3456        block2a_project_bn[0][0]         
__________________________________________________________________________________________________
block2b_expand_bn (BatchNormali (None, 60, 60, 144)  576         block2b_expand_conv[0][0]        
__________________________________________________________________________________________________
block2b_expand_activation (Acti (None, 60, 60, 144)  0           block2b_expand_bn[0][0]          
__________________________________________________________________________________________________
block2b_dwconv (DepthwiseConv2D (None, 60, 60, 144)  1296        block2b_expand_activation[0][0]  
__________________________________________________________________________________________________
block2b_bn (BatchNormalization) (None, 60, 60, 144)  576         block2b_dwconv[0][0]             
__________________________________________________________________________________________________
block2b_activation (Activation) (None, 60, 60, 144)  0           block2b_bn[0][0]                 
__________________________________________________________________________________________________
block2b_se_squeeze (GlobalAvera (None, 144)          0           block2b_activation[0][0]         
__________________________________________________________________________________________________
block2b_se_reshape (Reshape)    (None, 1, 1, 144)    0           block2b_se_squeeze[0][0]         
__________________________________________________________________________________________________
block2b_se_reduce (Conv2D)      (None, 1, 1, 6)      870         block2b_se_reshape[0][0]         
__________________________________________________________________________________________________
block2b_se_expand (Conv2D)      (None, 1, 1, 144)    1008        block2b_se_reduce[0][0]          
__________________________________________________________________________________________________
block2b_se_excite (Multiply)    (None, 60, 60, 144)  0           block2b_activation[0][0]         
                                                                 block2b_se_expand[0][0]          
__________________________________________________________________________________________________
block2b_project_conv (Conv2D)   (None, 60, 60, 24)   3456        block2b_se_excite[0][0]          
__________________________________________________________________________________________________
block2b_project_bn (BatchNormal (None, 60, 60, 24)   96          block2b_project_conv[0][0]       
__________________________________________________________________________________________________
block2b_drop (FixedDropout)     (None, 60, 60, 24)   0           block2b_project_bn[0][0]         
__________________________________________________________________________________________________
block2b_add (Add)               (None, 60, 60, 24)   0           block2b_drop[0][0]               
                                                                 block2a_project_bn[0][0]         
__________________________________________________________________________________________________
block2c_expand_conv (Conv2D)    (None, 60, 60, 144)  3456        block2b_add[0][0]                
__________________________________________________________________________________________________
block2c_expand_bn (BatchNormali (None, 60, 60, 144)  576         block2c_expand_conv[0][0]        
__________________________________________________________________________________________________
block2c_expand_activation (Acti (None, 60, 60, 144)  0           block2c_expand_bn[0][0]          
__________________________________________________________________________________________________
block2c_dwconv (DepthwiseConv2D (None, 60, 60, 144)  1296        block2c_expand_activation[0][0]  
__________________________________________________________________________________________________
block2c_bn (BatchNormalization) (None, 60, 60, 144)  576         block2c_dwconv[0][0]             
__________________________________________________________________________________________________
block2c_activation (Activation) (None, 60, 60, 144)  0           block2c_bn[0][0]                 
__________________________________________________________________________________________________
block2c_se_squeeze (GlobalAvera (None, 144)          0           block2c_activation[0][0]         
__________________________________________________________________________________________________
block2c_se_reshape (Reshape)    (None, 1, 1, 144)    0           block2c_se_squeeze[0][0]         
__________________________________________________________________________________________________
block2c_se_reduce (Conv2D)      (None, 1, 1, 6)      870         block2c_se_reshape[0][0]         
__________________________________________________________________________________________________
block2c_se_expand (Conv2D)      (None, 1, 1, 144)    1008        block2c_se_reduce[0][0]          
__________________________________________________________________________________________________
block2c_se_excite (Multiply)    (None, 60, 60, 144)  0           block2c_activation[0][0]         
                                                                 block2c_se_expand[0][0]          
__________________________________________________________________________________________________
block2c_project_conv (Conv2D)   (None, 60, 60, 24)   3456        block2c_se_excite[0][0]          
__________________________________________________________________________________________________
block2c_project_bn (BatchNormal (None, 60, 60, 24)   96          block2c_project_conv[0][0]       
__________________________________________________________________________________________________
block2c_drop (FixedDropout)     (None, 60, 60, 24)   0           block2c_project_bn[0][0]         
__________________________________________________________________________________________________
block2c_add (Add)               (None, 60, 60, 24)   0           block2c_drop[0][0]               
                                                                 block2b_add[0][0]                
__________________________________________________________________________________________________
block3a_expand_conv (Conv2D)    (None, 60, 60, 144)  3456        block2c_add[0][0]                
__________________________________________________________________________________________________
block3a_expand_bn (BatchNormali (None, 60, 60, 144)  576         block3a_expand_conv[0][0]        
__________________________________________________________________________________________________
block3a_expand_activation (Acti (None, 60, 60, 144)  0           block3a_expand_bn[0][0]          
__________________________________________________________________________________________________
block3a_dwconv (DepthwiseConv2D (None, 30, 30, 144)  3600        block3a_expand_activation[0][0]  
__________________________________________________________________________________________________
block3a_bn (BatchNormalization) (None, 30, 30, 144)  576         block3a_dwconv[0][0]             
__________________________________________________________________________________________________
block3a_activation (Activation) (None, 30, 30, 144)  0           block3a_bn[0][0]                 
__________________________________________________________________________________________________
block3a_se_squeeze (GlobalAvera (None, 144)          0           block3a_activation[0][0]         
__________________________________________________________________________________________________
block3a_se_reshape (Reshape)    (None, 1, 1, 144)    0           block3a_se_squeeze[0][0]         
__________________________________________________________________________________________________
block3a_se_reduce (Conv2D)      (None, 1, 1, 6)      870         block3a_se_reshape[0][0]         
__________________________________________________________________________________________________
block3a_se_expand (Conv2D)      (None, 1, 1, 144)    1008        block3a_se_reduce[0][0]          
__________________________________________________________________________________________________
block3a_se_excite (Multiply)    (None, 30, 30, 144)  0           block3a_activation[0][0]         
                                                                 block3a_se_expand[0][0]          
__________________________________________________________________________________________________
block3a_project_conv (Conv2D)   (None, 30, 30, 40)   5760        block3a_se_excite[0][0]          
__________________________________________________________________________________________________
block3a_project_bn (BatchNormal (None, 30, 30, 40)   160         block3a_project_conv[0][0]       
__________________________________________________________________________________________________
block3b_expand_conv (Conv2D)    (None, 30, 30, 240)  9600        block3a_project_bn[0][0]         
__________________________________________________________________________________________________
block3b_expand_bn (BatchNormali (None, 30, 30, 240)  960         block3b_expand_conv[0][0]        
__________________________________________________________________________________________________
block3b_expand_activation (Acti (None, 30, 30, 240)  0           block3b_expand_bn[0][0]          
__________________________________________________________________________________________________
block3b_dwconv (DepthwiseConv2D (None, 30, 30, 240)  6000        block3b_expand_activation[0][0]  
__________________________________________________________________________________________________
block3b_bn (BatchNormalization) (None, 30, 30, 240)  960         block3b_dwconv[0][0]             
__________________________________________________________________________________________________
block3b_activation (Activation) (None, 30, 30, 240)  0           block3b_bn[0][0]                 
__________________________________________________________________________________________________
block3b_se_squeeze (GlobalAvera (None, 240)          0           block3b_activation[0][0]         
__________________________________________________________________________________________________
block3b_se_reshape (Reshape)    (None, 1, 1, 240)    0           block3b_se_squeeze[0][0]         
__________________________________________________________________________________________________
block3b_se_reduce (Conv2D)      (None, 1, 1, 10)     2410        block3b_se_reshape[0][0]         
__________________________________________________________________________________________________
block3b_se_expand (Conv2D)      (None, 1, 1, 240)    2640        block3b_se_reduce[0][0]          
__________________________________________________________________________________________________
block3b_se_excite (Multiply)    (None, 30, 30, 240)  0           block3b_activation[0][0]         
                                                                 block3b_se_expand[0][0]          
__________________________________________________________________________________________________
block3b_project_conv (Conv2D)   (None, 30, 30, 40)   9600        block3b_se_excite[0][0]          
__________________________________________________________________________________________________
block3b_project_bn (BatchNormal (None, 30, 30, 40)   160         block3b_project_conv[0][0]       
__________________________________________________________________________________________________
block3b_drop (FixedDropout)     (None, 30, 30, 40)   0           block3b_project_bn[0][0]         
__________________________________________________________________________________________________
block3b_add (Add)               (None, 30, 30, 40)   0           block3b_drop[0][0]               
                                                                 block3a_project_bn[0][0]         
__________________________________________________________________________________________________
block3c_expand_conv (Conv2D)    (None, 30, 30, 240)  9600        block3b_add[0][0]                
__________________________________________________________________________________________________
block3c_expand_bn (BatchNormali (None, 30, 30, 240)  960         block3c_expand_conv[0][0]        
__________________________________________________________________________________________________
block3c_expand_activation (Acti (None, 30, 30, 240)  0           block3c_expand_bn[0][0]          
__________________________________________________________________________________________________
block3c_dwconv (DepthwiseConv2D (None, 30, 30, 240)  6000        block3c_expand_activation[0][0]  
__________________________________________________________________________________________________
block3c_bn (BatchNormalization) (None, 30, 30, 240)  960         block3c_dwconv[0][0]             
__________________________________________________________________________________________________
block3c_activation (Activation) (None, 30, 30, 240)  0           block3c_bn[0][0]                 
__________________________________________________________________________________________________
block3c_se_squeeze (GlobalAvera (None, 240)          0           block3c_activation[0][0]         
__________________________________________________________________________________________________
block3c_se_reshape (Reshape)    (None, 1, 1, 240)    0           block3c_se_squeeze[0][0]         
__________________________________________________________________________________________________
block3c_se_reduce (Conv2D)      (None, 1, 1, 10)     2410        block3c_se_reshape[0][0]         
__________________________________________________________________________________________________
block3c_se_expand (Conv2D)      (None, 1, 1, 240)    2640        block3c_se_reduce[0][0]          
__________________________________________________________________________________________________
block3c_se_excite (Multiply)    (None, 30, 30, 240)  0           block3c_activation[0][0]         
                                                                 block3c_se_expand[0][0]          
__________________________________________________________________________________________________
block3c_project_conv (Conv2D)   (None, 30, 30, 40)   9600        block3c_se_excite[0][0]          
__________________________________________________________________________________________________
block3c_project_bn (BatchNormal (None, 30, 30, 40)   160         block3c_project_conv[0][0]       
__________________________________________________________________________________________________
block3c_drop (FixedDropout)     (None, 30, 30, 40)   0           block3c_project_bn[0][0]         
__________________________________________________________________________________________________
block3c_add (Add)               (None, 30, 30, 40)   0           block3c_drop[0][0]               
                                                                 block3b_add[0][0]                
__________________________________________________________________________________________________
block4a_expand_conv (Conv2D)    (None, 30, 30, 240)  9600        block3c_add[0][0]                
__________________________________________________________________________________________________
block4a_expand_bn (BatchNormali (None, 30, 30, 240)  960         block4a_expand_conv[0][0]        
__________________________________________________________________________________________________
block4a_expand_activation (Acti (None, 30, 30, 240)  0           block4a_expand_bn[0][0]          
__________________________________________________________________________________________________
block4a_dwconv (DepthwiseConv2D (None, 15, 15, 240)  2160        block4a_expand_activation[0][0]  
__________________________________________________________________________________________________
block4a_bn (BatchNormalization) (None, 15, 15, 240)  960         block4a_dwconv[0][0]             
__________________________________________________________________________________________________
block4a_activation (Activation) (None, 15, 15, 240)  0           block4a_bn[0][0]                 
__________________________________________________________________________________________________
block4a_se_squeeze (GlobalAvera (None, 240)          0           block4a_activation[0][0]         
__________________________________________________________________________________________________
block4a_se_reshape (Reshape)    (None, 1, 1, 240)    0           block4a_se_squeeze[0][0]         
__________________________________________________________________________________________________
block4a_se_reduce (Conv2D)      (None, 1, 1, 10)     2410        block4a_se_reshape[0][0]         
__________________________________________________________________________________________________
block4a_se_expand (Conv2D)      (None, 1, 1, 240)    2640        block4a_se_reduce[0][0]          
__________________________________________________________________________________________________
block4a_se_excite (Multiply)    (None, 15, 15, 240)  0           block4a_activation[0][0]         
                                                                 block4a_se_expand[0][0]          
__________________________________________________________________________________________________
block4a_project_conv (Conv2D)   (None, 15, 15, 80)   19200       block4a_se_excite[0][0]          
__________________________________________________________________________________________________
block4a_project_bn (BatchNormal (None, 15, 15, 80)   320         block4a_project_conv[0][0]       
__________________________________________________________________________________________________
block4b_expand_conv (Conv2D)    (None, 15, 15, 480)  38400       block4a_project_bn[0][0]         
__________________________________________________________________________________________________
block4b_expand_bn (BatchNormali (None, 15, 15, 480)  1920        block4b_expand_conv[0][0]        
__________________________________________________________________________________________________
block4b_expand_activation (Acti (None, 15, 15, 480)  0           block4b_expand_bn[0][0]          
__________________________________________________________________________________________________
block4b_dwconv (DepthwiseConv2D (None, 15, 15, 480)  4320        block4b_expand_activation[0][0]  
__________________________________________________________________________________________________
block4b_bn (BatchNormalization) (None, 15, 15, 480)  1920        block4b_dwconv[0][0]             
__________________________________________________________________________________________________
block4b_activation (Activation) (None, 15, 15, 480)  0           block4b_bn[0][0]                 
__________________________________________________________________________________________________
block4b_se_squeeze (GlobalAvera (None, 480)          0           block4b_activation[0][0]         
__________________________________________________________________________________________________
block4b_se_reshape (Reshape)    (None, 1, 1, 480)    0           block4b_se_squeeze[0][0]         
__________________________________________________________________________________________________
block4b_se_reduce (Conv2D)      (None, 1, 1, 20)     9620        block4b_se_reshape[0][0]         
__________________________________________________________________________________________________
block4b_se_expand (Conv2D)      (None, 1, 1, 480)    10080       block4b_se_reduce[0][0]          
__________________________________________________________________________________________________
block4b_se_excite (Multiply)    (None, 15, 15, 480)  0           block4b_activation[0][0]         
                                                                 block4b_se_expand[0][0]          
__________________________________________________________________________________________________
block4b_project_conv (Conv2D)   (None, 15, 15, 80)   38400       block4b_se_excite[0][0]          
__________________________________________________________________________________________________
block4b_project_bn (BatchNormal (None, 15, 15, 80)   320         block4b_project_conv[0][0]       
__________________________________________________________________________________________________
block4b_drop (FixedDropout)     (None, 15, 15, 80)   0           block4b_project_bn[0][0]         
__________________________________________________________________________________________________
block4b_add (Add)               (None, 15, 15, 80)   0           block4b_drop[0][0]               
                                                                 block4a_project_bn[0][0]         
__________________________________________________________________________________________________
block4c_expand_conv (Conv2D)    (None, 15, 15, 480)  38400       block4b_add[0][0]                
__________________________________________________________________________________________________
block4c_expand_bn (BatchNormali (None, 15, 15, 480)  1920        block4c_expand_conv[0][0]        
__________________________________________________________________________________________________
block4c_expand_activation (Acti (None, 15, 15, 480)  0           block4c_expand_bn[0][0]          
__________________________________________________________________________________________________
block4c_dwconv (DepthwiseConv2D (None, 15, 15, 480)  4320        block4c_expand_activation[0][0]  
__________________________________________________________________________________________________
block4c_bn (BatchNormalization) (None, 15, 15, 480)  1920        block4c_dwconv[0][0]             
__________________________________________________________________________________________________
block4c_activation (Activation) (None, 15, 15, 480)  0           block4c_bn[0][0]                 
__________________________________________________________________________________________________
block4c_se_squeeze (GlobalAvera (None, 480)          0           block4c_activation[0][0]         
__________________________________________________________________________________________________
block4c_se_reshape (Reshape)    (None, 1, 1, 480)    0           block4c_se_squeeze[0][0]         
__________________________________________________________________________________________________
block4c_se_reduce (Conv2D)      (None, 1, 1, 20)     9620        block4c_se_reshape[0][0]         
__________________________________________________________________________________________________
block4c_se_expand (Conv2D)      (None, 1, 1, 480)    10080       block4c_se_reduce[0][0]          
__________________________________________________________________________________________________
block4c_se_excite (Multiply)    (None, 15, 15, 480)  0           block4c_activation[0][0]         
                                                                 block4c_se_expand[0][0]          
__________________________________________________________________________________________________
block4c_project_conv (Conv2D)   (None, 15, 15, 80)   38400       block4c_se_excite[0][0]          
__________________________________________________________________________________________________
block4c_project_bn (BatchNormal (None, 15, 15, 80)   320         block4c_project_conv[0][0]       
__________________________________________________________________________________________________
block4c_drop (FixedDropout)     (None, 15, 15, 80)   0           block4c_project_bn[0][0]         
__________________________________________________________________________________________________
block4c_add (Add)               (None, 15, 15, 80)   0           block4c_drop[0][0]               
                                                                 block4b_add[0][0]                
__________________________________________________________________________________________________
block4d_expand_conv (Conv2D)    (None, 15, 15, 480)  38400       block4c_add[0][0]                
__________________________________________________________________________________________________
block4d_expand_bn (BatchNormali (None, 15, 15, 480)  1920        block4d_expand_conv[0][0]        
__________________________________________________________________________________________________
block4d_expand_activation (Acti (None, 15, 15, 480)  0           block4d_expand_bn[0][0]          
__________________________________________________________________________________________________
block4d_dwconv (DepthwiseConv2D (None, 15, 15, 480)  4320        block4d_expand_activation[0][0]  
__________________________________________________________________________________________________
block4d_bn (BatchNormalization) (None, 15, 15, 480)  1920        block4d_dwconv[0][0]             
__________________________________________________________________________________________________
block4d_activation (Activation) (None, 15, 15, 480)  0           block4d_bn[0][0]                 
__________________________________________________________________________________________________
block4d_se_squeeze (GlobalAvera (None, 480)          0           block4d_activation[0][0]         
__________________________________________________________________________________________________
block4d_se_reshape (Reshape)    (None, 1, 1, 480)    0           block4d_se_squeeze[0][0]         
__________________________________________________________________________________________________
block4d_se_reduce (Conv2D)      (None, 1, 1, 20)     9620        block4d_se_reshape[0][0]         
__________________________________________________________________________________________________
block4d_se_expand (Conv2D)      (None, 1, 1, 480)    10080       block4d_se_reduce[0][0]          
__________________________________________________________________________________________________
block4d_se_excite (Multiply)    (None, 15, 15, 480)  0           block4d_activation[0][0]         
                                                                 block4d_se_expand[0][0]          
__________________________________________________________________________________________________
block4d_project_conv (Conv2D)   (None, 15, 15, 80)   38400       block4d_se_excite[0][0]          
__________________________________________________________________________________________________
block4d_project_bn (BatchNormal (None, 15, 15, 80)   320         block4d_project_conv[0][0]       
__________________________________________________________________________________________________
block4d_drop (FixedDropout)     (None, 15, 15, 80)   0           block4d_project_bn[0][0]         
__________________________________________________________________________________________________
block4d_add (Add)               (None, 15, 15, 80)   0           block4d_drop[0][0]               
                                                                 block4c_add[0][0]                
__________________________________________________________________________________________________
block5a_expand_conv (Conv2D)    (None, 15, 15, 480)  38400       block4d_add[0][0]                
__________________________________________________________________________________________________
block5a_expand_bn (BatchNormali (None, 15, 15, 480)  1920        block5a_expand_conv[0][0]        
__________________________________________________________________________________________________
block5a_expand_activation (Acti (None, 15, 15, 480)  0           block5a_expand_bn[0][0]          
__________________________________________________________________________________________________
block5a_dwconv (DepthwiseConv2D (None, 15, 15, 480)  12000       block5a_expand_activation[0][0]  
__________________________________________________________________________________________________
block5a_bn (BatchNormalization) (None, 15, 15, 480)  1920        block5a_dwconv[0][0]             
__________________________________________________________________________________________________
block5a_activation (Activation) (None, 15, 15, 480)  0           block5a_bn[0][0]                 
__________________________________________________________________________________________________
block5a_se_squeeze (GlobalAvera (None, 480)          0           block5a_activation[0][0]         
__________________________________________________________________________________________________
block5a_se_reshape (Reshape)    (None, 1, 1, 480)    0           block5a_se_squeeze[0][0]         
__________________________________________________________________________________________________
block5a_se_reduce (Conv2D)      (None, 1, 1, 20)     9620        block5a_se_reshape[0][0]         
__________________________________________________________________________________________________
block5a_se_expand (Conv2D)      (None, 1, 1, 480)    10080       block5a_se_reduce[0][0]          
__________________________________________________________________________________________________
block5a_se_excite (Multiply)    (None, 15, 15, 480)  0           block5a_activation[0][0]         
                                                                 block5a_se_expand[0][0]          
__________________________________________________________________________________________________
block5a_project_conv (Conv2D)   (None, 15, 15, 112)  53760       block5a_se_excite[0][0]          
__________________________________________________________________________________________________
block5a_project_bn (BatchNormal (None, 15, 15, 112)  448         block5a_project_conv[0][0]       
__________________________________________________________________________________________________
block5b_expand_conv (Conv2D)    (None, 15, 15, 672)  75264       block5a_project_bn[0][0]         
__________________________________________________________________________________________________
block5b_expand_bn (BatchNormali (None, 15, 15, 672)  2688        block5b_expand_conv[0][0]        
__________________________________________________________________________________________________
block5b_expand_activation (Acti (None, 15, 15, 672)  0           block5b_expand_bn[0][0]          
__________________________________________________________________________________________________
block5b_dwconv (DepthwiseConv2D (None, 15, 15, 672)  16800       block5b_expand_activation[0][0]  
__________________________________________________________________________________________________
block5b_bn (BatchNormalization) (None, 15, 15, 672)  2688        block5b_dwconv[0][0]             
__________________________________________________________________________________________________
block5b_activation (Activation) (None, 15, 15, 672)  0           block5b_bn[0][0]                 
__________________________________________________________________________________________________
block5b_se_squeeze (GlobalAvera (None, 672)          0           block5b_activation[0][0]         
__________________________________________________________________________________________________
block5b_se_reshape (Reshape)    (None, 1, 1, 672)    0           block5b_se_squeeze[0][0]         
__________________________________________________________________________________________________
block5b_se_reduce (Conv2D)      (None, 1, 1, 28)     18844       block5b_se_reshape[0][0]         
__________________________________________________________________________________________________
block5b_se_expand (Conv2D)      (None, 1, 1, 672)    19488       block5b_se_reduce[0][0]          
__________________________________________________________________________________________________
block5b_se_excite (Multiply)    (None, 15, 15, 672)  0           block5b_activation[0][0]         
                                                                 block5b_se_expand[0][0]          
__________________________________________________________________________________________________
block5b_project_conv (Conv2D)   (None, 15, 15, 112)  75264       block5b_se_excite[0][0]          
__________________________________________________________________________________________________
block5b_project_bn (BatchNormal (None, 15, 15, 112)  448         block5b_project_conv[0][0]       
__________________________________________________________________________________________________
block5b_drop (FixedDropout)     (None, 15, 15, 112)  0           block5b_project_bn[0][0]         
__________________________________________________________________________________________________
block5b_add (Add)               (None, 15, 15, 112)  0           block5b_drop[0][0]               
                                                                 block5a_project_bn[0][0]         
__________________________________________________________________________________________________
block5c_expand_conv (Conv2D)    (None, 15, 15, 672)  75264       block5b_add[0][0]                
__________________________________________________________________________________________________
block5c_expand_bn (BatchNormali (None, 15, 15, 672)  2688        block5c_expand_conv[0][0]        
__________________________________________________________________________________________________
block5c_expand_activation (Acti (None, 15, 15, 672)  0           block5c_expand_bn[0][0]          
__________________________________________________________________________________________________
block5c_dwconv (DepthwiseConv2D (None, 15, 15, 672)  16800       block5c_expand_activation[0][0]  
__________________________________________________________________________________________________
block5c_bn (BatchNormalization) (None, 15, 15, 672)  2688        block5c_dwconv[0][0]             
__________________________________________________________________________________________________
block5c_activation (Activation) (None, 15, 15, 672)  0           block5c_bn[0][0]                 
__________________________________________________________________________________________________
block5c_se_squeeze (GlobalAvera (None, 672)          0           block5c_activation[0][0]         
__________________________________________________________________________________________________
block5c_se_reshape (Reshape)    (None, 1, 1, 672)    0           block5c_se_squeeze[0][0]         
__________________________________________________________________________________________________
block5c_se_reduce (Conv2D)      (None, 1, 1, 28)     18844       block5c_se_reshape[0][0]         
__________________________________________________________________________________________________
block5c_se_expand (Conv2D)      (None, 1, 1, 672)    19488       block5c_se_reduce[0][0]          
__________________________________________________________________________________________________
block5c_se_excite (Multiply)    (None, 15, 15, 672)  0           block5c_activation[0][0]         
                                                                 block5c_se_expand[0][0]          
__________________________________________________________________________________________________
block5c_project_conv (Conv2D)   (None, 15, 15, 112)  75264       block5c_se_excite[0][0]          
__________________________________________________________________________________________________
block5c_project_bn (BatchNormal (None, 15, 15, 112)  448         block5c_project_conv[0][0]       
__________________________________________________________________________________________________
block5c_drop (FixedDropout)     (None, 15, 15, 112)  0           block5c_project_bn[0][0]         
__________________________________________________________________________________________________
block5c_add (Add)               (None, 15, 15, 112)  0           block5c_drop[0][0]               
                                                                 block5b_add[0][0]                
__________________________________________________________________________________________________
block5d_expand_conv (Conv2D)    (None, 15, 15, 672)  75264       block5c_add[0][0]                
__________________________________________________________________________________________________
block5d_expand_bn (BatchNormali (None, 15, 15, 672)  2688        block5d_expand_conv[0][0]        
__________________________________________________________________________________________________
block5d_expand_activation (Acti (None, 15, 15, 672)  0           block5d_expand_bn[0][0]          
__________________________________________________________________________________________________
block5d_dwconv (DepthwiseConv2D (None, 15, 15, 672)  16800       block5d_expand_activation[0][0]  
__________________________________________________________________________________________________
block5d_bn (BatchNormalization) (None, 15, 15, 672)  2688        block5d_dwconv[0][0]             
__________________________________________________________________________________________________
block5d_activation (Activation) (None, 15, 15, 672)  0           block5d_bn[0][0]                 
__________________________________________________________________________________________________
block5d_se_squeeze (GlobalAvera (None, 672)          0           block5d_activation[0][0]         
__________________________________________________________________________________________________
block5d_se_reshape (Reshape)    (None, 1, 1, 672)    0           block5d_se_squeeze[0][0]         
__________________________________________________________________________________________________
block5d_se_reduce (Conv2D)      (None, 1, 1, 28)     18844       block5d_se_reshape[0][0]         
__________________________________________________________________________________________________
block5d_se_expand (Conv2D)      (None, 1, 1, 672)    19488       block5d_se_reduce[0][0]          
__________________________________________________________________________________________________
block5d_se_excite (Multiply)    (None, 15, 15, 672)  0           block5d_activation[0][0]         
                                                                 block5d_se_expand[0][0]          
__________________________________________________________________________________________________
block5d_project_conv (Conv2D)   (None, 15, 15, 112)  75264       block5d_se_excite[0][0]          
__________________________________________________________________________________________________
block5d_project_bn (BatchNormal (None, 15, 15, 112)  448         block5d_project_conv[0][0]       
__________________________________________________________________________________________________
block5d_drop (FixedDropout)     (None, 15, 15, 112)  0           block5d_project_bn[0][0]         
__________________________________________________________________________________________________
block5d_add (Add)               (None, 15, 15, 112)  0           block5d_drop[0][0]               
                                                                 block5c_add[0][0]                
__________________________________________________________________________________________________
block6a_expand_conv (Conv2D)    (None, 15, 15, 672)  75264       block5d_add[0][0]                
__________________________________________________________________________________________________
block6a_expand_bn (BatchNormali (None, 15, 15, 672)  2688        block6a_expand_conv[0][0]        
__________________________________________________________________________________________________
block6a_expand_activation (Acti (None, 15, 15, 672)  0           block6a_expand_bn[0][0]          
__________________________________________________________________________________________________
block6a_dwconv (DepthwiseConv2D (None, 8, 8, 672)    16800       block6a_expand_activation[0][0]  
__________________________________________________________________________________________________
block6a_bn (BatchNormalization) (None, 8, 8, 672)    2688        block6a_dwconv[0][0]             
__________________________________________________________________________________________________
block6a_activation (Activation) (None, 8, 8, 672)    0           block6a_bn[0][0]                 
__________________________________________________________________________________________________
block6a_se_squeeze (GlobalAvera (None, 672)          0           block6a_activation[0][0]         
__________________________________________________________________________________________________
block6a_se_reshape (Reshape)    (None, 1, 1, 672)    0           block6a_se_squeeze[0][0]         
__________________________________________________________________________________________________
block6a_se_reduce (Conv2D)      (None, 1, 1, 28)     18844       block6a_se_reshape[0][0]         
__________________________________________________________________________________________________
block6a_se_expand (Conv2D)      (None, 1, 1, 672)    19488       block6a_se_reduce[0][0]          
__________________________________________________________________________________________________
block6a_se_excite (Multiply)    (None, 8, 8, 672)    0           block6a_activation[0][0]         
                                                                 block6a_se_expand[0][0]          
__________________________________________________________________________________________________
block6a_project_conv (Conv2D)   (None, 8, 8, 192)    129024      block6a_se_excite[0][0]          
__________________________________________________________________________________________________
block6a_project_bn (BatchNormal (None, 8, 8, 192)    768         block6a_project_conv[0][0]       
__________________________________________________________________________________________________
block6b_expand_conv (Conv2D)    (None, 8, 8, 1152)   221184      block6a_project_bn[0][0]         
__________________________________________________________________________________________________
block6b_expand_bn (BatchNormali (None, 8, 8, 1152)   4608        block6b_expand_conv[0][0]        
__________________________________________________________________________________________________
block6b_expand_activation (Acti (None, 8, 8, 1152)   0           block6b_expand_bn[0][0]          
__________________________________________________________________________________________________
block6b_dwconv (DepthwiseConv2D (None, 8, 8, 1152)   28800       block6b_expand_activation[0][0]  
__________________________________________________________________________________________________
block6b_bn (BatchNormalization) (None, 8, 8, 1152)   4608        block6b_dwconv[0][0]             
__________________________________________________________________________________________________
block6b_activation (Activation) (None, 8, 8, 1152)   0           block6b_bn[0][0]                 
__________________________________________________________________________________________________
block6b_se_squeeze (GlobalAvera (None, 1152)         0           block6b_activation[0][0]         
__________________________________________________________________________________________________
block6b_se_reshape (Reshape)    (None, 1, 1, 1152)   0           block6b_se_squeeze[0][0]         
__________________________________________________________________________________________________
block6b_se_reduce (Conv2D)      (None, 1, 1, 48)     55344       block6b_se_reshape[0][0]         
__________________________________________________________________________________________________
block6b_se_expand (Conv2D)      (None, 1, 1, 1152)   56448       block6b_se_reduce[0][0]          
__________________________________________________________________________________________________
block6b_se_excite (Multiply)    (None, 8, 8, 1152)   0           block6b_activation[0][0]         
                                                                 block6b_se_expand[0][0]          
__________________________________________________________________________________________________
block6b_project_conv (Conv2D)   (None, 8, 8, 192)    221184      block6b_se_excite[0][0]          
__________________________________________________________________________________________________
block6b_project_bn (BatchNormal (None, 8, 8, 192)    768         block6b_project_conv[0][0]       
__________________________________________________________________________________________________
block6b_drop (FixedDropout)     (None, 8, 8, 192)    0           block6b_project_bn[0][0]         
__________________________________________________________________________________________________
block6b_add (Add)               (None, 8, 8, 192)    0           block6b_drop[0][0]               
                                                                 block6a_project_bn[0][0]         
__________________________________________________________________________________________________
block6c_expand_conv (Conv2D)    (None, 8, 8, 1152)   221184      block6b_add[0][0]                
__________________________________________________________________________________________________
block6c_expand_bn (BatchNormali (None, 8, 8, 1152)   4608        block6c_expand_conv[0][0]        
__________________________________________________________________________________________________
block6c_expand_activation (Acti (None, 8, 8, 1152)   0           block6c_expand_bn[0][0]          
__________________________________________________________________________________________________
block6c_dwconv (DepthwiseConv2D (None, 8, 8, 1152)   28800       block6c_expand_activation[0][0]  
__________________________________________________________________________________________________
block6c_bn (BatchNormalization) (None, 8, 8, 1152)   4608        block6c_dwconv[0][0]             
__________________________________________________________________________________________________
block6c_activation (Activation) (None, 8, 8, 1152)   0           block6c_bn[0][0]                 
__________________________________________________________________________________________________
block6c_se_squeeze (GlobalAvera (None, 1152)         0           block6c_activation[0][0]         
__________________________________________________________________________________________________
block6c_se_reshape (Reshape)    (None, 1, 1, 1152)   0           block6c_se_squeeze[0][0]         
__________________________________________________________________________________________________
block6c_se_reduce (Conv2D)      (None, 1, 1, 48)     55344       block6c_se_reshape[0][0]         
__________________________________________________________________________________________________
block6c_se_expand (Conv2D)      (None, 1, 1, 1152)   56448       block6c_se_reduce[0][0]          
__________________________________________________________________________________________________
block6c_se_excite (Multiply)    (None, 8, 8, 1152)   0           block6c_activation[0][0]         
                                                                 block6c_se_expand[0][0]          
__________________________________________________________________________________________________
block6c_project_conv (Conv2D)   (None, 8, 8, 192)    221184      block6c_se_excite[0][0]          
__________________________________________________________________________________________________
block6c_project_bn (BatchNormal (None, 8, 8, 192)    768         block6c_project_conv[0][0]       
__________________________________________________________________________________________________
block6c_drop (FixedDropout)     (None, 8, 8, 192)    0           block6c_project_bn[0][0]         
__________________________________________________________________________________________________
block6c_add (Add)               (None, 8, 8, 192)    0           block6c_drop[0][0]               
                                                                 block6b_add[0][0]                
__________________________________________________________________________________________________
block6d_expand_conv (Conv2D)    (None, 8, 8, 1152)   221184      block6c_add[0][0]                
__________________________________________________________________________________________________
block6d_expand_bn (BatchNormali (None, 8, 8, 1152)   4608        block6d_expand_conv[0][0]        
__________________________________________________________________________________________________
block6d_expand_activation (Acti (None, 8, 8, 1152)   0           block6d_expand_bn[0][0]          
__________________________________________________________________________________________________
block6d_dwconv (DepthwiseConv2D (None, 8, 8, 1152)   28800       block6d_expand_activation[0][0]  
__________________________________________________________________________________________________
block6d_bn (BatchNormalization) (None, 8, 8, 1152)   4608        block6d_dwconv[0][0]             
__________________________________________________________________________________________________
block6d_activation (Activation) (None, 8, 8, 1152)   0           block6d_bn[0][0]                 
__________________________________________________________________________________________________
block6d_se_squeeze (GlobalAvera (None, 1152)         0           block6d_activation[0][0]         
__________________________________________________________________________________________________
block6d_se_reshape (Reshape)    (None, 1, 1, 1152)   0           block6d_se_squeeze[0][0]         
__________________________________________________________________________________________________
block6d_se_reduce (Conv2D)      (None, 1, 1, 48)     55344       block6d_se_reshape[0][0]         
__________________________________________________________________________________________________
block6d_se_expand (Conv2D)      (None, 1, 1, 1152)   56448       block6d_se_reduce[0][0]          
__________________________________________________________________________________________________
block6d_se_excite (Multiply)    (None, 8, 8, 1152)   0           block6d_activation[0][0]         
                                                                 block6d_se_expand[0][0]          
__________________________________________________________________________________________________
block6d_project_conv (Conv2D)   (None, 8, 8, 192)    221184      block6d_se_excite[0][0]          
__________________________________________________________________________________________________
block6d_project_bn (BatchNormal (None, 8, 8, 192)    768         block6d_project_conv[0][0]       
__________________________________________________________________________________________________
block6d_drop (FixedDropout)     (None, 8, 8, 192)    0           block6d_project_bn[0][0]         
__________________________________________________________________________________________________
block6d_add (Add)               (None, 8, 8, 192)    0           block6d_drop[0][0]               
                                                                 block6c_add[0][0]                
__________________________________________________________________________________________________
block6e_expand_conv (Conv2D)    (None, 8, 8, 1152)   221184      block6d_add[0][0]                
__________________________________________________________________________________________________
block6e_expand_bn (BatchNormali (None, 8, 8, 1152)   4608        block6e_expand_conv[0][0]        
__________________________________________________________________________________________________
block6e_expand_activation (Acti (None, 8, 8, 1152)   0           block6e_expand_bn[0][0]          
__________________________________________________________________________________________________
block6e_dwconv (DepthwiseConv2D (None, 8, 8, 1152)   28800       block6e_expand_activation[0][0]  
__________________________________________________________________________________________________
block6e_bn (BatchNormalization) (None, 8, 8, 1152)   4608        block6e_dwconv[0][0]             
__________________________________________________________________________________________________
block6e_activation (Activation) (None, 8, 8, 1152)   0           block6e_bn[0][0]                 
__________________________________________________________________________________________________
block6e_se_squeeze (GlobalAvera (None, 1152)         0           block6e_activation[0][0]         
__________________________________________________________________________________________________
block6e_se_reshape (Reshape)    (None, 1, 1, 1152)   0           block6e_se_squeeze[0][0]         
__________________________________________________________________________________________________
block6e_se_reduce (Conv2D)      (None, 1, 1, 48)     55344       block6e_se_reshape[0][0]         
__________________________________________________________________________________________________
block6e_se_expand (Conv2D)      (None, 1, 1, 1152)   56448       block6e_se_reduce[0][0]          
__________________________________________________________________________________________________
block6e_se_excite (Multiply)    (None, 8, 8, 1152)   0           block6e_activation[0][0]         
                                                                 block6e_se_expand[0][0]          
__________________________________________________________________________________________________
block6e_project_conv (Conv2D)   (None, 8, 8, 192)    221184      block6e_se_excite[0][0]          
__________________________________________________________________________________________________
block6e_project_bn (BatchNormal (None, 8, 8, 192)    768         block6e_project_conv[0][0]       
__________________________________________________________________________________________________
block6e_drop (FixedDropout)     (None, 8, 8, 192)    0           block6e_project_bn[0][0]         
__________________________________________________________________________________________________
block6e_add (Add)               (None, 8, 8, 192)    0           block6e_drop[0][0]               
                                                                 block6d_add[0][0]                
__________________________________________________________________________________________________
block7a_expand_conv (Conv2D)    (None, 8, 8, 1152)   221184      block6e_add[0][0]                
__________________________________________________________________________________________________
block7a_expand_bn (BatchNormali (None, 8, 8, 1152)   4608        block7a_expand_conv[0][0]        
__________________________________________________________________________________________________
block7a_expand_activation (Acti (None, 8, 8, 1152)   0           block7a_expand_bn[0][0]          
__________________________________________________________________________________________________
block7a_dwconv (DepthwiseConv2D (None, 8, 8, 1152)   10368       block7a_expand_activation[0][0]  
__________________________________________________________________________________________________
block7a_bn (BatchNormalization) (None, 8, 8, 1152)   4608        block7a_dwconv[0][0]             
__________________________________________________________________________________________________
block7a_activation (Activation) (None, 8, 8, 1152)   0           block7a_bn[0][0]                 
__________________________________________________________________________________________________
block7a_se_squeeze (GlobalAvera (None, 1152)         0           block7a_activation[0][0]         
__________________________________________________________________________________________________
block7a_se_reshape (Reshape)    (None, 1, 1, 1152)   0           block7a_se_squeeze[0][0]         
__________________________________________________________________________________________________
block7a_se_reduce (Conv2D)      (None, 1, 1, 48)     55344       block7a_se_reshape[0][0]         
__________________________________________________________________________________________________
block7a_se_expand (Conv2D)      (None, 1, 1, 1152)   56448       block7a_se_reduce[0][0]          
__________________________________________________________________________________________________
block7a_se_excite (Multiply)    (None, 8, 8, 1152)   0           block7a_activation[0][0]         
                                                                 block7a_se_expand[0][0]          
__________________________________________________________________________________________________
block7a_project_conv (Conv2D)   (None, 8, 8, 320)    368640      block7a_se_excite[0][0]          
__________________________________________________________________________________________________
block7a_project_bn (BatchNormal (None, 8, 8, 320)    1280        block7a_project_conv[0][0]       
__________________________________________________________________________________________________
block7b_expand_conv (Conv2D)    (None, 8, 8, 1920)   614400      block7a_project_bn[0][0]         
__________________________________________________________________________________________________
block7b_expand_bn (BatchNormali (None, 8, 8, 1920)   7680        block7b_expand_conv[0][0]        
__________________________________________________________________________________________________
block7b_expand_activation (Acti (None, 8, 8, 1920)   0           block7b_expand_bn[0][0]          
__________________________________________________________________________________________________
block7b_dwconv (DepthwiseConv2D (None, 8, 8, 1920)   17280       block7b_expand_activation[0][0]  
__________________________________________________________________________________________________
block7b_bn (BatchNormalization) (None, 8, 8, 1920)   7680        block7b_dwconv[0][0]             
__________________________________________________________________________________________________
block7b_activation (Activation) (None, 8, 8, 1920)   0           block7b_bn[0][0]                 
__________________________________________________________________________________________________
block7b_se_squeeze (GlobalAvera (None, 1920)         0           block7b_activation[0][0]         
__________________________________________________________________________________________________
block7b_se_reshape (Reshape)    (None, 1, 1, 1920)   0           block7b_se_squeeze[0][0]         
__________________________________________________________________________________________________
block7b_se_reduce (Conv2D)      (None, 1, 1, 80)     153680      block7b_se_reshape[0][0]         
__________________________________________________________________________________________________
block7b_se_expand (Conv2D)      (None, 1, 1, 1920)   155520      block7b_se_reduce[0][0]          
__________________________________________________________________________________________________
block7b_se_excite (Multiply)    (None, 8, 8, 1920)   0           block7b_activation[0][0]         
                                                                 block7b_se_expand[0][0]          
__________________________________________________________________________________________________
block7b_project_conv (Conv2D)   (None, 8, 8, 320)    614400      block7b_se_excite[0][0]          
__________________________________________________________________________________________________
block7b_project_bn (BatchNormal (None, 8, 8, 320)    1280        block7b_project_conv[0][0]       
__________________________________________________________________________________________________
block7b_drop (FixedDropout)     (None, 8, 8, 320)    0           block7b_project_bn[0][0]         
__________________________________________________________________________________________________
block7b_add (Add)               (None, 8, 8, 320)    0           block7b_drop[0][0]               
                                                                 block7a_project_bn[0][0]         
__________________________________________________________________________________________________
top_conv (Conv2D)               (None, 8, 8, 1280)   409600      block7b_add[0][0]                
__________________________________________________________________________________________________
top_bn (BatchNormalization)     (None, 8, 8, 1280)   5120        top_conv[0][0]                   
__________________________________________________________________________________________________
top_activation (Activation)     (None, 8, 8, 1280)   0           top_bn[0][0]                     
__________________________________________________________________________________________________
avg_pool (GlobalAveragePooling2 (None, 1280)         0           top_activation[0][0]             
__________________________________________________________________________________________________
top_dropout (Dropout)           (None, 1280)         0           avg_pool[0][0]                   
__________________________________________________________________________________________________
probs (Dense)                   (None, 1000)         1281000     top_dropout[0][0]                
==================================================================================================
Total params: 7,856,232
Trainable params: 7,794,184
Non-trainable params: 62,048
__________________________________________________________________________________________________
