{"class_name": "Model", "config": {"name": "efficientnet-b7", "layers": [{"name": "input_5", "class_name": "InputLayer", "config": {"batch_input_shape": [null, 600, 600, 3], "dtype": "float32", "sparse": false, "name": "input_5"}, "inbound_nodes": []}, {"name": "stem_conv", "class_name": "Conv2D", "config": {"name": "stem_conv", "trainable": true, "dtype": "float32", "filters": 64, "kernel_size": [3, 3], "strides": [2, 2], "padding": "same", "data_format": "channels_last", "dilation_rate": [1, 1], "activation": "linear", "use_bias": false, "kernel_initializer": {"class_name": "VarianceScaling", "config": {"scale": 2.0, "mode": "fan_out", "distribution": "normal", "seed": null}}, "bias_initializer": {"class_name": "Zeros", "config": {}}, "kernel_regularizer": null, "bias_regularizer": null, "activity_regularizer": null, "kernel_constraint": null, "bias_constraint": null}, "inbound_nodes": [[["input_5", 0, 0, {}]]]}, {"name": "stem_bn", "class_name": "BatchNormalization", "config": {"name": "stem_bn", "trainable": true, "dtype": "float32", "axis": 3, "momentum": 0.99, "epsilon": 0.001, "center": true, "scale": true, "beta_initializer": {"class_name": "Zeros", "config": {}}, "gamma_initializer": {"class_name": "Ones", "config": {}}, "moving_mean_initializer": {"class_name": "Zeros", "config": {}}, "moving_variance_initializer": {"class_name": "Ones", "config": {}}, "beta_regularizer": null, "gamma_regularizer": null, "beta_constraint": null, "gamma_constraint": null}, "inbound_nodes": [[["stem_conv", 0, 0, {}]]]}, {"name": "stem_activation", "class_name": "Activation", "config": {"name": "stem_activation", "trainable": true, "dtype": "float32", "activation": "swish"}, "inbound_nodes": [[["stem_bn", 0, 0, {}]]]}, {"name": "block1a_dwconv", "class_name": "DepthwiseConv2D", "config": {"name": "block1a_dwconv", "trainable": true, "dtype": "float32", "kernel_size": [3, 3], "strides": [1, 1], "padding": "same", "data_format": "channels_last", "dilation_rate": [1, 1], "activation": "linear", "use_bias": false, "bias_initializer": {"class_name": "Zeros", "config": {}}, "bias_regularizer": null, "activity_regularizer": null, "bias_constraint": null, "depth_multiplier": 1, "depthwise_initializer": {"class_name": "VarianceScaling", "config": {"scale": 2.0, "mode": "fan_out", "distribution": "normal", "seed": null}}, "depthwise_regularizer": null, "depthwise_constraint": null}, "inbound_nodes": [[["stem_activation", 0, 0, {}]]]}, {"name": "block1a_bn", "class_name": "BatchNormalization", "config": {"name": "block1a_bn", "trainable": true, "dtype": "float32", "axis": 3, "momentum": 0.99, "epsilon": 0.001, "center": true, "scale": true, "beta_initializer": {"class_name": "Zeros", "config": {}}, "gamma_initializer": {"class_name": "Ones", "config": {}}, "moving_mean_initializer": {"class_name": "Zeros", "config": {}}, "moving_variance_initializer": {"class_name": "Ones", "config": {}}, "beta_regularizer": null, "gamma_regularizer": null, "beta_constraint": null, "gamma_constraint": null}, "inbound_nodes": [[["block1a_dwconv", 0, 0, {}]]]}, {"name": "block1a_activation", "class_name": "Activation", "config": {"name": "block1a_activation", "trainable": true, "dtype": "float32", "activation": "swish"}, "inbound_nodes": [[["block1a_bn", 0, 0, {}]]]}, {"name": "block1a_se_squeeze", "class_name": "GlobalAveragePooling2D", "config": {"name": "block1a_se_squeeze", "trainable": true, "dtype": "float32", "data_format": "channels_last"}, "inbound_nodes": [[["block1a_activation", 0, 0, {}]]]}, {"name": "block1a_se_reshape", "class_name": "Reshape", "config": {"name": "block1a_se_reshape", "trainable": true, "dtype": "float32", "target_shape": [1, 1, 64]}, "inbound_nodes": [[["block1a_se_squeeze", 0, 0, {}]]]}, {"name": "block1a_se_reduce", "class_name": "Conv2D", "config": {"name": "block1a_se_reduce", "trainable": true, "dtype": "float32", "filters": 16, "kernel_size": [1, 1], "strides": [1, 1], "padding": "same", "data_format": "channels_last", "dilation_rate": [1, 1], "activation": "swish", "use_bias": true, "kernel_initializer": {"class_name": "VarianceScaling", "config": {"scale": 2.0, "mode": "fan_out", "distribution": "normal", "seed": null}}, "bias_initializer": {"class_name": "Zeros", "config": {}}, "kernel_regularizer": null, "bias_regularizer": null, "activity_regularizer": null, "kernel_constraint": null, "bias_constraint": null}, "inbound_nodes": [[["block1a_se_reshape", 0, 0, {}]]]}, {"name": "block1a_se_expand", "class_name": "Conv2D", "config": {"name": "block1a_se_expand", "trainable": true, "dtype": "float32", "filters": 64, "kernel_size": [1, 1], "strides": [1, 1], "padding": "same", "data_format": "channels_last", "dilation_rate": [1, 1], "activation": "sigmoid", "use_bias": true, "kernel_initializer": {"class_name": "VarianceScaling", "config": {"scale": 2.0, "mode": "fan_out", "distribution": "normal", "seed": null}}, "bias_initializer": {"class_name": "Zeros", "config": {}}, "kernel_regularizer": null, "bias_regularizer": null, "activity_regularizer": null, "kernel_constraint": null, "bias_constraint": null}, "inbound_nodes": [[["block1a_se_reduce", 0, 0, {}]]]}, {"name": "block1a_se_excite", "class_name": "Multiply", "config": {"name": "block1a_se_excite", "trainable": true, "dtype": "float32"}, "inbound_nodes": [[["block1a_activation", 0, 0, {}], ["block1a_se_expand", 0, 0, {}]]]}, {"name": "block1a_project_conv", "class_name": "Conv2D", "config": {"name": "block1a_project_conv", "trainable": true, "dtype": "float32", "filters": 32, "kernel_size": [1, 1], "strides": [1, 1], "padding": "same", "data_format": "channels_last", "dilation_rate": [1, 1], "activation": "linear", "use_bias": false, "kernel_initializer": {"class_name": "VarianceScaling", "config": {"scale": 2.0, "mode": "fan_out", "distribution": "normal", "seed": null}}, "bias_initializer": {"class_name": "Zeros", "config": {}}, "kernel_regularizer": null, "bias_regularizer": null, "activity_regularizer": null, "kernel_constraint": null, "bias_constraint": null}, "inbound_nodes": [[["block1a_se_excite", 0, 0, {}]]]}, {"name": "block1a_project_bn", "class_name": "BatchNormalization", "config": {"name": "block1a_project_bn", "trainable": true, "dtype": "float32", "axis": 3, "momentum": 0.99, "epsilon": 0.001, "center": true, "scale": true, "beta_initializer": {"class_name": "Zeros", "config": {}}, "gamma_initializer": {"class_name": "Ones", "config": {}}, "moving_mean_initializer": {"class_name": "Zeros", "config": {}}, "moving_variance_initializer": {"class_name": "Ones", "config": {}}, "beta_regularizer": null, "gamma_regularizer": null, "beta_constraint": null, "gamma_constraint": null}, "inbound_nodes": [[["block1a_project_conv", 0, 0, {}]]]}, {"name": "block1b_dwconv", "class_name": "DepthwiseConv2D", "config": {"name": "block1b_dwconv", "trainable": true, "dtype": "float32", "kernel_size": [3, 3], "strides": [1, 1], "padding": "same", "data_format": "channels_last", "dilation_rate": [1, 1], "activation": "linear", "use_bias": false, "bias_initializer": {"class_name": "Zeros", "config": {}}, "bias_regularizer": null, "activity_regularizer": null, "bias_constraint": null, "depth_multiplier": 1, "depthwise_initializer": {"class_name": "VarianceScaling", "config": {"scale": 2.0, "mode": "fan_out", "distribution": "normal", "seed": null}}, "depthwise_regularizer": null, "depthwise_constraint": null}, "inbound_nodes": [[["block1a_project_bn", 0, 0, {}]]]}, {"name": "block1b_bn", "class_name": "BatchNormalization", "config": {"name": "block1b_bn", "trainable": true, "dtype": "float32", "axis": 3, "momentum": 0.99, "epsilon": 0.001, "center": true, "scale": true, "beta_initializer": {"class_name": "Zeros", "config": {}}, "gamma_initializer": {"class_name": "Ones", "config": {}}, "moving_mean_initializer": {"class_name": "Zeros", "config": {}}, "moving_variance_initializer": {"class_name": "Ones", "config": {}}, "beta_regularizer": null, "gamma_regularizer": null, "beta_constraint": null, "gamma_constraint": null}, "inbound_nodes": [[["block1b_dwconv", 0, 0, {}]]]}, {"name": "block1b_activation", "class_name": "Activation", "config": {"name": "block1b_activation", "trainable": true, "dtype": "float32", "activation": "swish"}, "inbound_nodes": [[["block1b_bn", 0, 0, {}]]]}, {"name": "block1b_se_squeeze", "class_name": "GlobalAveragePooling2D", "config": {"name": "block1b_se_squeeze", "trainable": true, "dtype": "float32", "data_format": "channels_last"}, "inbound_nodes": [[["block1b_activation", 0, 0, {}]]]}, {"name": "block1b_se_reshape", "class_name": "Reshape", "config": {"name": "block1b_se_reshape", "trainable": true, "dtype": "float32", "target_shape": [1, 1, 32]}, "inbound_nodes": [[["block1b_se_squeeze", 0, 0, {}]]]}, {"name": "block1b_se_reduce", "class_name": "Conv2D", "config": {"name": "block1b_se_reduce", "trainable": true, "dtype": "float32", "filters": 8, "kernel_size": [1, 1], "strides": [1, 1], "padding": "same", "data_format": "channels_last", "dilation_rate": [1, 1], "activation": "swish", "use_bias": true, "kernel_initializer": {"class_name": "VarianceScaling", "config": {"scale": 2.0, "mode": "fan_out", "distribution": "normal", "seed": null}}, "bias_initializer": {"class_name": "Zeros", "config": {}}, "kernel_regularizer": null, "bias_regularizer": null, "activity_regularizer": null, "kernel_constraint": null, "bias_constraint": null}, "inbound_nodes": [[["block1b_se_reshape", 0, 0, {}]]]}, {"name": "block1b_se_expand", "class_name": "Conv2D", "config": {"name": "block1b_se_expand", "trainable": true, "dtype": "float32", "filters": 32, "kernel_size": [1, 1], "strides": [1, 1], "padding": "same", "data_format": "channels_last", "dilation_rate": [1, 1], "activation": "sigmoid", "use_bias": true, "kernel_initializer": {"class_name": "VarianceScaling", "config": {"scale": 2.0, "mode": "fan_out", "distribution": "normal", "seed": null}}, "bias_initializer": {"class_name": "Zeros", "config": {}}, "kernel_regularizer": null, "bias_regularizer": null, "activity_regularizer": null, "kernel_constraint": null, "bias_constraint": null}, "inbound_nodes": [[["block1b_se_reduce", 0, 0, {}]]]}, {"name": "block1b_se_excite", "class_name": "Multiply", "config": {"name": "block1b_se_excite", "trainable": true, "dtype": "float32"}, "inbound_nodes": [[["block1b_activation", 0, 0, {}], ["block1b_se_expand", 0, 0, {}]]]}, {"name": "block1b_project_conv", "class_name": "Conv2D", "config": {"name": "block1b_project_conv", "trainable": true, "dtype": "float32", "filters": 32, "kernel_size": [1, 1], "strides": [1, 1], "padding": "same", "data_format": "channels_last", "dilation_rate": [1, 1], "activation": "linear", "use_bias": false, "kernel_initializer": {"class_name": "VarianceScaling", "config": {"scale": 2.0, "mode": "fan_out", "distribution": "normal", "seed": null}}, "bias_initializer": {"class_name": "Zeros", "config": {}}, "kernel_regularizer": null, "bias_regularizer": null, "activity_regularizer": null, "kernel_constraint": null, "bias_constraint": null}, "inbound_nodes": [[["block1b_se_excite", 0, 0, {}]]]}, {"name": "block1b_project_bn", "class_name": "BatchNormalization", "config": {"name": "block1b_project_bn", "trainable": true, "dtype": "float32", "axis": 3, "momentum": 0.99, "epsilon": 0.001, "center": true, "scale": true, "beta_initializer": {"class_name": "Zeros", "config": {}}, "gamma_initializer": {"class_name": "Ones", "config": {}}, "moving_mean_initializer": {"class_name": "Zeros", "config": {}}, "moving_variance_initializer": {"class_name": "Ones", "config": {}}, "beta_regularizer": null, "gamma_regularizer": null, "beta_constraint": null, "gamma_constraint": null}, "inbound_nodes": [[["block1b_project_conv", 0, 0, {}]]]}, {"name": "block1b_drop", "class_name": "FixedDropout", "config": {"name": "block1b_drop", "trainable": true, "dtype": "float32", "rate": 0.0125, "noise_shape": [null, 1, 1, 1], "seed": null}, "inbound_nodes": [[["block1b_project_bn", 0, 0, {}]]]}, {"name": "block1b_add", "class_name": "Add", "config": {"name": "block1b_add", "trainable": true, "dtype": "float32"}, "inbound_nodes": [[["block1b_drop", 0, 0, {}], ["block1a_project_bn", 0, 0, {}]]]}, {"name": "block1c_dwconv", "class_name": "DepthwiseConv2D", "config": {"name": "block1c_dwconv", "trainable": true, "dtype": "float32", "kernel_size": [3, 3], "strides": [1, 1], "padding": "same", "data_format": "channels_last", "dilation_rate": [1, 1], "activation": "linear", "use_bias": false, "bias_initializer": {"class_name": "Zeros", "config": {}}, "bias_regularizer": null, "activity_regularizer": null, "bias_constraint": null, "depth_multiplier": 1, "depthwise_initializer": {"class_name": "VarianceScaling", "config": {"scale": 2.0, "mode": "fan_out", "distribution": "normal", "seed": null}}, "depthwise_regularizer": null, "depthwise_constraint": null}, "inbound_nodes": [[["block1b_add", 0, 0, {}]]]}, {"name": "block1c_bn", "class_name": "BatchNormalization", "config": {"name": "block1c_bn", "trainable": true, "dtype": "float32", "axis": 3, "momentum": 0.99, "epsilon": 0.001, "center": true, "scale": true, "beta_initializer": {"class_name": "Zeros", "config": {}}, "gamma_initializer": {"class_name": "Ones", "config": {}}, "moving_mean_initializer": {"class_name": "Zeros", "config": {}}, "moving_variance_initializer": {"class_name": "Ones", "config": {}}, "beta_regularizer": null, "gamma_regularizer": null, "beta_constraint": null, "gamma_constraint": null}, "inbound_nodes": [[["block1c_dwconv", 0, 0, {}]]]}, {"name": "block1c_activation", "class_name": "Activation", "config": {"name": "block1c_activation", "trainable": true, "dtype": "float32", "activation": "swish"}, "inbound_nodes": [[["block1c_bn", 0, 0, {}]]]}, {"name": "block1c_se_squeeze", "class_name": "GlobalAveragePooling2D", "config": {"name": "block1c_se_squeeze", "trainable": true, "dtype": "float32", "data_format": "channels_last"}, "inbound_nodes": [[["block1c_activation", 0, 0, {}]]]}, {"name": "block1c_se_reshape", "class_name": "Reshape", "config": {"name": "block1c_se_reshape", "trainable": true, "dtype": "float32", "target_shape": [1, 1, 32]}, "inbound_nodes": [[["block1c_se_squeeze", 0, 0, {}]]]}, {"name": "block1c_se_reduce", "class_name": "Conv2D", "config": {"name": "block1c_se_reduce", "trainable": true, "dtype": "float32", "filters": 8, "kernel_size": [1, 1], "strides": [1, 1], "padding": "same", "data_format": "channels_last", "dilation_rate": [1, 1], "activation": "swish", "use_bias": true, "kernel_initializer": {"class_name": "VarianceScaling", "config": {"scale": 2.0, "mode": "fan_out", "distribution": "normal", "seed": null}}, "bias_initializer": {"class_name": "Zeros", "config": {}}, "kernel_regularizer": null, "bias_regularizer": null, "activity_regularizer": null, "kernel_constraint": null, "bias_constraint": null}, "inbound_nodes": [[["block1c_se_reshape", 0, 0, {}]]]}, {"name": "block1c_se_expand", "class_name": "Conv2D", "config": {"name": "block1c_se_expand", "trainable": true, "dtype": "float32", "filters": 32, "kernel_size": [1, 1], "strides": [1, 1], "padding": "same", "data_format": "channels_last", "dilation_rate": [1, 1], "activation": "sigmoid", "use_bias": true, "kernel_initializer": {"class_name": "VarianceScaling", "config": {"scale": 2.0, "mode": "fan_out", "distribution": "normal", "seed": null}}, "bias_initializer": {"class_name": "Zeros", "config": {}}, "kernel_regularizer": null, "bias_regularizer": null, "activity_regularizer": null, "kernel_constraint": null, "bias_constraint": null}, "inbound_nodes": [[["block1c_se_reduce", 0, 0, {}]]]}, {"name": "block1c_se_excite", "class_name": "Multiply", "config": {"name": "block1c_se_excite", "trainable": true, "dtype": "float32"}, "inbound_nodes": [[["block1c_activation", 0, 0, {}], ["block1c_se_expand", 0, 0, {}]]]}, {"name": "block1c_project_conv", "class_name": "Conv2D", "config": {"name": "block1c_project_conv", "trainable": true, "dtype": "float32", "filters": 32, "kernel_size": [1, 1], "strides": [1, 1], "padding": "same", "data_format": "channels_last", "dilation_rate": [1, 1], "activation": "linear", "use_bias": false, "kernel_initializer": {"class_name": "VarianceScaling", "config": {"scale": 2.0, "mode": "fan_out", "distribution": "normal", "seed": null}}, "bias_initializer": {"class_name": "Zeros", "config": {}}, "kernel_regularizer": null, "bias_regularizer": null, "activity_regularizer": null, "kernel_constraint": null, "bias_constraint": null}, "inbound_nodes": [[["block1c_se_excite", 0, 0, {}]]]}, {"name": "block1c_project_bn", "class_name": "BatchNormalization", "config": {"name": "block1c_project_bn", "trainable": true, "dtype": "float32", "axis": 3, "momentum": 0.99, "epsilon": 0.001, "center": true, "scale": true, "beta_initializer": {"class_name": "Zeros", "config": {}}, "gamma_initializer": {"class_name": "Ones", "config": {}}, "moving_mean_initializer": {"class_name": "Zeros", "config": {}}, "moving_variance_initializer": {"class_name": "Ones", "config": {}}, "beta_regularizer": null, "gamma_regularizer": null, "beta_constraint": null, "gamma_constraint": null}, "inbound_nodes": [[["block1c_project_conv", 0, 0, {}]]]}, {"name": "block1c_drop", "class_name": "FixedDropout", "config": {"name": "block1c_drop", "trainable": true, "dtype": "float32", "rate": 0.025, "noise_shape": [null, 1, 1, 1], "seed": null}, "inbound_nodes": [[["block1c_project_bn", 0, 0, {}]]]}, {"name": "block1c_add", "class_name": "Add", "config": {"name": "block1c_add", "trainable": true, "dtype": "float32"}, "inbound_nodes": [[["block1c_drop", 0, 0, {}], ["block1b_add", 0, 0, {}]]]}, {"name": "block1d_dwconv", "class_name": "DepthwiseConv2D", "config": {"name": "block1d_dwconv", "trainable": true, "dtype": "float32", "kernel_size": [3, 3], "strides": [1, 1], "padding": "same", "data_format": "channels_last", "dilation_rate": [1, 1], "activation": "linear", "use_bias": false, "bias_initializer": {"class_name": "Zeros", "config": {}}, "bias_regularizer": null, "activity_regularizer": null, "bias_constraint": null, "depth_multiplier": 1, "depthwise_initializer": {"class_name": "VarianceScaling", "config": {"scale": 2.0, "mode": "fan_out", "distribution": "normal", "seed": null}}, "depthwise_regularizer": null, "depthwise_constraint": null}, "inbound_nodes": [[["block1c_add", 0, 0, {}]]]}, {"name": "block1d_bn", "class_name": "BatchNormalization", "config": {"name": "block1d_bn", "trainable": true, "dtype": "float32", "axis": 3, "momentum": 0.99, "epsilon": 0.001, "center": true, "scale": true, "beta_initializer": {"class_name": "Zeros", "config": {}}, "gamma_initializer": {"class_name": "Ones", "config": {}}, "moving_mean_initializer": {"class_name": "Zeros", "config": {}}, "moving_variance_initializer": {"class_name": "Ones", "config": {}}, "beta_regularizer": null, "gamma_regularizer": null, "beta_constraint": null, "gamma_constraint": null}, "inbound_nodes": [[["block1d_dwconv", 0, 0, {}]]]}, {"name": "block1d_activation", "class_name": "Activation", "config": {"name": "block1d_activation", "trainable": true, "dtype": "float32", "activation": "swish"}, "inbound_nodes": [[["block1d_bn", 0, 0, {}]]]}, {"name": "block1d_se_squeeze", "class_name": "GlobalAveragePooling2D", "config": {"name": "block1d_se_squeeze", "trainable": true, "dtype": "float32", "data_format": "channels_last"}, "inbound_nodes": [[["block1d_activation", 0, 0, {}]]]}, {"name": "block1d_se_reshape", "class_name": "Reshape", "config": {"name": "block1d_se_reshape", "trainable": true, "dtype": "float32", "target_shape": [1, 1, 32]}, "inbound_nodes": [[["block1d_se_squeeze", 0, 0, {}]]]}, {"name": "block1d_se_reduce", "class_name": "Conv2D", "config": {"name": "block1d_se_reduce", "trainable": true, "dtype": "float32", "filters": 8, "kernel_size": [1, 1], "strides": [1, 1], "padding": "same", "data_format": "channels_last", "dilation_rate": [1, 1], "activation": "swish", "use_bias": true, "kernel_initializer": {"class_name": "VarianceScaling", "config": {"scale": 2.0, "mode": "fan_out", "distribution": "normal", "seed": null}}, "bias_initializer": {"class_name": "Zeros", "config": {}}, "kernel_regularizer": null, "bias_regularizer": null, "activity_regularizer": null, "kernel_constraint": null, "bias_constraint": null}, "inbound_nodes": [[["block1d_se_reshape", 0, 0, {}]]]}, {"name": "block1d_se_expand", "class_name": "Conv2D", "config": {"name": "block1d_se_expand", "trainable": true, "dtype": "float32", "filters": 32, "kernel_size": [1, 1], "strides": [1, 1], "padding": "same", "data_format": "channels_last", "dilation_rate": [1, 1], "activation": "sigmoid", "use_bias": true, "kernel_initializer": {"class_name": "VarianceScaling", "config": {"scale": 2.0, "mode": "fan_out", "distribution": "normal", "seed": null}}, "bias_initializer": {"class_name": "Zeros", "config": {}}, "kernel_regularizer": null, "bias_regularizer": null, "activity_regularizer": null, "kernel_constraint": null, "bias_constraint": null}, "inbound_nodes": [[["block1d_se_reduce", 0, 0, {}]]]}, {"name": "block1d_se_excite", "class_name": "Multiply", "config": {"name": "block1d_se_excite", "trainable": true, "dtype": "float32"}, "inbound_nodes": [[["block1d_activation", 0, 0, {}], ["block1d_se_expand", 0, 0, {}]]]}, {"name": "block1d_project_conv", "class_name": "Conv2D", "config": {"name": "block1d_project_conv", "trainable": true, "dtype": "float32", "filters": 32, "kernel_size": [1, 1], "strides": [1, 1], "padding": "same", "data_format": "channels_last", "dilation_rate": [1, 1], "activation": "linear", "use_bias": false, "kernel_initializer": {"class_name": "VarianceScaling", "config": {"scale": 2.0, "mode": "fan_out", "distribution": "normal", "seed": null}}, "bias_initializer": {"class_name": "Zeros", "config": {}}, "kernel_regularizer": null, "bias_regularizer": null, "activity_regularizer": null, "kernel_constraint": null, "bias_constraint": null}, "inbound_nodes": [[["block1d_se_excite", 0, 0, {}]]]}, {"name": "block1d_project_bn", "class_name": "BatchNormalization", "config": {"name": "block1d_project_bn", "trainable": true, "dtype": "float32", "axis": 3, "momentum": 0.99, "epsilon": 0.001, "center": true, "scale": true, "beta_initializer": {"class_name": "Zeros", "config": {}}, "gamma_initializer": {"class_name": "Ones", "config": {}}, "moving_mean_initializer": {"class_name": "Zeros", "config": {}}, "moving_variance_initializer": {"class_name": "Ones", "config": {}}, "beta_regularizer": null, "gamma_regularizer": null, "beta_constraint": null, "gamma_constraint": null}, "inbound_nodes": [[["block1d_project_conv", 0, 0, {}]]]}, {"name": "block1d_drop", "class_name": "FixedDropout", "config": {"name": "block1d_drop", "trainable": true, "dtype": "float32", "rate": 0.037500000000000006, "noise_shape": [null, 1, 1, 1], "seed": null}, "inbound_nodes": [[["block1d_project_bn", 0, 0, {}]]]}, {"name": "block1d_add", "class_name": "Add", "config": {"name": "block1d_add", "trainable": true, "dtype": "float32"}, "inbound_nodes": [[["block1d_drop", 0, 0, {}], ["block1c_add", 0, 0, {}]]]}, {"name": "block2a_expand_conv", "class_name": "Conv2D", "config": {"name": "block2a_expand_conv", "trainable": true, "dtype": "float32", "filters": 192, "kernel_size": [1, 1], "strides": [1, 1], "padding": "same", "data_format": "channels_last", "dilation_rate": [1, 1], "activation": "linear", "use_bias": false, "kernel_initializer": {"class_name": "VarianceScaling", "config": {"scale": 2.0, "mode": "fan_out", "distribution": "normal", "seed": null}}, "bias_initializer": {"class_name": "Zeros", "config": {}}, "kernel_regularizer": null, "bias_regularizer": null, "activity_regularizer": null, "kernel_constraint": null, "bias_constraint": null}, "inbound_nodes": [[["block1d_add", 0, 0, {}]]]}, {"name": "block2a_expand_bn", "class_name": "BatchNormalization", "config": {"name": "block2a_expand_bn", "trainable": true, "dtype": "float32", "axis": 3, "momentum": 0.99, "epsilon": 0.001, "center": true, "scale": true, "beta_initializer": {"class_name": "Zeros", "config": {}}, "gamma_initializer": {"class_name": "Ones", "config": {}}, "moving_mean_initializer": {"class_name": "Zeros", "config": {}}, "moving_variance_initializer": {"class_name": "Ones", "config": {}}, "beta_regularizer": null, "gamma_regularizer": null, "beta_constraint": null, "gamma_constraint": null}, "inbound_nodes": [[["block2a_expand_conv", 0, 0, {}]]]}, {"name": "block2a_expand_activation", "class_name": "Activation", "config": {"name": "block2a_expand_activation", "trainable": true, "dtype": "float32", "activation": "swish"}, "inbound_nodes": [[["block2a_expand_bn", 0, 0, {}]]]}, {"name": "block2a_dwconv", "class_name": "DepthwiseConv2D", "config": {"name": "block2a_dwconv", "trainable": true, "dtype": "float32", "kernel_size": [3, 3], "strides": [2, 2], "padding": "same", "data_format": "channels_last", "dilation_rate": [1, 1], "activation": "linear", "use_bias": false, "bias_initializer": {"class_name": "Zeros", "config": {}}, "bias_regularizer": null, "activity_regularizer": null, "bias_constraint": null, "depth_multiplier": 1, "depthwise_initializer": {"class_name": "VarianceScaling", "config": {"scale": 2.0, "mode": "fan_out", "distribution": "normal", "seed": null}}, "depthwise_regularizer": null, "depthwise_constraint": null}, "inbound_nodes": [[["block2a_expand_activation", 0, 0, {}]]]}, {"name": "block2a_bn", "class_name": "BatchNormalization", "config": {"name": "block2a_bn", "trainable": true, "dtype": "float32", "axis": 3, "momentum": 0.99, "epsilon": 0.001, "center": true, "scale": true, "beta_initializer": {"class_name": "Zeros", "config": {}}, "gamma_initializer": {"class_name": "Ones", "config": {}}, "moving_mean_initializer": {"class_name": "Zeros", "config": {}}, "moving_variance_initializer": {"class_name": "Ones", "config": {}}, "beta_regularizer": null, "gamma_regularizer": null, "beta_constraint": null, "gamma_constraint": null}, "inbound_nodes": [[["block2a_dwconv", 0, 0, {}]]]}, {"name": "block2a_activation", "class_name": "Activation", "config": {"name": "block2a_activation", "trainable": true, "dtype": "float32", "activation": "swish"}, "inbound_nodes": [[["block2a_bn", 0, 0, {}]]]}, {"name": "block2a_se_squeeze", "class_name": "GlobalAveragePooling2D", "config": {"name": "block2a_se_squeeze", "trainable": true, "dtype": "float32", "data_format": "channels_last"}, "inbound_nodes": [[["block2a_activation", 0, 0, {}]]]}, {"name": "block2a_se_reshape", "class_name": "Reshape", "config": {"name": "block2a_se_reshape", "trainable": true, "dtype": "float32", "target_shape": [1, 1, 192]}, "inbound_nodes": [[["block2a_se_squeeze", 0, 0, {}]]]}, {"name": "block2a_se_reduce", "class_name": "Conv2D", "config": {"name": "block2a_se_reduce", "trainable": true, "dtype": "float32", "filters": 8, "kernel_size": [1, 1], "strides": [1, 1], "padding": "same", "data_format": "channels_last", "dilation_rate": [1, 1], "activation": "swish", "use_bias": true, "kernel_initializer": {"class_name": "VarianceScaling", "config": {"scale": 2.0, "mode": "fan_out", "distribution": "normal", "seed": null}}, "bias_initializer": {"class_name": "Zeros", "config": {}}, "kernel_regularizer": null, "bias_regularizer": null, "activity_regularizer": null, "kernel_constraint": null, "bias_constraint": null}, "inbound_nodes": [[["block2a_se_reshape", 0, 0, {}]]]}, {"name": "block2a_se_expand", "class_name": "Conv2D", "config": {"name": "block2a_se_expand", "trainable": true, "dtype": "float32", "filters": 192, "kernel_size": [1, 1], "strides": [1, 1], "padding": "same", "data_format": "channels_last", "dilation_rate": [1, 1], "activation": "sigmoid", "use_bias": true, "kernel_initializer": {"class_name": "VarianceScaling", "config": {"scale": 2.0, "mode": "fan_out", "distribution": "normal", "seed": null}}, "bias_initializer": {"class_name": "Zeros", "config": {}}, "kernel_regularizer": null, "bias_regularizer": null, "activity_regularizer": null, "kernel_constraint": null, "bias_constraint": null}, "inbound_nodes": [[["block2a_se_reduce", 0, 0, {}]]]}, {"name": "block2a_se_excite", "class_name": "Multiply", "config": {"name": "block2a_se_excite", "trainable": true, "dtype": "float32"}, "inbound_nodes": [[["block2a_activation", 0, 0, {}], ["block2a_se_expand", 0, 0, {}]]]}, {"name": "block2a_project_conv", "class_name": "Conv2D", "config": {"name": "block2a_project_conv", "trainable": true, "dtype": "float32", "filters": 48, "kernel_size": [1, 1], "strides": [1, 1], "padding": "same", "data_format": "channels_last", "dilation_rate": [1, 1], "activation": "linear", "use_bias": false, "kernel_initializer": {"class_name": "VarianceScaling", "config": {"scale": 2.0, "mode": "fan_out", "distribution": "normal", "seed": null}}, "bias_initializer": {"class_name": "Zeros", "config": {}}, "kernel_regularizer": null, "bias_regularizer": null, "activity_regularizer": null, "kernel_constraint": null, "bias_constraint": null}, "inbound_nodes": [[["block2a_se_excite", 0, 0, {}]]]}, {"name": "block2a_project_bn", "class_name": "BatchNormalization", "config": {"name": "block2a_project_bn", "trainable": true, "dtype": "float32", "axis": 3, "momentum": 0.99, "epsilon": 0.001, "center": true, "scale": true, "beta_initializer": {"class_name": "Zeros", "config": {}}, "gamma_initializer": {"class_name": "Ones", "config": {}}, "moving_mean_initializer": {"class_name": "Zeros", "config": {}}, "moving_variance_initializer": {"class_name": "Ones", "config": {}}, "beta_regularizer": null, "gamma_regularizer": null, "beta_constraint": null, "gamma_constraint": null}, "inbound_nodes": [[["block2a_project_conv", 0, 0, {}]]]}, {"name": "block2b_expand_conv", "class_name": "Conv2D", "config": {"name": "block2b_expand_conv", "trainable": true, "dtype": "float32", "filters": 288, "kernel_size": [1, 1], "strides": [1, 1], "padding": "same", "data_format": "channels_last", "dilation_rate": [1, 1], "activation": "linear", "use_bias": false, "kernel_initializer": {"class_name": "VarianceScaling", "config": {"scale": 2.0, "mode": "fan_out", "distribution": "normal", "seed": null}}, "bias_initializer": {"class_name": "Zeros", "config": {}}, "kernel_regularizer": null, "bias_regularizer": null, "activity_regularizer": null, "kernel_constraint": null, "bias_constraint": null}, "inbound_nodes": [[["block2a_project_bn", 0, 0, {}]]]}, {"name": "block2b_expand_bn", "class_name": "BatchNormalization", "config": {"name": "block2b_expand_bn", "trainable": true, "dtype": "float32", "axis": 3, "momentum": 0.99, "epsilon": 0.001, "center": true, "scale": true, "beta_initializer": {"class_name": "Zeros", "config": {}}, "gamma_initializer": {"class_name": "Ones", "config": {}}, "moving_mean_initializer": {"class_name": "Zeros", "config": {}}, "moving_variance_initializer": {"class_name": "Ones", "config": {}}, "beta_regularizer": null, "gamma_regularizer": null, "beta_constraint": null, "gamma_constraint": null}, "inbound_nodes": [[["block2b_expand_conv", 0, 0, {}]]]}, {"name": "block2b_expand_activation", "class_name": "Activation", "config": {"name": "block2b_expand_activation", "trainable": true, "dtype": "float32", "activation": "swish"}, "inbound_nodes": [[["block2b_expand_bn", 0, 0, {}]]]}, {"name": "block2b_dwconv", "class_name": "DepthwiseConv2D", "config": {"name": "block2b_dwconv", "trainable": true, "dtype": "float32", "kernel_size": [3, 3], "strides": [1, 1], "padding": "same", "data_format": "channels_last", "dilation_rate": [1, 1], "activation": "linear", "use_bias": false, "bias_initializer": {"class_name": "Zeros", "config": {}}, "bias_regularizer": null, "activity_regularizer": null, "bias_constraint": null, "depth_multiplier": 1, "depthwise_initializer": {"class_name": "VarianceScaling", "config": {"scale": 2.0, "mode": "fan_out", "distribution": "normal", "seed": null}}, "depthwise_regularizer": null, "depthwise_constraint": null}, "inbound_nodes": [[["block2b_expand_activation", 0, 0, {}]]]}, {"name": "block2b_bn", "class_name": "BatchNormalization", "config": {"name": "block2b_bn", "trainable": true, "dtype": "float32", "axis": 3, "momentum": 0.99, "epsilon": 0.001, "center": true, "scale": true, "beta_initializer": {"class_name": "Zeros", "config": {}}, "gamma_initializer": {"class_name": "Ones", "config": {}}, "moving_mean_initializer": {"class_name": "Zeros", "config": {}}, "moving_variance_initializer": {"class_name": "Ones", "config": {}}, "beta_regularizer": null, "gamma_regularizer": null, "beta_constraint": null, "gamma_constraint": null}, "inbound_nodes": [[["block2b_dwconv", 0, 0, {}]]]}, {"name": "block2b_activation", "class_name": "Activation", "config": {"name": "block2b_activation", "trainable": true, "dtype": "float32", "activation": "swish"}, "inbound_nodes": [[["block2b_bn", 0, 0, {}]]]}, {"name": "block2b_se_squeeze", "class_name": "GlobalAveragePooling2D", "config": {"name": "block2b_se_squeeze", "trainable": true, "dtype": "float32", "data_format": "channels_last"}, "inbound_nodes": [[["block2b_activation", 0, 0, {}]]]}, {"name": "block2b_se_reshape", "class_name": "Reshape", "config": {"name": "block2b_se_reshape", "trainable": true, "dtype": "float32", "target_shape": [1, 1, 288]}, "inbound_nodes": [[["block2b_se_squeeze", 0, 0, {}]]]}, {"name": "block2b_se_reduce", "class_name": "Conv2D", "config": {"name": "block2b_se_reduce", "trainable": true, "dtype": "float32", "filters": 12, "kernel_size": [1, 1], "strides": [1, 1], "padding": "same", "data_format": "channels_last", "dilation_rate": [1, 1], "activation": "swish", "use_bias": true, "kernel_initializer": {"class_name": "VarianceScaling", "config": {"scale": 2.0, "mode": "fan_out", "distribution": "normal", "seed": null}}, "bias_initializer": {"class_name": "Zeros", "config": {}}, "kernel_regularizer": null, "bias_regularizer": null, "activity_regularizer": null, "kernel_constraint": null, "bias_constraint": null}, "inbound_nodes": [[["block2b_se_reshape", 0, 0, {}]]]}, {"name": "block2b_se_expand", "class_name": "Conv2D", "config": {"name": "block2b_se_expand", "trainable": true, "dtype": "float32", "filters": 288, "kernel_size": [1, 1], "strides": [1, 1], "padding": "same", "data_format": "channels_last", "dilation_rate": [1, 1], "activation": "sigmoid", "use_bias": true, "kernel_initializer": {"class_name": "VarianceScaling", "config": {"scale": 2.0, "mode": "fan_out", "distribution": "normal", "seed": null}}, "bias_initializer": {"class_name": "Zeros", "config": {}}, "kernel_regularizer": null, "bias_regularizer": null, "activity_regularizer": null, "kernel_constraint": null, "bias_constraint": null}, "inbound_nodes": [[["block2b_se_reduce", 0, 0, {}]]]}, {"name": "block2b_se_excite", "class_name": "Multiply", "config": {"name": "block2b_se_excite", "trainable": true, "dtype": "float32"}, "inbound_nodes": [[["block2b_activation", 0, 0, {}], ["block2b_se_expand", 0, 0, {}]]]}, {"name": "block2b_project_conv", "class_name": "Conv2D", "config": {"name": "block2b_project_conv", "trainable": true, "dtype": "float32", "filters": 48, "kernel_size": [1, 1], "strides": [1, 1], "padding": "same", "data_format": "channels_last", "dilation_rate": [1, 1], "activation": "linear", "use_bias": false, "kernel_initializer": {"class_name": "VarianceScaling", "config": {"scale": 2.0, "mode": "fan_out", "distribution": "normal", "seed": null}}, "bias_initializer": {"class_name": "Zeros", "config": {}}, "kernel_regularizer": null, "bias_regularizer": null, "activity_regularizer": null, "kernel_constraint": null, "bias_constraint": null}, "inbound_nodes": [[["block2b_se_excite", 0, 0, {}]]]}, {"name": "block2b_project_bn", "class_name": "BatchNormalization", "config": {"name": "block2b_project_bn", "trainable": true, "dtype": "float32", "axis": 3, "momentum": 0.99, "epsilon": 0.001, "center": true, "scale": true, "beta_initializer": {"class_name": "Zeros", "config": {}}, "gamma_initializer": {"class_name": "Ones", "config": {}}, "moving_mean_initializer": {"class_name": "Zeros", "config": {}}, "moving_variance_initializer": {"class_name": "Ones", "config": {}}, "beta_regularizer": null, "gamma_regularizer": null, "beta_constraint": null, "gamma_constraint": null}, "inbound_nodes": [[["block2b_project_conv", 0, 0, {}]]]}, {"name": "block2b_drop", "class_name": "FixedDropout", "config": {"name": "block2b_drop", "trainable": true, "dtype": "float32", "rate": 0.0625, "noise_shape": [null, 1, 1, 1], "seed": null}, "inbound_nodes": [[["block2b_project_bn", 0, 0, {}]]]}, {"name": "block2b_add", "class_name": "Add", "config": {"name": "block2b_add", "trainable": true, "dtype": "float32"}, "inbound_nodes": [[["block2b_drop", 0, 0, {}], ["block2a_project_bn", 0, 0, {}]]]}, {"name": "block2c_expand_conv", "class_name": "Conv2D", "config": {"name": "block2c_expand_conv", "trainable": true, "dtype": "float32", "filters": 288, "kernel_size": [1, 1], "strides": [1, 1], "padding": "same", "data_format": "channels_last", "dilation_rate": [1, 1], "activation": "linear", "use_bias": false, "kernel_initializer": {"class_name": "VarianceScaling", "config": {"scale": 2.0, "mode": "fan_out", "distribution": "normal", "seed": null}}, "bias_initializer": {"class_name": "Zeros", "config": {}}, "kernel_regularizer": null, "bias_regularizer": null, "activity_regularizer": null, "kernel_constraint": null, "bias_constraint": null}, "inbound_nodes": [[["block2b_add", 0, 0, {}]]]}, {"name": "block2c_expand_bn", "class_name": "BatchNormalization", "config": {"name": "block2c_expand_bn", "trainable": true, "dtype": "float32", "axis": 3, "momentum": 0.99, "epsilon": 0.001, "center": true, "scale": true, "beta_initializer": {"class_name": "Zeros", "config": {}}, "gamma_initializer": {"class_name": "Ones", "config": {}}, "moving_mean_initializer": {"class_name": "Zeros", "config": {}}, "moving_variance_initializer": {"class_name": "Ones", "config": {}}, "beta_regularizer": null, "gamma_regularizer": null, "beta_constraint": null, "gamma_constraint": null}, "inbound_nodes": [[["block2c_expand_conv", 0, 0, {}]]]}, {"name": "block2c_expand_activation", "class_name": "Activation", "config": {"name": "block2c_expand_activation", "trainable": true, "dtype": "float32", "activation": "swish"}, "inbound_nodes": [[["block2c_expand_bn", 0, 0, {}]]]}, {"name": "block2c_dwconv", "class_name": "DepthwiseConv2D", "config": {"name": "block2c_dwconv", "trainable": true, "dtype": "float32", "kernel_size": [3, 3], "strides": [1, 1], "padding": "same", "data_format": "channels_last", "dilation_rate": [1, 1], "activation": "linear", "use_bias": false, "bias_initializer": {"class_name": "Zeros", "config": {}}, "bias_regularizer": null, "activity_regularizer": null, "bias_constraint": null, "depth_multiplier": 1, "depthwise_initializer": {"class_name": "VarianceScaling", "config": {"scale": 2.0, "mode": "fan_out", "distribution": "normal", "seed": null}}, "depthwise_regularizer": null, "depthwise_constraint": null}, "inbound_nodes": [[["block2c_expand_activation", 0, 0, {}]]]}, {"name": "block2c_bn", "class_name": "BatchNormalization", "config": {"name": "block2c_bn", "trainable": true, "dtype": "float32", "axis": 3, "momentum": 0.99, "epsilon": 0.001, "center": true, "scale": true, "beta_initializer": {"class_name": "Zeros", "config": {}}, "gamma_initializer": {"class_name": "Ones", "config": {}}, "moving_mean_initializer": {"class_name": "Zeros", "config": {}}, "moving_variance_initializer": {"class_name": "Ones", "config": {}}, "beta_regularizer": null, "gamma_regularizer": null, "beta_constraint": null, "gamma_constraint": null}, "inbound_nodes": [[["block2c_dwconv", 0, 0, {}]]]}, {"name": "block2c_activation", "class_name": "Activation", "config": {"name": "block2c_activation", "trainable": true, "dtype": "float32", "activation": "swish"}, "inbound_nodes": [[["block2c_bn", 0, 0, {}]]]}, {"name": "block2c_se_squeeze", "class_name": "GlobalAveragePooling2D", "config": {"name": "block2c_se_squeeze", "trainable": true, "dtype": "float32", "data_format": "channels_last"}, "inbound_nodes": [[["block2c_activation", 0, 0, {}]]]}, {"name": "block2c_se_reshape", "class_name": "Reshape", "config": {"name": "block2c_se_reshape", "trainable": true, "dtype": "float32", "target_shape": [1, 1, 288]}, "inbound_nodes": [[["block2c_se_squeeze", 0, 0, {}]]]}, {"name": "block2c_se_reduce", "class_name": "Conv2D", "config": {"name": "block2c_se_reduce", "trainable": true, "dtype": "float32", "filters": 12, "kernel_size": [1, 1], "strides": [1, 1], "padding": "same", "data_format": "channels_last", "dilation_rate": [1, 1], "activation": "swish", "use_bias": true, "kernel_initializer": {"class_name": "VarianceScaling", "config": {"scale": 2.0, "mode": "fan_out", "distribution": "normal", "seed": null}}, "bias_initializer": {"class_name": "Zeros", "config": {}}, "kernel_regularizer": null, "bias_regularizer": null, "activity_regularizer": null, "kernel_constraint": null, "bias_constraint": null}, "inbound_nodes": [[["block2c_se_reshape", 0, 0, {}]]]}, {"name": "block2c_se_expand", "class_name": "Conv2D", "config": {"name": "block2c_se_expand", "trainable": true, "dtype": "float32", "filters": 288, "kernel_size": [1, 1], "strides": [1, 1], "padding": "same", "data_format": "channels_last", "dilation_rate": [1, 1], "activation": "sigmoid", "use_bias": true, "kernel_initializer": {"class_name": "VarianceScaling", "config": {"scale": 2.0, "mode": "fan_out", "distribution": "normal", "seed": null}}, "bias_initializer": {"class_name": "Zeros", "config": {}}, "kernel_regularizer": null, "bias_regularizer": null, "activity_regularizer": null, "kernel_constraint": null, "bias_constraint": null}, "inbound_nodes": [[["block2c_se_reduce", 0, 0, {}]]]}, {"name": "block2c_se_excite", "class_name": "Multiply", "config": {"name": "block2c_se_excite", "trainable": true, "dtype": "float32"}, "inbound_nodes": [[["block2c_activation", 0, 0, {}], ["block2c_se_expand", 0, 0, {}]]]}, {"name": "block2c_project_conv", "class_name": "Conv2D", "config": {"name": "block2c_project_conv", "trainable": true, "dtype": "float32", "filters": 48, "kernel_size": [1, 1], "strides": [1, 1], "padding": "same", "data_format": "channels_last", "dilation_rate": [1, 1], "activation": "linear", "use_bias": false, "kernel_initializer": {"class_name": "VarianceScaling", "config": {"scale": 2.0, "mode": "fan_out", "distribution": "normal", "seed": null}}, "bias_initializer": {"class_name": "Zeros", "config": {}}, "kernel_regularizer": null, "bias_regularizer": null, "activity_regularizer": null, "kernel_constraint": null, "bias_constraint": null}, "inbound_nodes": [[["block2c_se_excite", 0, 0, {}]]]}, {"name": "block2c_project_bn", "class_name": "BatchNormalization", "config": {"name": "block2c_project_bn", "trainable": true, "dtype": "float32", "axis": 3, "momentum": 0.99, "epsilon": 0.001, "center": true, "scale": true, "beta_initializer": {"class_name": "Zeros", "config": {}}, "gamma_initializer": {"class_name": "Ones", "config": {}}, "moving_mean_initializer": {"class_name": "Zeros", "config": {}}, "moving_variance_initializer": {"class_name": "Ones", "config": {}}, "beta_regularizer": null, "gamma_regularizer": null, "beta_constraint": null, "gamma_constraint": null}, "inbound_nodes": [[["block2c_project_conv", 0, 0, {}]]]}, {"name": "block2c_drop", "class_name": "FixedDropout", "config": {"name": "block2c_drop", "trainable": true, "dtype": "float32", "rate": 0.07500000000000001, "noise_shape": [null, 1, 1, 1], "seed": null}, "inbound_nodes": [[["block2c_project_bn", 0, 0, {}]]]}, {"name": "block2c_add", "class_name": "Add", "config": {"name": "block2c_add", "trainable": true, "dtype": "float32"}, "inbound_nodes": [[["block2c_drop", 0, 0, {}], ["block2b_add", 0, 0, {}]]]}, {"name": "block2d_expand_conv", "class_name": "Conv2D", "config": {"name": "block2d_expand_conv", "trainable": true, "dtype": "float32", "filters": 288, "kernel_size": [1, 1], "strides": [1, 1], "padding": "same", "data_format": "channels_last", "dilation_rate": [1, 1], "activation": "linear", "use_bias": false, "kernel_initializer": {"class_name": "VarianceScaling", "config": {"scale": 2.0, "mode": "fan_out", "distribution": "normal", "seed": null}}, "bias_initializer": {"class_name": "Zeros", "config": {}}, "kernel_regularizer": null, "bias_regularizer": null, "activity_regularizer": null, "kernel_constraint": null, "bias_constraint": null}, "inbound_nodes": [[["block2c_add", 0, 0, {}]]]}, {"name": "block2d_expand_bn", "class_name": "BatchNormalization", "config": {"name": "block2d_expand_bn", "trainable": true, "dtype": "float32", "axis": 3, "momentum": 0.99, "epsilon": 0.001, "center": true, "scale": true, "beta_initializer": {"class_name": "Zeros", "config": {}}, "gamma_initializer": {"class_name": "Ones", "config": {}}, "moving_mean_initializer": {"class_name": "Zeros", "config": {}}, "moving_variance_initializer": {"class_name": "Ones", "config": {}}, "beta_regularizer": null, "gamma_regularizer": null, "beta_constraint": null, "gamma_constraint": null}, "inbound_nodes": [[["block2d_expand_conv", 0, 0, {}]]]}, {"name": "block2d_expand_activation", "class_name": "Activation", "config": {"name": "block2d_expand_activation", "trainable": true, "dtype": "float32", "activation": "swish"}, "inbound_nodes": [[["block2d_expand_bn", 0, 0, {}]]]}, {"name": "block2d_dwconv", "class_name": "DepthwiseConv2D", "config": {"name": "block2d_dwconv", "trainable": true, "dtype": "float32", "kernel_size": [3, 3], "strides": [1, 1], "padding": "same", "data_format": "channels_last", "dilation_rate": [1, 1], "activation": "linear", "use_bias": false, "bias_initializer": {"class_name": "Zeros", "config": {}}, "bias_regularizer": null, "activity_regularizer": null, "bias_constraint": null, "depth_multiplier": 1, "depthwise_initializer": {"class_name": "VarianceScaling", "config": {"scale": 2.0, "mode": "fan_out", "distribution": "normal", "seed": null}}, "depthwise_regularizer": null, "depthwise_constraint": null}, "inbound_nodes": [[["block2d_expand_activation", 0, 0, {}]]]}, {"name": "block2d_bn", "class_name": "BatchNormalization", "config": {"name": "block2d_bn", "trainable": true, "dtype": "float32", "axis": 3, "momentum": 0.99, "epsilon": 0.001, "center": true, "scale": true, "beta_initializer": {"class_name": "Zeros", "config": {}}, "gamma_initializer": {"class_name": "Ones", "config": {}}, "moving_mean_initializer": {"class_name": "Zeros", "config": {}}, "moving_variance_initializer": {"class_name": "Ones", "config": {}}, "beta_regularizer": null, "gamma_regularizer": null, "beta_constraint": null, "gamma_constraint": null}, "inbound_nodes": [[["block2d_dwconv", 0, 0, {}]]]}, {"name": "block2d_activation", "class_name": "Activation", "config": {"name": "block2d_activation", "trainable": true, "dtype": "float32", "activation": "swish"}, "inbound_nodes": [[["block2d_bn", 0, 0, {}]]]}, {"name": "block2d_se_squeeze", "class_name": "GlobalAveragePooling2D", "config": {"name": "block2d_se_squeeze", "trainable": true, "dtype": "float32", "data_format": "channels_last"}, "inbound_nodes": [[["block2d_activation", 0, 0, {}]]]}, {"name": "block2d_se_reshape", "class_name": "Reshape", "config": {"name": "block2d_se_reshape", "trainable": true, "dtype": "float32", "target_shape": [1, 1, 288]}, "inbound_nodes": [[["block2d_se_squeeze", 0, 0, {}]]]}, {"name": "block2d_se_reduce", "class_name": "Conv2D", "config": {"name": "block2d_se_reduce", "trainable": true, "dtype": "float32", "filters": 12, "kernel_size": [1, 1], "strides": [1, 1], "padding": "same", "data_format": "channels_last", "dilation_rate": [1, 1], "activation": "swish", "use_bias": true, "kernel_initializer": {"class_name": "VarianceScaling", "config": {"scale": 2.0, "mode": "fan_out", "distribution": "normal", "seed": null}}, "bias_initializer": {"class_name": "Zeros", "config": {}}, "kernel_regularizer": null, "bias_regularizer": null, "activity_regularizer": null, "kernel_constraint": null, "bias_constraint": null}, "inbound_nodes": [[["block2d_se_reshape", 0, 0, {}]]]}, {"name": "block2d_se_expand", "class_name": "Conv2D", "config": {"name": "block2d_se_expand", "trainable": true, "dtype": "float32", "filters": 288, "kernel_size": [1, 1], "strides": [1, 1], "padding": "same", "data_format": "channels_last", "dilation_rate": [1, 1], "activation": "sigmoid", "use_bias": true, "kernel_initializer": {"class_name": "VarianceScaling", "config": {"scale": 2.0, "mode": "fan_out", "distribution": "normal", "seed": null}}, "bias_initializer": {"class_name": "Zeros", "config": {}}, "kernel_regularizer": null, "bias_regularizer": null, "activity_regularizer": null, "kernel_constraint": null, "bias_constraint": null}, "inbound_nodes": [[["block2d_se_reduce", 0, 0, {}]]]}, {"name": "block2d_se_excite", "class_name": "Multiply", "config": {"name": "block2d_se_excite", "trainable": true, "dtype": "float32"}, "inbound_nodes": [[["block2d_activation", 0, 0, {}], ["block2d_se_expand", 0, 0, {}]]]}, {"name": "block2d_project_conv", "class_name": "Conv2D", "config": {"name": "block2d_project_conv", "trainable": true, "dtype": "float32", "filters": 48, "kernel_size": [1, 1], "strides": [1, 1], "padding": "same", "data_format": "channels_last", "dilation_rate": [1, 1], "activation": "linear", "use_bias": false, "kernel_initializer": {"class_name": "VarianceScaling", "config": {"scale": 2.0, "mode": "fan_out", "distribution": "normal", "seed": null}}, "bias_initializer": {"class_name": "Zeros", "config": {}}, "kernel_regularizer": null, "bias_regularizer": null, "activity_regularizer": null, "kernel_constraint": null, "bias_constraint": null}, "inbound_nodes": [[["block2d_se_excite", 0, 0, {}]]]}, {"name": "block2d_project_bn", "class_name": "BatchNormalization", "config": {"name": "block2d_project_bn", "trainable": true, "dtype": "float32", "axis": 3, "momentum": 0.99, "epsilon": 0.001, "center": true, "scale": true, "beta_initializer": {"class_name": "Zeros", "config": {}}, "gamma_initializer": {"class_name": "Ones", "config": {}}, "moving_mean_initializer": {"class_name": "Zeros", "config": {}}, "moving_variance_initializer": {"class_name": "Ones", "config": {}}, "beta_regularizer": null, "gamma_regularizer": null, "beta_constraint": null, "gamma_constraint": null}, "inbound_nodes": [[["block2d_project_conv", 0, 0, {}]]]}, {"name": "block2d_drop", "class_name": "FixedDropout", "config": {"name": "block2d_drop", "trainable": true, "dtype": "float32", "rate": 0.08750000000000001, "noise_shape": [null, 1, 1, 1], "seed": null}, "inbound_nodes": [[["block2d_project_bn", 0, 0, {}]]]}, {"name": "block2d_add", "class_name": "Add", "config": {"name": "block2d_add", "trainable": true, "dtype": "float32"}, "inbound_nodes": [[["block2d_drop", 0, 0, {}], ["block2c_add", 0, 0, {}]]]}, {"name": "block2e_expand_conv", "class_name": "Conv2D", "config": {"name": "block2e_expand_conv", "trainable": true, "dtype": "float32", "filters": 288, "kernel_size": [1, 1], "strides": [1, 1], "padding": "same", "data_format": "channels_last", "dilation_rate": [1, 1], "activation": "linear", "use_bias": false, "kernel_initializer": {"class_name": "VarianceScaling", "config": {"scale": 2.0, "mode": "fan_out", "distribution": "normal", "seed": null}}, "bias_initializer": {"class_name": "Zeros", "config": {}}, "kernel_regularizer": null, "bias_regularizer": null, "activity_regularizer": null, "kernel_constraint": null, "bias_constraint": null}, "inbound_nodes": [[["block2d_add", 0, 0, {}]]]}, {"name": "block2e_expand_bn", "class_name": "BatchNormalization", "config": {"name": "block2e_expand_bn", "trainable": true, "dtype": "float32", "axis": 3, "momentum": 0.99, "epsilon": 0.001, "center": true, "scale": true, "beta_initializer": {"class_name": "Zeros", "config": {}}, "gamma_initializer": {"class_name": "Ones", "config": {}}, "moving_mean_initializer": {"class_name": "Zeros", "config": {}}, "moving_variance_initializer": {"class_name": "Ones", "config": {}}, "beta_regularizer": null, "gamma_regularizer": null, "beta_constraint": null, "gamma_constraint": null}, "inbound_nodes": [[["block2e_expand_conv", 0, 0, {}]]]}, {"name": "block2e_expand_activation", "class_name": "Activation", "config": {"name": "block2e_expand_activation", "trainable": true, "dtype": "float32", "activation": "swish"}, "inbound_nodes": [[["block2e_expand_bn", 0, 0, {}]]]}, {"name": "block2e_dwconv", "class_name": "DepthwiseConv2D", "config": {"name": "block2e_dwconv", "trainable": true, "dtype": "float32", "kernel_size": [3, 3], "strides": [1, 1], "padding": "same", "data_format": "channels_last", "dilation_rate": [1, 1], "activation": "linear", "use_bias": false, "bias_initializer": {"class_name": "Zeros", "config": {}}, "bias_regularizer": null, "activity_regularizer": null, "bias_constraint": null, "depth_multiplier": 1, "depthwise_initializer": {"class_name": "VarianceScaling", "config": {"scale": 2.0, "mode": "fan_out", "distribution": "normal", "seed": null}}, "depthwise_regularizer": null, "depthwise_constraint": null}, "inbound_nodes": [[["block2e_expand_activation", 0, 0, {}]]]}, {"name": "block2e_bn", "class_name": "BatchNormalization", "config": {"name": "block2e_bn", "trainable": true, "dtype": "float32", "axis": 3, "momentum": 0.99, "epsilon": 0.001, "center": true, "scale": true, "beta_initializer": {"class_name": "Zeros", "config": {}}, "gamma_initializer": {"class_name": "Ones", "config": {}}, "moving_mean_initializer": {"class_name": "Zeros", "config": {}}, "moving_variance_initializer": {"class_name": "Ones", "config": {}}, "beta_regularizer": null, "gamma_regularizer": null, "beta_constraint": null, "gamma_constraint": null}, "inbound_nodes": [[["block2e_dwconv", 0, 0, {}]]]}, {"name": "block2e_activation", "class_name": "Activation", "config": {"name": "block2e_activation", "trainable": true, "dtype": "float32", "activation": "swish"}, "inbound_nodes": [[["block2e_bn", 0, 0, {}]]]}, {"name": "block2e_se_squeeze", "class_name": "GlobalAveragePooling2D", "config": {"name": "block2e_se_squeeze", "trainable": true, "dtype": "float32", "data_format": "channels_last"}, "inbound_nodes": [[["block2e_activation", 0, 0, {}]]]}, {"name": "block2e_se_reshape", "class_name": "Reshape", "config": {"name": "block2e_se_reshape", "trainable": true, "dtype": "float32", "target_shape": [1, 1, 288]}, "inbound_nodes": [[["block2e_se_squeeze", 0, 0, {}]]]}, {"name": "block2e_se_reduce", "class_name": "Conv2D", "config": {"name": "block2e_se_reduce", "trainable": true, "dtype": "float32", "filters": 12, "kernel_size": [1, 1], "strides": [1, 1], "padding": "same", "data_format": "channels_last", "dilation_rate": [1, 1], "activation": "swish", "use_bias": true, "kernel_initializer": {"class_name": "VarianceScaling", "config": {"scale": 2.0, "mode": "fan_out", "distribution": "normal", "seed": null}}, "bias_initializer": {"class_name": "Zeros", "config": {}}, "kernel_regularizer": null, "bias_regularizer": null, "activity_regularizer": null, "kernel_constraint": null, "bias_constraint": null}, "inbound_nodes": [[["block2e_se_reshape", 0, 0, {}]]]}, {"name": "block2e_se_expand", "class_name": "Conv2D", "config": {"name": "block2e_se_expand", "trainable": true, "dtype": "float32", "filters": 288, "kernel_size": [1, 1], "strides": [1, 1], "padding": "same", "data_format": "channels_last", "dilation_rate": [1, 1], "activation": "sigmoid", "use_bias": true, "kernel_initializer": {"class_name": "VarianceScaling", "config": {"scale": 2.0, "mode": "fan_out", "distribution": "normal", "seed": null}}, "bias_initializer": {"class_name": "Zeros", "config": {}}, "kernel_regularizer": null, "bias_regularizer": null, "activity_regularizer": null, "kernel_constraint": null, "bias_constraint": null}, "inbound_nodes": [[["block2e_se_reduce", 0, 0, {}]]]}, {"name": "block2e_se_excite", "class_name": "Multiply", "config": {"name": "block2e_se_excite", "trainable": true, "dtype": "float32"}, "inbound_nodes": [[["block2e_activation", 0, 0, {}], ["block2e_se_expand", 0, 0, {}]]]}, {"name": "block2e_project_conv", "class_name": "Conv2D", "config": {"name": "block2e_project_conv", "trainable": true, "dtype": "float32", "filters": 48, "kernel_size": [1, 1], "strides": [1, 1], "padding": "same", "data_format": "channels_last", "dilation_rate": [1, 1], "activation": "linear", "use_bias": false, "kernel_initializer": {"class_name": "VarianceScaling", "config": {"scale": 2.0, "mode": "fan_out", "distribution": "normal", "seed": null}}, "bias_initializer": {"class_name": "Zeros", "config": {}}, "kernel_regularizer": null, "bias_regularizer": null, "activity_regularizer": null, "kernel_constraint": null, "bias_constraint": null}, "inbound_nodes": [[["block2e_se_excite", 0, 0, {}]]]}, {"name": "block2e_project_bn", "class_name": "BatchNormalization", "config": {"name": "block2e_project_bn", "trainable": true, "dtype": "float32", "axis": 3, "momentum": 0.99, "epsilon": 0.001, "center": true, "scale": true, "beta_initializer": {"class_name": "Zeros", "config": {}}, "gamma_initializer": {"class_name": "Ones", "config": {}}, "moving_mean_initializer": {"class_name": "Zeros", "config": {}}, "moving_variance_initializer": {"class_name": "Ones", "config": {}}, "beta_regularizer": null, "gamma_regularizer": null, "beta_constraint": null, "gamma_constraint": null}, "inbound_nodes": [[["block2e_project_conv", 0, 0, {}]]]}, {"name": "block2e_drop", "class_name": "FixedDropout", "config": {"name": "block2e_drop", "trainable": true, "dtype": "float32", "rate": 0.1, "noise_shape": [null, 1, 1, 1], "seed": null}, "inbound_nodes": [[["block2e_project_bn", 0, 0, {}]]]}, {"name": "block2e_add", "class_name": "Add", "config": {"name": "block2e_add", "trainable": true, "dtype": "float32"}, "inbound_nodes": [[["block2e_drop", 0, 0, {}], ["block2d_add", 0, 0, {}]]]}, {"name": "block2f_expand_conv", "class_name": "Conv2D", "config": {"name": "block2f_expand_conv", "trainable": true, "dtype": "float32", "filters": 288, "kernel_size": [1, 1], "strides": [1, 1], "padding": "same", "data_format": "channels_last", "dilation_rate": [1, 1], "activation": "linear", "use_bias": false, "kernel_initializer": {"class_name": "VarianceScaling", "config": {"scale": 2.0, "mode": "fan_out", "distribution": "normal", "seed": null}}, "bias_initializer": {"class_name": "Zeros", "config": {}}, "kernel_regularizer": null, "bias_regularizer": null, "activity_regularizer": null, "kernel_constraint": null, "bias_constraint": null}, "inbound_nodes": [[["block2e_add", 0, 0, {}]]]}, {"name": "block2f_expand_bn", "class_name": "BatchNormalization", "config": {"name": "block2f_expand_bn", "trainable": true, "dtype": "float32", "axis": 3, "momentum": 0.99, "epsilon": 0.001, "center": true, "scale": true, "beta_initializer": {"class_name": "Zeros", "config": {}}, "gamma_initializer": {"class_name": "Ones", "config": {}}, "moving_mean_initializer": {"class_name": "Zeros", "config": {}}, "moving_variance_initializer": {"class_name": "Ones", "config": {}}, "beta_regularizer": null, "gamma_regularizer": null, "beta_constraint": null, "gamma_constraint": null}, "inbound_nodes": [[["block2f_expand_conv", 0, 0, {}]]]}, {"name": "block2f_expand_activation", "class_name": "Activation", "config": {"name": "block2f_expand_activation", "trainable": true, "dtype": "float32", "activation": "swish"}, "inbound_nodes": [[["block2f_expand_bn", 0, 0, {}]]]}, {"name": "block2f_dwconv", "class_name": "DepthwiseConv2D", "config": {"name": "block2f_dwconv", "trainable": true, "dtype": "float32", "kernel_size": [3, 3], "strides": [1, 1], "padding": "same", "data_format": "channels_last", "dilation_rate": [1, 1], "activation": "linear", "use_bias": false, "bias_initializer": {"class_name": "Zeros", "config": {}}, "bias_regularizer": null, "activity_regularizer": null, "bias_constraint": null, "depth_multiplier": 1, "depthwise_initializer": {"class_name": "VarianceScaling", "config": {"scale": 2.0, "mode": "fan_out", "distribution": "normal", "seed": null}}, "depthwise_regularizer": null, "depthwise_constraint": null}, "inbound_nodes": [[["block2f_expand_activation", 0, 0, {}]]]}, {"name": "block2f_bn", "class_name": "BatchNormalization", "config": {"name": "block2f_bn", "trainable": true, "dtype": "float32", "axis": 3, "momentum": 0.99, "epsilon": 0.001, "center": true, "scale": true, "beta_initializer": {"class_name": "Zeros", "config": {}}, "gamma_initializer": {"class_name": "Ones", "config": {}}, "moving_mean_initializer": {"class_name": "Zeros", "config": {}}, "moving_variance_initializer": {"class_name": "Ones", "config": {}}, "beta_regularizer": null, "gamma_regularizer": null, "beta_constraint": null, "gamma_constraint": null}, "inbound_nodes": [[["block2f_dwconv", 0, 0, {}]]]}, {"name": "block2f_activation", "class_name": "Activation", "config": {"name": "block2f_activation", "trainable": true, "dtype": "float32", "activation": "swish"}, "inbound_nodes": [[["block2f_bn", 0, 0, {}]]]}, {"name": "block2f_se_squeeze", "class_name": "GlobalAveragePooling2D", "config": {"name": "block2f_se_squeeze", "trainable": true, "dtype": "float32", "data_format": "channels_last"}, "inbound_nodes": [[["block2f_activation", 0, 0, {}]]]}, {"name": "block2f_se_reshape", "class_name": "Reshape", "config": {"name": "block2f_se_reshape", "trainable": true, "dtype": "float32", "target_shape": [1, 1, 288]}, "inbound_nodes": [[["block2f_se_squeeze", 0, 0, {}]]]}, {"name": "block2f_se_reduce", "class_name": "Conv2D", "config": {"name": "block2f_se_reduce", "trainable": true, "dtype": "float32", "filters": 12, "kernel_size": [1, 1], "strides": [1, 1], "padding": "same", "data_format": "channels_last", "dilation_rate": [1, 1], "activation": "swish", "use_bias": true, "kernel_initializer": {"class_name": "VarianceScaling", "config": {"scale": 2.0, "mode": "fan_out", "distribution": "normal", "seed": null}}, "bias_initializer": {"class_name": "Zeros", "config": {}}, "kernel_regularizer": null, "bias_regularizer": null, "activity_regularizer": null, "kernel_constraint": null, "bias_constraint": null}, "inbound_nodes": [[["block2f_se_reshape", 0, 0, {}]]]}, {"name": "block2f_se_expand", "class_name": "Conv2D", "config": {"name": "block2f_se_expand", "trainable": true, "dtype": "float32", "filters": 288, "kernel_size": [1, 1], "strides": [1, 1], "padding": "same", "data_format": "channels_last", "dilation_rate": [1, 1], "activation": "sigmoid", "use_bias": true, "kernel_initializer": {"class_name": "VarianceScaling", "config": {"scale": 2.0, "mode": "fan_out", "distribution": "normal", "seed": null}}, "bias_initializer": {"class_name": "Zeros", "config": {}}, "kernel_regularizer": null, "bias_regularizer": null, "activity_regularizer": null, "kernel_constraint": null, "bias_constraint": null}, "inbound_nodes": [[["block2f_se_reduce", 0, 0, {}]]]}, {"name": "block2f_se_excite", "class_name": "Multiply", "config": {"name": "block2f_se_excite", "trainable": true, "dtype": "float32"}, "inbound_nodes": [[["block2f_activation", 0, 0, {}], ["block2f_se_expand", 0, 0, {}]]]}, {"name": "block2f_project_conv", "class_name": "Conv2D", "config": {"name": "block2f_project_conv", "trainable": true, "dtype": "float32", "filters": 48, "kernel_size": [1, 1], "strides": [1, 1], "padding": "same", "data_format": "channels_last", "dilation_rate": [1, 1], "activation": "linear", "use_bias": false, "kernel_initializer": {"class_name": "VarianceScaling", "config": {"scale": 2.0, "mode": "fan_out", "distribution": "normal", "seed": null}}, "bias_initializer": {"class_name": "Zeros", "config": {}}, "kernel_regularizer": null, "bias_regularizer": null, "activity_regularizer": null, "kernel_constraint": null, "bias_constraint": null}, "inbound_nodes": [[["block2f_se_excite", 0, 0, {}]]]}, {"name": "block2f_project_bn", "class_name": "BatchNormalization", "config": {"name": "block2f_project_bn", "trainable": true, "dtype": "float32", "axis": 3, "momentum": 0.99, "epsilon": 0.001, "center": true, "scale": true, "beta_initializer": {"class_name": "Zeros", "config": {}}, "gamma_initializer": {"class_name": "Ones", "config": {}}, "moving_mean_initializer": {"class_name": "Zeros", "config": {}}, "moving_variance_initializer": {"class_name": "Ones", "config": {}}, "beta_regularizer": null, "gamma_regularizer": null, "beta_constraint": null, "gamma_constraint": null}, "inbound_nodes": [[["block2f_project_conv", 0, 0, {}]]]}, {"name": "block2f_drop", "class_name": "FixedDropout", "config": {"name": "block2f_drop", "trainable": true, "dtype": "float32", "rate": 0.1125, "noise_shape": [null, 1, 1, 1], "seed": null}, "inbound_nodes": [[["block2f_project_bn", 0, 0, {}]]]}, {"name": "block2f_add", "class_name": "Add", "config": {"name": "block2f_add", "trainable": true, "dtype": "float32"}, "inbound_nodes": [[["block2f_drop", 0, 0, {}], ["block2e_add", 0, 0, {}]]]}, {"name": "block2g_expand_conv", "class_name": "Conv2D", "config": {"name": "block2g_expand_conv", "trainable": true, "dtype": "float32", "filters": 288, "kernel_size": [1, 1], "strides": [1, 1], "padding": "same", "data_format": "channels_last", "dilation_rate": [1, 1], "activation": "linear", "use_bias": false, "kernel_initializer": {"class_name": "VarianceScaling", "config": {"scale": 2.0, "mode": "fan_out", "distribution": "normal", "seed": null}}, "bias_initializer": {"class_name": "Zeros", "config": {}}, "kernel_regularizer": null, "bias_regularizer": null, "activity_regularizer": null, "kernel_constraint": null, "bias_constraint": null}, "inbound_nodes": [[["block2f_add", 0, 0, {}]]]}, {"name": "block2g_expand_bn", "class_name": "BatchNormalization", "config": {"name": "block2g_expand_bn", "trainable": true, "dtype": "float32", "axis": 3, "momentum": 0.99, "epsilon": 0.001, "center": true, "scale": true, "beta_initializer": {"class_name": "Zeros", "config": {}}, "gamma_initializer": {"class_name": "Ones", "config": {}}, "moving_mean_initializer": {"class_name": "Zeros", "config": {}}, "moving_variance_initializer": {"class_name": "Ones", "config": {}}, "beta_regularizer": null, "gamma_regularizer": null, "beta_constraint": null, "gamma_constraint": null}, "inbound_nodes": [[["block2g_expand_conv", 0, 0, {}]]]}, {"name": "block2g_expand_activation", "class_name": "Activation", "config": {"name": "block2g_expand_activation", "trainable": true, "dtype": "float32", "activation": "swish"}, "inbound_nodes": [[["block2g_expand_bn", 0, 0, {}]]]}, {"name": "block2g_dwconv", "class_name": "DepthwiseConv2D", "config": {"name": "block2g_dwconv", "trainable": true, "dtype": "float32", "kernel_size": [3, 3], "strides": [1, 1], "padding": "same", "data_format": "channels_last", "dilation_rate": [1, 1], "activation": "linear", "use_bias": false, "bias_initializer": {"class_name": "Zeros", "config": {}}, "bias_regularizer": null, "activity_regularizer": null, "bias_constraint": null, "depth_multiplier": 1, "depthwise_initializer": {"class_name": "VarianceScaling", "config": {"scale": 2.0, "mode": "fan_out", "distribution": "normal", "seed": null}}, "depthwise_regularizer": null, "depthwise_constraint": null}, "inbound_nodes": [[["block2g_expand_activation", 0, 0, {}]]]}, {"name": "block2g_bn", "class_name": "BatchNormalization", "config": {"name": "block2g_bn", "trainable": true, "dtype": "float32", "axis": 3, "momentum": 0.99, "epsilon": 0.001, "center": true, "scale": true, "beta_initializer": {"class_name": "Zeros", "config": {}}, "gamma_initializer": {"class_name": "Ones", "config": {}}, "moving_mean_initializer": {"class_name": "Zeros", "config": {}}, "moving_variance_initializer": {"class_name": "Ones", "config": {}}, "beta_regularizer": null, "gamma_regularizer": null, "beta_constraint": null, "gamma_constraint": null}, "inbound_nodes": [[["block2g_dwconv", 0, 0, {}]]]}, {"name": "block2g_activation", "class_name": "Activation", "config": {"name": "block2g_activation", "trainable": true, "dtype": "float32", "activation": "swish"}, "inbound_nodes": [[["block2g_bn", 0, 0, {}]]]}, {"name": "block2g_se_squeeze", "class_name": "GlobalAveragePooling2D", "config": {"name": "block2g_se_squeeze", "trainable": true, "dtype": "float32", "data_format": "channels_last"}, "inbound_nodes": [[["block2g_activation", 0, 0, {}]]]}, {"name": "block2g_se_reshape", "class_name": "Reshape", "config": {"name": "block2g_se_reshape", "trainable": true, "dtype": "float32", "target_shape": [1, 1, 288]}, "inbound_nodes": [[["block2g_se_squeeze", 0, 0, {}]]]}, {"name": "block2g_se_reduce", "class_name": "Conv2D", "config": {"name": "block2g_se_reduce", "trainable": true, "dtype": "float32", "filters": 12, "kernel_size": [1, 1], "strides": [1, 1], "padding": "same", "data_format": "channels_last", "dilation_rate": [1, 1], "activation": "swish", "use_bias": true, "kernel_initializer": {"class_name": "VarianceScaling", "config": {"scale": 2.0, "mode": "fan_out", "distribution": "normal", "seed": null}}, "bias_initializer": {"class_name": "Zeros", "config": {}}, "kernel_regularizer": null, "bias_regularizer": null, "activity_regularizer": null, "kernel_constraint": null, "bias_constraint": null}, "inbound_nodes": [[["block2g_se_reshape", 0, 0, {}]]]}, {"name": "block2g_se_expand", "class_name": "Conv2D", "config": {"name": "block2g_se_expand", "trainable": true, "dtype": "float32", "filters": 288, "kernel_size": [1, 1], "strides": [1, 1], "padding": "same", "data_format": "channels_last", "dilation_rate": [1, 1], "activation": "sigmoid", "use_bias": true, "kernel_initializer": {"class_name": "VarianceScaling", "config": {"scale": 2.0, "mode": "fan_out", "distribution": "normal", "seed": null}}, "bias_initializer": {"class_name": "Zeros", "config": {}}, "kernel_regularizer": null, "bias_regularizer": null, "activity_regularizer": null, "kernel_constraint": null, "bias_constraint": null}, "inbound_nodes": [[["block2g_se_reduce", 0, 0, {}]]]}, {"name": "block2g_se_excite", "class_name": "Multiply", "config": {"name": "block2g_se_excite", "trainable": true, "dtype": "float32"}, "inbound_nodes": [[["block2g_activation", 0, 0, {}], ["block2g_se_expand", 0, 0, {}]]]}, {"name": "block2g_project_conv", "class_name": "Conv2D", "config": {"name": "block2g_project_conv", "trainable": true, "dtype": "float32", "filters": 48, "kernel_size": [1, 1], "strides": [1, 1], "padding": "same", "data_format": "channels_last", "dilation_rate": [1, 1], "activation": "linear", "use_bias": false, "kernel_initializer": {"class_name": "VarianceScaling", "config": {"scale": 2.0, "mode": "fan_out", "distribution": "normal", "seed": null}}, "bias_initializer": {"class_name": "Zeros", "config": {}}, "kernel_regularizer": null, "bias_regularizer": null, "activity_regularizer": null, "kernel_constraint": null, "bias_constraint": null}, "inbound_nodes": [[["block2g_se_excite", 0, 0, {}]]]}, {"name": "block2g_project_bn", "class_name": "BatchNormalization", "config": {"name": "block2g_project_bn", "trainable": true, "dtype": "float32", "axis": 3, "momentum": 0.99, "epsilon": 0.001, "center": true, "scale": true, "beta_initializer": {"class_name": "Zeros", "config": {}}, "gamma_initializer": {"class_name": "Ones", "config": {}}, "moving_mean_initializer": {"class_name": "Zeros", "config": {}}, "moving_variance_initializer": {"class_name": "Ones", "config": {}}, "beta_regularizer": null, "gamma_regularizer": null, "beta_constraint": null, "gamma_constraint": null}, "inbound_nodes": [[["block2g_project_conv", 0, 0, {}]]]}, {"name": "block2g_drop", "class_name": "FixedDropout", "config": {"name": "block2g_drop", "trainable": true, "dtype": "float32", "rate": 0.125, "noise_shape": [null, 1, 1, 1], "seed": null}, "inbound_nodes": [[["block2g_project_bn", 0, 0, {}]]]}, {"name": "block2g_add", "class_name": "Add", "config": {"name": "block2g_add", "trainable": true, "dtype": "float32"}, "inbound_nodes": [[["block2g_drop", 0, 0, {}], ["block2f_add", 0, 0, {}]]]}, {"name": "block3a_expand_conv", "class_name": "Conv2D", "config": {"name": "block3a_expand_conv", "trainable": true, "dtype": "float32", "filters": 288, "kernel_size": [1, 1], "strides": [1, 1], "padding": "same", "data_format": "channels_last", "dilation_rate": [1, 1], "activation": "linear", "use_bias": false, "kernel_initializer": {"class_name": "VarianceScaling", "config": {"scale": 2.0, "mode": "fan_out", "distribution": "normal", "seed": null}}, "bias_initializer": {"class_name": "Zeros", "config": {}}, "kernel_regularizer": null, "bias_regularizer": null, "activity_regularizer": null, "kernel_constraint": null, "bias_constraint": null}, "inbound_nodes": [[["block2g_add", 0, 0, {}]]]}, {"name": "block3a_expand_bn", "class_name": "BatchNormalization", "config": {"name": "block3a_expand_bn", "trainable": true, "dtype": "float32", "axis": 3, "momentum": 0.99, "epsilon": 0.001, "center": true, "scale": true, "beta_initializer": {"class_name": "Zeros", "config": {}}, "gamma_initializer": {"class_name": "Ones", "config": {}}, "moving_mean_initializer": {"class_name": "Zeros", "config": {}}, "moving_variance_initializer": {"class_name": "Ones", "config": {}}, "beta_regularizer": null, "gamma_regularizer": null, "beta_constraint": null, "gamma_constraint": null}, "inbound_nodes": [[["block3a_expand_conv", 0, 0, {}]]]}, {"name": "block3a_expand_activation", "class_name": "Activation", "config": {"name": "block3a_expand_activation", "trainable": true, "dtype": "float32", "activation": "swish"}, "inbound_nodes": [[["block3a_expand_bn", 0, 0, {}]]]}, {"name": "block3a_dwconv", "class_name": "DepthwiseConv2D", "config": {"name": "block3a_dwconv", "trainable": true, "dtype": "float32", "kernel_size": [5, 5], "strides": [2, 2], "padding": "same", "data_format": "channels_last", "dilation_rate": [1, 1], "activation": "linear", "use_bias": false, "bias_initializer": {"class_name": "Zeros", "config": {}}, "bias_regularizer": null, "activity_regularizer": null, "bias_constraint": null, "depth_multiplier": 1, "depthwise_initializer": {"class_name": "VarianceScaling", "config": {"scale": 2.0, "mode": "fan_out", "distribution": "normal", "seed": null}}, "depthwise_regularizer": null, "depthwise_constraint": null}, "inbound_nodes": [[["block3a_expand_activation", 0, 0, {}]]]}, {"name": "block3a_bn", "class_name": "BatchNormalization", "config": {"name": "block3a_bn", "trainable": true, "dtype": "float32", "axis": 3, "momentum": 0.99, "epsilon": 0.001, "center": true, "scale": true, "beta_initializer": {"class_name": "Zeros", "config": {}}, "gamma_initializer": {"class_name": "Ones", "config": {}}, "moving_mean_initializer": {"class_name": "Zeros", "config": {}}, "moving_variance_initializer": {"class_name": "Ones", "config": {}}, "beta_regularizer": null, "gamma_regularizer": null, "beta_constraint": null, "gamma_constraint": null}, "inbound_nodes": [[["block3a_dwconv", 0, 0, {}]]]}, {"name": "block3a_activation", "class_name": "Activation", "config": {"name": "block3a_activation", "trainable": true, "dtype": "float32", "activation": "swish"}, "inbound_nodes": [[["block3a_bn", 0, 0, {}]]]}, {"name": "block3a_se_squeeze", "class_name": "GlobalAveragePooling2D", "config": {"name": "block3a_se_squeeze", "trainable": true, "dtype": "float32", "data_format": "channels_last"}, "inbound_nodes": [[["block3a_activation", 0, 0, {}]]]}, {"name": "block3a_se_reshape", "class_name": "Reshape", "config": {"name": "block3a_se_reshape", "trainable": true, "dtype": "float32", "target_shape": [1, 1, 288]}, "inbound_nodes": [[["block3a_se_squeeze", 0, 0, {}]]]}, {"name": "block3a_se_reduce", "class_name": "Conv2D", "config": {"name": "block3a_se_reduce", "trainable": true, "dtype": "float32", "filters": 12, "kernel_size": [1, 1], "strides": [1, 1], "padding": "same", "data_format": "channels_last", "dilation_rate": [1, 1], "activation": "swish", "use_bias": true, "kernel_initializer": {"class_name": "VarianceScaling", "config": {"scale": 2.0, "mode": "fan_out", "distribution": "normal", "seed": null}}, "bias_initializer": {"class_name": "Zeros", "config": {}}, "kernel_regularizer": null, "bias_regularizer": null, "activity_regularizer": null, "kernel_constraint": null, "bias_constraint": null}, "inbound_nodes": [[["block3a_se_reshape", 0, 0, {}]]]}, {"name": "block3a_se_expand", "class_name": "Conv2D", "config": {"name": "block3a_se_expand", "trainable": true, "dtype": "float32", "filters": 288, "kernel_size": [1, 1], "strides": [1, 1], "padding": "same", "data_format": "channels_last", "dilation_rate": [1, 1], "activation": "sigmoid", "use_bias": true, "kernel_initializer": {"class_name": "VarianceScaling", "config": {"scale": 2.0, "mode": "fan_out", "distribution": "normal", "seed": null}}, "bias_initializer": {"class_name": "Zeros", "config": {}}, "kernel_regularizer": null, "bias_regularizer": null, "activity_regularizer": null, "kernel_constraint": null, "bias_constraint": null}, "inbound_nodes": [[["block3a_se_reduce", 0, 0, {}]]]}, {"name": "block3a_se_excite", "class_name": "Multiply", "config": {"name": "block3a_se_excite", "trainable": true, "dtype": "float32"}, "inbound_nodes": [[["block3a_activation", 0, 0, {}], ["block3a_se_expand", 0, 0, {}]]]}, {"name": "block3a_project_conv", "class_name": "Conv2D", "config": {"name": "block3a_project_conv", "trainable": true, "dtype": "float32", "filters": 80, "kernel_size": [1, 1], "strides": [1, 1], "padding": "same", "data_format": "channels_last", "dilation_rate": [1, 1], "activation": "linear", "use_bias": false, "kernel_initializer": {"class_name": "VarianceScaling", "config": {"scale": 2.0, "mode": "fan_out", "distribution": "normal", "seed": null}}, "bias_initializer": {"class_name": "Zeros", "config": {}}, "kernel_regularizer": null, "bias_regularizer": null, "activity_regularizer": null, "kernel_constraint": null, "bias_constraint": null}, "inbound_nodes": [[["block3a_se_excite", 0, 0, {}]]]}, {"name": "block3a_project_bn", "class_name": "BatchNormalization", "config": {"name": "block3a_project_bn", "trainable": true, "dtype": "float32", "axis": 3, "momentum": 0.99, "epsilon": 0.001, "center": true, "scale": true, "beta_initializer": {"class_name": "Zeros", "config": {}}, "gamma_initializer": {"class_name": "Ones", "config": {}}, "moving_mean_initializer": {"class_name": "Zeros", "config": {}}, "moving_variance_initializer": {"class_name": "Ones", "config": {}}, "beta_regularizer": null, "gamma_regularizer": null, "beta_constraint": null, "gamma_constraint": null}, "inbound_nodes": [[["block3a_project_conv", 0, 0, {}]]]}, {"name": "block3b_expand_conv", "class_name": "Conv2D", "config": {"name": "block3b_expand_conv", "trainable": true, "dtype": "float32", "filters": 480, "kernel_size": [1, 1], "strides": [1, 1], "padding": "same", "data_format": "channels_last", "dilation_rate": [1, 1], "activation": "linear", "use_bias": false, "kernel_initializer": {"class_name": "VarianceScaling", "config": {"scale": 2.0, "mode": "fan_out", "distribution": "normal", "seed": null}}, "bias_initializer": {"class_name": "Zeros", "config": {}}, "kernel_regularizer": null, "bias_regularizer": null, "activity_regularizer": null, "kernel_constraint": null, "bias_constraint": null}, "inbound_nodes": [[["block3a_project_bn", 0, 0, {}]]]}, {"name": "block3b_expand_bn", "class_name": "BatchNormalization", "config": {"name": "block3b_expand_bn", "trainable": true, "dtype": "float32", "axis": 3, "momentum": 0.99, "epsilon": 0.001, "center": true, "scale": true, "beta_initializer": {"class_name": "Zeros", "config": {}}, "gamma_initializer": {"class_name": "Ones", "config": {}}, "moving_mean_initializer": {"class_name": "Zeros", "config": {}}, "moving_variance_initializer": {"class_name": "Ones", "config": {}}, "beta_regularizer": null, "gamma_regularizer": null, "beta_constraint": null, "gamma_constraint": null}, "inbound_nodes": [[["block3b_expand_conv", 0, 0, {}]]]}, {"name": "block3b_expand_activation", "class_name": "Activation", "config": {"name": "block3b_expand_activation", "trainable": true, "dtype": "float32", "activation": "swish"}, "inbound_nodes": [[["block3b_expand_bn", 0, 0, {}]]]}, {"name": "block3b_dwconv", "class_name": "DepthwiseConv2D", "config": {"name": "block3b_dwconv", "trainable": true, "dtype": "float32", "kernel_size": [5, 5], "strides": [1, 1], "padding": "same", "data_format": "channels_last", "dilation_rate": [1, 1], "activation": "linear", "use_bias": false, "bias_initializer": {"class_name": "Zeros", "config": {}}, "bias_regularizer": null, "activity_regularizer": null, "bias_constraint": null, "depth_multiplier": 1, "depthwise_initializer": {"class_name": "VarianceScaling", "config": {"scale": 2.0, "mode": "fan_out", "distribution": "normal", "seed": null}}, "depthwise_regularizer": null, "depthwise_constraint": null}, "inbound_nodes": [[["block3b_expand_activation", 0, 0, {}]]]}, {"name": "block3b_bn", "class_name": "BatchNormalization", "config": {"name": "block3b_bn", "trainable": true, "dtype": "float32", "axis": 3, "momentum": 0.99, "epsilon": 0.001, "center": true, "scale": true, "beta_initializer": {"class_name": "Zeros", "config": {}}, "gamma_initializer": {"class_name": "Ones", "config": {}}, "moving_mean_initializer": {"class_name": "Zeros", "config": {}}, "moving_variance_initializer": {"class_name": "Ones", "config": {}}, "beta_regularizer": null, "gamma_regularizer": null, "beta_constraint": null, "gamma_constraint": null}, "inbound_nodes": [[["block3b_dwconv", 0, 0, {}]]]}, {"name": "block3b_activation", "class_name": "Activation", "config": {"name": "block3b_activation", "trainable": true, "dtype": "float32", "activation": "swish"}, "inbound_nodes": [[["block3b_bn", 0, 0, {}]]]}, {"name": "block3b_se_squeeze", "class_name": "GlobalAveragePooling2D", "config": {"name": "block3b_se_squeeze", "trainable": true, "dtype": "float32", "data_format": "channels_last"}, "inbound_nodes": [[["block3b_activation", 0, 0, {}]]]}, {"name": "block3b_se_reshape", "class_name": "Reshape", "config": {"name": "block3b_se_reshape", "trainable": true, "dtype": "float32", "target_shape": [1, 1, 480]}, "inbound_nodes": [[["block3b_se_squeeze", 0, 0, {}]]]}, {"name": "block3b_se_reduce", "class_name": "Conv2D", "config": {"name": "block3b_se_reduce", "trainable": true, "dtype": "float32", "filters": 20, "kernel_size": [1, 1], "strides": [1, 1], "padding": "same", "data_format": "channels_last", "dilation_rate": [1, 1], "activation": "swish", "use_bias": true, "kernel_initializer": {"class_name": "VarianceScaling", "config": {"scale": 2.0, "mode": "fan_out", "distribution": "normal", "seed": null}}, "bias_initializer": {"class_name": "Zeros", "config": {}}, "kernel_regularizer": null, "bias_regularizer": null, "activity_regularizer": null, "kernel_constraint": null, "bias_constraint": null}, "inbound_nodes": [[["block3b_se_reshape", 0, 0, {}]]]}, {"name": "block3b_se_expand", "class_name": "Conv2D", "config": {"name": "block3b_se_expand", "trainable": true, "dtype": "float32", "filters": 480, "kernel_size": [1, 1], "strides": [1, 1], "padding": "same", "data_format": "channels_last", "dilation_rate": [1, 1], "activation": "sigmoid", "use_bias": true, "kernel_initializer": {"class_name": "VarianceScaling", "config": {"scale": 2.0, "mode": "fan_out", "distribution": "normal", "seed": null}}, "bias_initializer": {"class_name": "Zeros", "config": {}}, "kernel_regularizer": null, "bias_regularizer": null, "activity_regularizer": null, "kernel_constraint": null, "bias_constraint": null}, "inbound_nodes": [[["block3b_se_reduce", 0, 0, {}]]]}, {"name": "block3b_se_excite", "class_name": "Multiply", "config": {"name": "block3b_se_excite", "trainable": true, "dtype": "float32"}, "inbound_nodes": [[["block3b_activation", 0, 0, {}], ["block3b_se_expand", 0, 0, {}]]]}, {"name": "block3b_project_conv", "class_name": "Conv2D", "config": {"name": "block3b_project_conv", "trainable": true, "dtype": "float32", "filters": 80, "kernel_size": [1, 1], "strides": [1, 1], "padding": "same", "data_format": "channels_last", "dilation_rate": [1, 1], "activation": "linear", "use_bias": false, "kernel_initializer": {"class_name": "VarianceScaling", "config": {"scale": 2.0, "mode": "fan_out", "distribution": "normal", "seed": null}}, "bias_initializer": {"class_name": "Zeros", "config": {}}, "kernel_regularizer": null, "bias_regularizer": null, "activity_regularizer": null, "kernel_constraint": null, "bias_constraint": null}, "inbound_nodes": [[["block3b_se_excite", 0, 0, {}]]]}, {"name": "block3b_project_bn", "class_name": "BatchNormalization", "config": {"name": "block3b_project_bn", "trainable": true, "dtype": "float32", "axis": 3, "momentum": 0.99, "epsilon": 0.001, "center": true, "scale": true, "beta_initializer": {"class_name": "Zeros", "config": {}}, "gamma_initializer": {"class_name": "Ones", "config": {}}, "moving_mean_initializer": {"class_name": "Zeros", "config": {}}, "moving_variance_initializer": {"class_name": "Ones", "config": {}}, "beta_regularizer": null, "gamma_regularizer": null, "beta_constraint": null, "gamma_constraint": null}, "inbound_nodes": [[["block3b_project_conv", 0, 0, {}]]]}, {"name": "block3b_drop", "class_name": "FixedDropout", "config": {"name": "block3b_drop", "trainable": true, "dtype": "float32", "rate": 0.15000000000000002, "noise_shape": [null, 1, 1, 1], "seed": null}, "inbound_nodes": [[["block3b_project_bn", 0, 0, {}]]]}, {"name": "block3b_add", "class_name": "Add", "config": {"name": "block3b_add", "trainable": true, "dtype": "float32"}, "inbound_nodes": [[["block3b_drop", 0, 0, {}], ["block3a_project_bn", 0, 0, {}]]]}, {"name": "block3c_expand_conv", "class_name": "Conv2D", "config": {"name": "block3c_expand_conv", "trainable": true, "dtype": "float32", "filters": 480, "kernel_size": [1, 1], "strides": [1, 1], "padding": "same", "data_format": "channels_last", "dilation_rate": [1, 1], "activation": "linear", "use_bias": false, "kernel_initializer": {"class_name": "VarianceScaling", "config": {"scale": 2.0, "mode": "fan_out", "distribution": "normal", "seed": null}}, "bias_initializer": {"class_name": "Zeros", "config": {}}, "kernel_regularizer": null, "bias_regularizer": null, "activity_regularizer": null, "kernel_constraint": null, "bias_constraint": null}, "inbound_nodes": [[["block3b_add", 0, 0, {}]]]}, {"name": "block3c_expand_bn", "class_name": "BatchNormalization", "config": {"name": "block3c_expand_bn", "trainable": true, "dtype": "float32", "axis": 3, "momentum": 0.99, "epsilon": 0.001, "center": true, "scale": true, "beta_initializer": {"class_name": "Zeros", "config": {}}, "gamma_initializer": {"class_name": "Ones", "config": {}}, "moving_mean_initializer": {"class_name": "Zeros", "config": {}}, "moving_variance_initializer": {"class_name": "Ones", "config": {}}, "beta_regularizer": null, "gamma_regularizer": null, "beta_constraint": null, "gamma_constraint": null}, "inbound_nodes": [[["block3c_expand_conv", 0, 0, {}]]]}, {"name": "block3c_expand_activation", "class_name": "Activation", "config": {"name": "block3c_expand_activation", "trainable": true, "dtype": "float32", "activation": "swish"}, "inbound_nodes": [[["block3c_expand_bn", 0, 0, {}]]]}, {"name": "block3c_dwconv", "class_name": "DepthwiseConv2D", "config": {"name": "block3c_dwconv", "trainable": true, "dtype": "float32", "kernel_size": [5, 5], "strides": [1, 1], "padding": "same", "data_format": "channels_last", "dilation_rate": [1, 1], "activation": "linear", "use_bias": false, "bias_initializer": {"class_name": "Zeros", "config": {}}, "bias_regularizer": null, "activity_regularizer": null, "bias_constraint": null, "depth_multiplier": 1, "depthwise_initializer": {"class_name": "VarianceScaling", "config": {"scale": 2.0, "mode": "fan_out", "distribution": "normal", "seed": null}}, "depthwise_regularizer": null, "depthwise_constraint": null}, "inbound_nodes": [[["block3c_expand_activation", 0, 0, {}]]]}, {"name": "block3c_bn", "class_name": "BatchNormalization", "config": {"name": "block3c_bn", "trainable": true, "dtype": "float32", "axis": 3, "momentum": 0.99, "epsilon": 0.001, "center": true, "scale": true, "beta_initializer": {"class_name": "Zeros", "config": {}}, "gamma_initializer": {"class_name": "Ones", "config": {}}, "moving_mean_initializer": {"class_name": "Zeros", "config": {}}, "moving_variance_initializer": {"class_name": "Ones", "config": {}}, "beta_regularizer": null, "gamma_regularizer": null, "beta_constraint": null, "gamma_constraint": null}, "inbound_nodes": [[["block3c_dwconv", 0, 0, {}]]]}, {"name": "block3c_activation", "class_name": "Activation", "config": {"name": "block3c_activation", "trainable": true, "dtype": "float32", "activation": "swish"}, "inbound_nodes": [[["block3c_bn", 0, 0, {}]]]}, {"name": "block3c_se_squeeze", "class_name": "GlobalAveragePooling2D", "config": {"name": "block3c_se_squeeze", "trainable": true, "dtype": "float32", "data_format": "channels_last"}, "inbound_nodes": [[["block3c_activation", 0, 0, {}]]]}, {"name": "block3c_se_reshape", "class_name": "Reshape", "config": {"name": "block3c_se_reshape", "trainable": true, "dtype": "float32", "target_shape": [1, 1, 480]}, "inbound_nodes": [[["block3c_se_squeeze", 0, 0, {}]]]}, {"name": "block3c_se_reduce", "class_name": "Conv2D", "config": {"name": "block3c_se_reduce", "trainable": true, "dtype": "float32", "filters": 20, "kernel_size": [1, 1], "strides": [1, 1], "padding": "same", "data_format": "channels_last", "dilation_rate": [1, 1], "activation": "swish", "use_bias": true, "kernel_initializer": {"class_name": "VarianceScaling", "config": {"scale": 2.0, "mode": "fan_out", "distribution": "normal", "seed": null}}, "bias_initializer": {"class_name": "Zeros", "config": {}}, "kernel_regularizer": null, "bias_regularizer": null, "activity_regularizer": null, "kernel_constraint": null, "bias_constraint": null}, "inbound_nodes": [[["block3c_se_reshape", 0, 0, {}]]]}, {"name": "block3c_se_expand", "class_name": "Conv2D", "config": {"name": "block3c_se_expand", "trainable": true, "dtype": "float32", "filters": 480, "kernel_size": [1, 1], "strides": [1, 1], "padding": "same", "data_format": "channels_last", "dilation_rate": [1, 1], "activation": "sigmoid", "use_bias": true, "kernel_initializer": {"class_name": "VarianceScaling", "config": {"scale": 2.0, "mode": "fan_out", "distribution": "normal", "seed": null}}, "bias_initializer": {"class_name": "Zeros", "config": {}}, "kernel_regularizer": null, "bias_regularizer": null, "activity_regularizer": null, "kernel_constraint": null, "bias_constraint": null}, "inbound_nodes": [[["block3c_se_reduce", 0, 0, {}]]]}, {"name": "block3c_se_excite", "class_name": "Multiply", "config": {"name": "block3c_se_excite", "trainable": true, "dtype": "float32"}, "inbound_nodes": [[["block3c_activation", 0, 0, {}], ["block3c_se_expand", 0, 0, {}]]]}, {"name": "block3c_project_conv", "class_name": "Conv2D", "config": {"name": "block3c_project_conv", "trainable": true, "dtype": "float32", "filters": 80, "kernel_size": [1, 1], "strides": [1, 1], "padding": "same", "data_format": "channels_last", "dilation_rate": [1, 1], "activation": "linear", "use_bias": false, "kernel_initializer": {"class_name": "VarianceScaling", "config": {"scale": 2.0, "mode": "fan_out", "distribution": "normal", "seed": null}}, "bias_initializer": {"class_name": "Zeros", "config": {}}, "kernel_regularizer": null, "bias_regularizer": null, "activity_regularizer": null, "kernel_constraint": null, "bias_constraint": null}, "inbound_nodes": [[["block3c_se_excite", 0, 0, {}]]]}, {"name": "block3c_project_bn", "class_name": "BatchNormalization", "config": {"name": "block3c_project_bn", "trainable": true, "dtype": "float32", "axis": 3, "momentum": 0.99, "epsilon": 0.001, "center": true, "scale": true, "beta_initializer": {"class_name": "Zeros", "config": {}}, "gamma_initializer": {"class_name": "Ones", "config": {}}, "moving_mean_initializer": {"class_name": "Zeros", "config": {}}, "moving_variance_initializer": {"class_name": "Ones", "config": {}}, "beta_regularizer": null, "gamma_regularizer": null, "beta_constraint": null, "gamma_constraint": null}, "inbound_nodes": [[["block3c_project_conv", 0, 0, {}]]]}, {"name": "block3c_drop", "class_name": "FixedDropout", "config": {"name": "block3c_drop", "trainable": true, "dtype": "float32", "rate": 0.1625, "noise_shape": [null, 1, 1, 1], "seed": null}, "inbound_nodes": [[["block3c_project_bn", 0, 0, {}]]]}, {"name": "block3c_add", "class_name": "Add", "config": {"name": "block3c_add", "trainable": true, "dtype": "float32"}, "inbound_nodes": [[["block3c_drop", 0, 0, {}], ["block3b_add", 0, 0, {}]]]}, {"name": "block3d_expand_conv", "class_name": "Conv2D", "config": {"name": "block3d_expand_conv", "trainable": true, "dtype": "float32", "filters": 480, "kernel_size": [1, 1], "strides": [1, 1], "padding": "same", "data_format": "channels_last", "dilation_rate": [1, 1], "activation": "linear", "use_bias": false, "kernel_initializer": {"class_name": "VarianceScaling", "config": {"scale": 2.0, "mode": "fan_out", "distribution": "normal", "seed": null}}, "bias_initializer": {"class_name": "Zeros", "config": {}}, "kernel_regularizer": null, "bias_regularizer": null, "activity_regularizer": null, "kernel_constraint": null, "bias_constraint": null}, "inbound_nodes": [[["block3c_add", 0, 0, {}]]]}, {"name": "block3d_expand_bn", "class_name": "BatchNormalization", "config": {"name": "block3d_expand_bn", "trainable": true, "dtype": "float32", "axis": 3, "momentum": 0.99, "epsilon": 0.001, "center": true, "scale": true, "beta_initializer": {"class_name": "Zeros", "config": {}}, "gamma_initializer": {"class_name": "Ones", "config": {}}, "moving_mean_initializer": {"class_name": "Zeros", "config": {}}, "moving_variance_initializer": {"class_name": "Ones", "config": {}}, "beta_regularizer": null, "gamma_regularizer": null, "beta_constraint": null, "gamma_constraint": null}, "inbound_nodes": [[["block3d_expand_conv", 0, 0, {}]]]}, {"name": "block3d_expand_activation", "class_name": "Activation", "config": {"name": "block3d_expand_activation", "trainable": true, "dtype": "float32", "activation": "swish"}, "inbound_nodes": [[["block3d_expand_bn", 0, 0, {}]]]}, {"name": "block3d_dwconv", "class_name": "DepthwiseConv2D", "config": {"name": "block3d_dwconv", "trainable": true, "dtype": "float32", "kernel_size": [5, 5], "strides": [1, 1], "padding": "same", "data_format": "channels_last", "dilation_rate": [1, 1], "activation": "linear", "use_bias": false, "bias_initializer": {"class_name": "Zeros", "config": {}}, "bias_regularizer": null, "activity_regularizer": null, "bias_constraint": null, "depth_multiplier": 1, "depthwise_initializer": {"class_name": "VarianceScaling", "config": {"scale": 2.0, "mode": "fan_out", "distribution": "normal", "seed": null}}, "depthwise_regularizer": null, "depthwise_constraint": null}, "inbound_nodes": [[["block3d_expand_activation", 0, 0, {}]]]}, {"name": "block3d_bn", "class_name": "BatchNormalization", "config": {"name": "block3d_bn", "trainable": true, "dtype": "float32", "axis": 3, "momentum": 0.99, "epsilon": 0.001, "center": true, "scale": true, "beta_initializer": {"class_name": "Zeros", "config": {}}, "gamma_initializer": {"class_name": "Ones", "config": {}}, "moving_mean_initializer": {"class_name": "Zeros", "config": {}}, "moving_variance_initializer": {"class_name": "Ones", "config": {}}, "beta_regularizer": null, "gamma_regularizer": null, "beta_constraint": null, "gamma_constraint": null}, "inbound_nodes": [[["block3d_dwconv", 0, 0, {}]]]}, {"name": "block3d_activation", "class_name": "Activation", "config": {"name": "block3d_activation", "trainable": true, "dtype": "float32", "activation": "swish"}, "inbound_nodes": [[["block3d_bn", 0, 0, {}]]]}, {"name": "block3d_se_squeeze", "class_name": "GlobalAveragePooling2D", "config": {"name": "block3d_se_squeeze", "trainable": true, "dtype": "float32", "data_format": "channels_last"}, "inbound_nodes": [[["block3d_activation", 0, 0, {}]]]}, {"name": "block3d_se_reshape", "class_name": "Reshape", "config": {"name": "block3d_se_reshape", "trainable": true, "dtype": "float32", "target_shape": [1, 1, 480]}, "inbound_nodes": [[["block3d_se_squeeze", 0, 0, {}]]]}, {"name": "block3d_se_reduce", "class_name": "Conv2D", "config": {"name": "block3d_se_reduce", "trainable": true, "dtype": "float32", "filters": 20, "kernel_size": [1, 1], "strides": [1, 1], "padding": "same", "data_format": "channels_last", "dilation_rate": [1, 1], "activation": "swish", "use_bias": true, "kernel_initializer": {"class_name": "VarianceScaling", "config": {"scale": 2.0, "mode": "fan_out", "distribution": "normal", "seed": null}}, "bias_initializer": {"class_name": "Zeros", "config": {}}, "kernel_regularizer": null, "bias_regularizer": null, "activity_regularizer": null, "kernel_constraint": null, "bias_constraint": null}, "inbound_nodes": [[["block3d_se_reshape", 0, 0, {}]]]}, {"name": "block3d_se_expand", "class_name": "Conv2D", "config": {"name": "block3d_se_expand", "trainable": true, "dtype": "float32", "filters": 480, "kernel_size": [1, 1], "strides": [1, 1], "padding": "same", "data_format": "channels_last", "dilation_rate": [1, 1], "activation": "sigmoid", "use_bias": true, "kernel_initializer": {"class_name": "VarianceScaling", "config": {"scale": 2.0, "mode": "fan_out", "distribution": "normal", "seed": null}}, "bias_initializer": {"class_name": "Zeros", "config": {}}, "kernel_regularizer": null, "bias_regularizer": null, "activity_regularizer": null, "kernel_constraint": null, "bias_constraint": null}, "inbound_nodes": [[["block3d_se_reduce", 0, 0, {}]]]}, {"name": "block3d_se_excite", "class_name": "Multiply", "config": {"name": "block3d_se_excite", "trainable": true, "dtype": "float32"}, "inbound_nodes": [[["block3d_activation", 0, 0, {}], ["block3d_se_expand", 0, 0, {}]]]}, {"name": "block3d_project_conv", "class_name": "Conv2D", "config": {"name": "block3d_project_conv", "trainable": true, "dtype": "float32", "filters": 80, "kernel_size": [1, 1], "strides": [1, 1], "padding": "same", "data_format": "channels_last", "dilation_rate": [1, 1], "activation": "linear", "use_bias": false, "kernel_initializer": {"class_name": "VarianceScaling", "config": {"scale": 2.0, "mode": "fan_out", "distribution": "normal", "seed": null}}, "bias_initializer": {"class_name": "Zeros", "config": {}}, "kernel_regularizer": null, "bias_regularizer": null, "activity_regularizer": null, "kernel_constraint": null, "bias_constraint": null}, "inbound_nodes": [[["block3d_se_excite", 0, 0, {}]]]}, {"name": "block3d_project_bn", "class_name": "BatchNormalization", "config": {"name": "block3d_project_bn", "trainable": true, "dtype": "float32", "axis": 3, "momentum": 0.99, "epsilon": 0.001, "center": true, "scale": true, "beta_initializer": {"class_name": "Zeros", "config": {}}, "gamma_initializer": {"class_name": "Ones", "config": {}}, "moving_mean_initializer": {"class_name": "Zeros", "config": {}}, "moving_variance_initializer": {"class_name": "Ones", "config": {}}, "beta_regularizer": null, "gamma_regularizer": null, "beta_constraint": null, "gamma_constraint": null}, "inbound_nodes": [[["block3d_project_conv", 0, 0, {}]]]}, {"name": "block3d_drop", "class_name": "FixedDropout", "config": {"name": "block3d_drop", "trainable": true, "dtype": "float32", "rate": 0.17500000000000002, "noise_shape": [null, 1, 1, 1], "seed": null}, "inbound_nodes": [[["block3d_project_bn", 0, 0, {}]]]}, {"name": "block3d_add", "class_name": "Add", "config": {"name": "block3d_add", "trainable": true, "dtype": "float32"}, "inbound_nodes": [[["block3d_drop", 0, 0, {}], ["block3c_add", 0, 0, {}]]]}, {"name": "block3e_expand_conv", "class_name": "Conv2D", "config": {"name": "block3e_expand_conv", "trainable": true, "dtype": "float32", "filters": 480, "kernel_size": [1, 1], "strides": [1, 1], "padding": "same", "data_format": "channels_last", "dilation_rate": [1, 1], "activation": "linear", "use_bias": false, "kernel_initializer": {"class_name": "VarianceScaling", "config": {"scale": 2.0, "mode": "fan_out", "distribution": "normal", "seed": null}}, "bias_initializer": {"class_name": "Zeros", "config": {}}, "kernel_regularizer": null, "bias_regularizer": null, "activity_regularizer": null, "kernel_constraint": null, "bias_constraint": null}, "inbound_nodes": [[["block3d_add", 0, 0, {}]]]}, {"name": "block3e_expand_bn", "class_name": "BatchNormalization", "config": {"name": "block3e_expand_bn", "trainable": true, "dtype": "float32", "axis": 3, "momentum": 0.99, "epsilon": 0.001, "center": true, "scale": true, "beta_initializer": {"class_name": "Zeros", "config": {}}, "gamma_initializer": {"class_name": "Ones", "config": {}}, "moving_mean_initializer": {"class_name": "Zeros", "config": {}}, "moving_variance_initializer": {"class_name": "Ones", "config": {}}, "beta_regularizer": null, "gamma_regularizer": null, "beta_constraint": null, "gamma_constraint": null}, "inbound_nodes": [[["block3e_expand_conv", 0, 0, {}]]]}, {"name": "block3e_expand_activation", "class_name": "Activation", "config": {"name": "block3e_expand_activation", "trainable": true, "dtype": "float32", "activation": "swish"}, "inbound_nodes": [[["block3e_expand_bn", 0, 0, {}]]]}, {"name": "block3e_dwconv", "class_name": "DepthwiseConv2D", "config": {"name": "block3e_dwconv", "trainable": true, "dtype": "float32", "kernel_size": [5, 5], "strides": [1, 1], "padding": "same", "data_format": "channels_last", "dilation_rate": [1, 1], "activation": "linear", "use_bias": false, "bias_initializer": {"class_name": "Zeros", "config": {}}, "bias_regularizer": null, "activity_regularizer": null, "bias_constraint": null, "depth_multiplier": 1, "depthwise_initializer": {"class_name": "VarianceScaling", "config": {"scale": 2.0, "mode": "fan_out", "distribution": "normal", "seed": null}}, "depthwise_regularizer": null, "depthwise_constraint": null}, "inbound_nodes": [[["block3e_expand_activation", 0, 0, {}]]]}, {"name": "block3e_bn", "class_name": "BatchNormalization", "config": {"name": "block3e_bn", "trainable": true, "dtype": "float32", "axis": 3, "momentum": 0.99, "epsilon": 0.001, "center": true, "scale": true, "beta_initializer": {"class_name": "Zeros", "config": {}}, "gamma_initializer": {"class_name": "Ones", "config": {}}, "moving_mean_initializer": {"class_name": "Zeros", "config": {}}, "moving_variance_initializer": {"class_name": "Ones", "config": {}}, "beta_regularizer": null, "gamma_regularizer": null, "beta_constraint": null, "gamma_constraint": null}, "inbound_nodes": [[["block3e_dwconv", 0, 0, {}]]]}, {"name": "block3e_activation", "class_name": "Activation", "config": {"name": "block3e_activation", "trainable": true, "dtype": "float32", "activation": "swish"}, "inbound_nodes": [[["block3e_bn", 0, 0, {}]]]}, {"name": "block3e_se_squeeze", "class_name": "GlobalAveragePooling2D", "config": {"name": "block3e_se_squeeze", "trainable": true, "dtype": "float32", "data_format": "channels_last"}, "inbound_nodes": [[["block3e_activation", 0, 0, {}]]]}, {"name": "block3e_se_reshape", "class_name": "Reshape", "config": {"name": "block3e_se_reshape", "trainable": true, "dtype": "float32", "target_shape": [1, 1, 480]}, "inbound_nodes": [[["block3e_se_squeeze", 0, 0, {}]]]}, {"name": "block3e_se_reduce", "class_name": "Conv2D", "config": {"name": "block3e_se_reduce", "trainable": true, "dtype": "float32", "filters": 20, "kernel_size": [1, 1], "strides": [1, 1], "padding": "same", "data_format": "channels_last", "dilation_rate": [1, 1], "activation": "swish", "use_bias": true, "kernel_initializer": {"class_name": "VarianceScaling", "config": {"scale": 2.0, "mode": "fan_out", "distribution": "normal", "seed": null}}, "bias_initializer": {"class_name": "Zeros", "config": {}}, "kernel_regularizer": null, "bias_regularizer": null, "activity_regularizer": null, "kernel_constraint": null, "bias_constraint": null}, "inbound_nodes": [[["block3e_se_reshape", 0, 0, {}]]]}, {"name": "block3e_se_expand", "class_name": "Conv2D", "config": {"name": "block3e_se_expand", "trainable": true, "dtype": "float32", "filters": 480, "kernel_size": [1, 1], "strides": [1, 1], "padding": "same", "data_format": "channels_last", "dilation_rate": [1, 1], "activation": "sigmoid", "use_bias": true, "kernel_initializer": {"class_name": "VarianceScaling", "config": {"scale": 2.0, "mode": "fan_out", "distribution": "normal", "seed": null}}, "bias_initializer": {"class_name": "Zeros", "config": {}}, "kernel_regularizer": null, "bias_regularizer": null, "activity_regularizer": null, "kernel_constraint": null, "bias_constraint": null}, "inbound_nodes": [[["block3e_se_reduce", 0, 0, {}]]]}, {"name": "block3e_se_excite", "class_name": "Multiply", "config": {"name": "block3e_se_excite", "trainable": true, "dtype": "float32"}, "inbound_nodes": [[["block3e_activation", 0, 0, {}], ["block3e_se_expand", 0, 0, {}]]]}, {"name": "block3e_project_conv", "class_name": "Conv2D", "config": {"name": "block3e_project_conv", "trainable": true, "dtype": "float32", "filters": 80, "kernel_size": [1, 1], "strides": [1, 1], "padding": "same", "data_format": "channels_last", "dilation_rate": [1, 1], "activation": "linear", "use_bias": false, "kernel_initializer": {"class_name": "VarianceScaling", "config": {"scale": 2.0, "mode": "fan_out", "distribution": "normal", "seed": null}}, "bias_initializer": {"class_name": "Zeros", "config": {}}, "kernel_regularizer": null, "bias_regularizer": null, "activity_regularizer": null, "kernel_constraint": null, "bias_constraint": null}, "inbound_nodes": [[["block3e_se_excite", 0, 0, {}]]]}, {"name": "block3e_project_bn", "class_name": "BatchNormalization", "config": {"name": "block3e_project_bn", "trainable": true, "dtype": "float32", "axis": 3, "momentum": 0.99, "epsilon": 0.001, "center": true, "scale": true, "beta_initializer": {"class_name": "Zeros", "config": {}}, "gamma_initializer": {"class_name": "Ones", "config": {}}, "moving_mean_initializer": {"class_name": "Zeros", "config": {}}, "moving_variance_initializer": {"class_name": "Ones", "config": {}}, "beta_regularizer": null, "gamma_regularizer": null, "beta_constraint": null, "gamma_constraint": null}, "inbound_nodes": [[["block3e_project_conv", 0, 0, {}]]]}, {"name": "block3e_drop", "class_name": "FixedDropout", "config": {"name": "block3e_drop", "trainable": true, "dtype": "float32", "rate": 0.1875, "noise_shape": [null, 1, 1, 1], "seed": null}, "inbound_nodes": [[["block3e_project_bn", 0, 0, {}]]]}, {"name": "block3e_add", "class_name": "Add", "config": {"name": "block3e_add", "trainable": true, "dtype": "float32"}, "inbound_nodes": [[["block3e_drop", 0, 0, {}], ["block3d_add", 0, 0, {}]]]}, {"name": "block3f_expand_conv", "class_name": "Conv2D", "config": {"name": "block3f_expand_conv", "trainable": true, "dtype": "float32", "filters": 480, "kernel_size": [1, 1], "strides": [1, 1], "padding": "same", "data_format": "channels_last", "dilation_rate": [1, 1], "activation": "linear", "use_bias": false, "kernel_initializer": {"class_name": "VarianceScaling", "config": {"scale": 2.0, "mode": "fan_out", "distribution": "normal", "seed": null}}, "bias_initializer": {"class_name": "Zeros", "config": {}}, "kernel_regularizer": null, "bias_regularizer": null, "activity_regularizer": null, "kernel_constraint": null, "bias_constraint": null}, "inbound_nodes": [[["block3e_add", 0, 0, {}]]]}, {"name": "block3f_expand_bn", "class_name": "BatchNormalization", "config": {"name": "block3f_expand_bn", "trainable": true, "dtype": "float32", "axis": 3, "momentum": 0.99, "epsilon": 0.001, "center": true, "scale": true, "beta_initializer": {"class_name": "Zeros", "config": {}}, "gamma_initializer": {"class_name": "Ones", "config": {}}, "moving_mean_initializer": {"class_name": "Zeros", "config": {}}, "moving_variance_initializer": {"class_name": "Ones", "config": {}}, "beta_regularizer": null, "gamma_regularizer": null, "beta_constraint": null, "gamma_constraint": null}, "inbound_nodes": [[["block3f_expand_conv", 0, 0, {}]]]}, {"name": "block3f_expand_activation", "class_name": "Activation", "config": {"name": "block3f_expand_activation", "trainable": true, "dtype": "float32", "activation": "swish"}, "inbound_nodes": [[["block3f_expand_bn", 0, 0, {}]]]}, {"name": "block3f_dwconv", "class_name": "DepthwiseConv2D", "config": {"name": "block3f_dwconv", "trainable": true, "dtype": "float32", "kernel_size": [5, 5], "strides": [1, 1], "padding": "same", "data_format": "channels_last", "dilation_rate": [1, 1], "activation": "linear", "use_bias": false, "bias_initializer": {"class_name": "Zeros", "config": {}}, "bias_regularizer": null, "activity_regularizer": null, "bias_constraint": null, "depth_multiplier": 1, "depthwise_initializer": {"class_name": "VarianceScaling", "config": {"scale": 2.0, "mode": "fan_out", "distribution": "normal", "seed": null}}, "depthwise_regularizer": null, "depthwise_constraint": null}, "inbound_nodes": [[["block3f_expand_activation", 0, 0, {}]]]}, {"name": "block3f_bn", "class_name": "BatchNormalization", "config": {"name": "block3f_bn", "trainable": true, "dtype": "float32", "axis": 3, "momentum": 0.99, "epsilon": 0.001, "center": true, "scale": true, "beta_initializer": {"class_name": "Zeros", "config": {}}, "gamma_initializer": {"class_name": "Ones", "config": {}}, "moving_mean_initializer": {"class_name": "Zeros", "config": {}}, "moving_variance_initializer": {"class_name": "Ones", "config": {}}, "beta_regularizer": null, "gamma_regularizer": null, "beta_constraint": null, "gamma_constraint": null}, "inbound_nodes": [[["block3f_dwconv", 0, 0, {}]]]}, {"name": "block3f_activation", "class_name": "Activation", "config": {"name": "block3f_activation", "trainable": true, "dtype": "float32", "activation": "swish"}, "inbound_nodes": [[["block3f_bn", 0, 0, {}]]]}, {"name": "block3f_se_squeeze", "class_name": "GlobalAveragePooling2D", "config": {"name": "block3f_se_squeeze", "trainable": true, "dtype": "float32", "data_format": "channels_last"}, "inbound_nodes": [[["block3f_activation", 0, 0, {}]]]}, {"name": "block3f_se_reshape", "class_name": "Reshape", "config": {"name": "block3f_se_reshape", "trainable": true, "dtype": "float32", "target_shape": [1, 1, 480]}, "inbound_nodes": [[["block3f_se_squeeze", 0, 0, {}]]]}, {"name": "block3f_se_reduce", "class_name": "Conv2D", "config": {"name": "block3f_se_reduce", "trainable": true, "dtype": "float32", "filters": 20, "kernel_size": [1, 1], "strides": [1, 1], "padding": "same", "data_format": "channels_last", "dilation_rate": [1, 1], "activation": "swish", "use_bias": true, "kernel_initializer": {"class_name": "VarianceScaling", "config": {"scale": 2.0, "mode": "fan_out", "distribution": "normal", "seed": null}}, "bias_initializer": {"class_name": "Zeros", "config": {}}, "kernel_regularizer": null, "bias_regularizer": null, "activity_regularizer": null, "kernel_constraint": null, "bias_constraint": null}, "inbound_nodes": [[["block3f_se_reshape", 0, 0, {}]]]}, {"name": "block3f_se_expand", "class_name": "Conv2D", "config": {"name": "block3f_se_expand", "trainable": true, "dtype": "float32", "filters": 480, "kernel_size": [1, 1], "strides": [1, 1], "padding": "same", "data_format": "channels_last", "dilation_rate": [1, 1], "activation": "sigmoid", "use_bias": true, "kernel_initializer": {"class_name": "VarianceScaling", "config": {"scale": 2.0, "mode": "fan_out", "distribution": "normal", "seed": null}}, "bias_initializer": {"class_name": "Zeros", "config": {}}, "kernel_regularizer": null, "bias_regularizer": null, "activity_regularizer": null, "kernel_constraint": null, "bias_constraint": null}, "inbound_nodes": [[["block3f_se_reduce", 0, 0, {}]]]}, {"name": "block3f_se_excite", "class_name": "Multiply", "config": {"name": "block3f_se_excite", "trainable": true, "dtype": "float32"}, "inbound_nodes": [[["block3f_activation", 0, 0, {}], ["block3f_se_expand", 0, 0, {}]]]}, {"name": "block3f_project_conv", "class_name": "Conv2D", "config": {"name": "block3f_project_conv", "trainable": true, "dtype": "float32", "filters": 80, "kernel_size": [1, 1], "strides": [1, 1], "padding": "same", "data_format": "channels_last", "dilation_rate": [1, 1], "activation": "linear", "use_bias": false, "kernel_initializer": {"class_name": "VarianceScaling", "config": {"scale": 2.0, "mode": "fan_out", "distribution": "normal", "seed": null}}, "bias_initializer": {"class_name": "Zeros", "config": {}}, "kernel_regularizer": null, "bias_regularizer": null, "activity_regularizer": null, "kernel_constraint": null, "bias_constraint": null}, "inbound_nodes": [[["block3f_se_excite", 0, 0, {}]]]}, {"name": "block3f_project_bn", "class_name": "BatchNormalization", "config": {"name": "block3f_project_bn", "trainable": true, "dtype": "float32", "axis": 3, "momentum": 0.99, "epsilon": 0.001, "center": true, "scale": true, "beta_initializer": {"class_name": "Zeros", "config": {}}, "gamma_initializer": {"class_name": "Ones", "config": {}}, "moving_mean_initializer": {"class_name": "Zeros", "config": {}}, "moving_variance_initializer": {"class_name": "Ones", "config": {}}, "beta_regularizer": null, "gamma_regularizer": null, "beta_constraint": null, "gamma_constraint": null}, "inbound_nodes": [[["block3f_project_conv", 0, 0, {}]]]}, {"name": "block3f_drop", "class_name": "FixedDropout", "config": {"name": "block3f_drop", "trainable": true, "dtype": "float32", "rate": 0.2, "noise_shape": [null, 1, 1, 1], "seed": null}, "inbound_nodes": [[["block3f_project_bn", 0, 0, {}]]]}, {"name": "block3f_add", "class_name": "Add", "config": {"name": "block3f_add", "trainable": true, "dtype": "float32"}, "inbound_nodes": [[["block3f_drop", 0, 0, {}], ["block3e_add", 0, 0, {}]]]}, {"name": "block3g_expand_conv", "class_name": "Conv2D", "config": {"name": "block3g_expand_conv", "trainable": true, "dtype": "float32", "filters": 480, "kernel_size": [1, 1], "strides": [1, 1], "padding": "same", "data_format": "channels_last", "dilation_rate": [1, 1], "activation": "linear", "use_bias": false, "kernel_initializer": {"class_name": "VarianceScaling", "config": {"scale": 2.0, "mode": "fan_out", "distribution": "normal", "seed": null}}, "bias_initializer": {"class_name": "Zeros", "config": {}}, "kernel_regularizer": null, "bias_regularizer": null, "activity_regularizer": null, "kernel_constraint": null, "bias_constraint": null}, "inbound_nodes": [[["block3f_add", 0, 0, {}]]]}, {"name": "block3g_expand_bn", "class_name": "BatchNormalization", "config": {"name": "block3g_expand_bn", "trainable": true, "dtype": "float32", "axis": 3, "momentum": 0.99, "epsilon": 0.001, "center": true, "scale": true, "beta_initializer": {"class_name": "Zeros", "config": {}}, "gamma_initializer": {"class_name": "Ones", "config": {}}, "moving_mean_initializer": {"class_name": "Zeros", "config": {}}, "moving_variance_initializer": {"class_name": "Ones", "config": {}}, "beta_regularizer": null, "gamma_regularizer": null, "beta_constraint": null, "gamma_constraint": null}, "inbound_nodes": [[["block3g_expand_conv", 0, 0, {}]]]}, {"name": "block3g_expand_activation", "class_name": "Activation", "config": {"name": "block3g_expand_activation", "trainable": true, "dtype": "float32", "activation": "swish"}, "inbound_nodes": [[["block3g_expand_bn", 0, 0, {}]]]}, {"name": "block3g_dwconv", "class_name": "DepthwiseConv2D", "config": {"name": "block3g_dwconv", "trainable": true, "dtype": "float32", "kernel_size": [5, 5], "strides": [1, 1], "padding": "same", "data_format": "channels_last", "dilation_rate": [1, 1], "activation": "linear", "use_bias": false, "bias_initializer": {"class_name": "Zeros", "config": {}}, "bias_regularizer": null, "activity_regularizer": null, "bias_constraint": null, "depth_multiplier": 1, "depthwise_initializer": {"class_name": "VarianceScaling", "config": {"scale": 2.0, "mode": "fan_out", "distribution": "normal", "seed": null}}, "depthwise_regularizer": null, "depthwise_constraint": null}, "inbound_nodes": [[["block3g_expand_activation", 0, 0, {}]]]}, {"name": "block3g_bn", "class_name": "BatchNormalization", "config": {"name": "block3g_bn", "trainable": true, "dtype": "float32", "axis": 3, "momentum": 0.99, "epsilon": 0.001, "center": true, "scale": true, "beta_initializer": {"class_name": "Zeros", "config": {}}, "gamma_initializer": {"class_name": "Ones", "config": {}}, "moving_mean_initializer": {"class_name": "Zeros", "config": {}}, "moving_variance_initializer": {"class_name": "Ones", "config": {}}, "beta_regularizer": null, "gamma_regularizer": null, "beta_constraint": null, "gamma_constraint": null}, "inbound_nodes": [[["block3g_dwconv", 0, 0, {}]]]}, {"name": "block3g_activation", "class_name": "Activation", "config": {"name": "block3g_activation", "trainable": true, "dtype": "float32", "activation": "swish"}, "inbound_nodes": [[["block3g_bn", 0, 0, {}]]]}, {"name": "block3g_se_squeeze", "class_name": "GlobalAveragePooling2D", "config": {"name": "block3g_se_squeeze", "trainable": true, "dtype": "float32", "data_format": "channels_last"}, "inbound_nodes": [[["block3g_activation", 0, 0, {}]]]}, {"name": "block3g_se_reshape", "class_name": "Reshape", "config": {"name": "block3g_se_reshape", "trainable": true, "dtype": "float32", "target_shape": [1, 1, 480]}, "inbound_nodes": [[["block3g_se_squeeze", 0, 0, {}]]]}, {"name": "block3g_se_reduce", "class_name": "Conv2D", "config": {"name": "block3g_se_reduce", "trainable": true, "dtype": "float32", "filters": 20, "kernel_size": [1, 1], "strides": [1, 1], "padding": "same", "data_format": "channels_last", "dilation_rate": [1, 1], "activation": "swish", "use_bias": true, "kernel_initializer": {"class_name": "VarianceScaling", "config": {"scale": 2.0, "mode": "fan_out", "distribution": "normal", "seed": null}}, "bias_initializer": {"class_name": "Zeros", "config": {}}, "kernel_regularizer": null, "bias_regularizer": null, "activity_regularizer": null, "kernel_constraint": null, "bias_constraint": null}, "inbound_nodes": [[["block3g_se_reshape", 0, 0, {}]]]}, {"name": "block3g_se_expand", "class_name": "Conv2D", "config": {"name": "block3g_se_expand", "trainable": true, "dtype": "float32", "filters": 480, "kernel_size": [1, 1], "strides": [1, 1], "padding": "same", "data_format": "channels_last", "dilation_rate": [1, 1], "activation": "sigmoid", "use_bias": true, "kernel_initializer": {"class_name": "VarianceScaling", "config": {"scale": 2.0, "mode": "fan_out", "distribution": "normal", "seed": null}}, "bias_initializer": {"class_name": "Zeros", "config": {}}, "kernel_regularizer": null, "bias_regularizer": null, "activity_regularizer": null, "kernel_constraint": null, "bias_constraint": null}, "inbound_nodes": [[["block3g_se_reduce", 0, 0, {}]]]}, {"name": "block3g_se_excite", "class_name": "Multiply", "config": {"name": "block3g_se_excite", "trainable": true, "dtype": "float32"}, "inbound_nodes": [[["block3g_activation", 0, 0, {}], ["block3g_se_expand", 0, 0, {}]]]}, {"name": "block3g_project_conv", "class_name": "Conv2D", "config": {"name": "block3g_project_conv", "trainable": true, "dtype": "float32", "filters": 80, "kernel_size": [1, 1], "strides": [1, 1], "padding": "same", "data_format": "channels_last", "dilation_rate": [1, 1], "activation": "linear", "use_bias": false, "kernel_initializer": {"class_name": "VarianceScaling", "config": {"scale": 2.0, "mode": "fan_out", "distribution": "normal", "seed": null}}, "bias_initializer": {"class_name": "Zeros", "config": {}}, "kernel_regularizer": null, "bias_regularizer": null, "activity_regularizer": null, "kernel_constraint": null, "bias_constraint": null}, "inbound_nodes": [[["block3g_se_excite", 0, 0, {}]]]}, {"name": "block3g_project_bn", "class_name": "BatchNormalization", "config": {"name": "block3g_project_bn", "trainable": true, "dtype": "float32", "axis": 3, "momentum": 0.99, "epsilon": 0.001, "center": true, "scale": true, "beta_initializer": {"class_name": "Zeros", "config": {}}, "gamma_initializer": {"class_name": "Ones", "config": {}}, "moving_mean_initializer": {"class_name": "Zeros", "config": {}}, "moving_variance_initializer": {"class_name": "Ones", "config": {}}, "beta_regularizer": null, "gamma_regularizer": null, "beta_constraint": null, "gamma_constraint": null}, "inbound_nodes": [[["block3g_project_conv", 0, 0, {}]]]}, {"name": "block3g_drop", "class_name": "FixedDropout", "config": {"name": "block3g_drop", "trainable": true, "dtype": "float32", "rate": 0.21250000000000002, "noise_shape": [null, 1, 1, 1], "seed": null}, "inbound_nodes": [[["block3g_project_bn", 0, 0, {}]]]}, {"name": "block3g_add", "class_name": "Add", "config": {"name": "block3g_add", "trainable": true, "dtype": "float32"}, "inbound_nodes": [[["block3g_drop", 0, 0, {}], ["block3f_add", 0, 0, {}]]]}, {"name": "block4a_expand_conv", "class_name": "Conv2D", "config": {"name": "block4a_expand_conv", "trainable": true, "dtype": "float32", "filters": 480, "kernel_size": [1, 1], "strides": [1, 1], "padding": "same", "data_format": "channels_last", "dilation_rate": [1, 1], "activation": "linear", "use_bias": false, "kernel_initializer": {"class_name": "VarianceScaling", "config": {"scale": 2.0, "mode": "fan_out", "distribution": "normal", "seed": null}}, "bias_initializer": {"class_name": "Zeros", "config": {}}, "kernel_regularizer": null, "bias_regularizer": null, "activity_regularizer": null, "kernel_constraint": null, "bias_constraint": null}, "inbound_nodes": [[["block3g_add", 0, 0, {}]]]}, {"name": "block4a_expand_bn", "class_name": "BatchNormalization", "config": {"name": "block4a_expand_bn", "trainable": true, "dtype": "float32", "axis": 3, "momentum": 0.99, "epsilon": 0.001, "center": true, "scale": true, "beta_initializer": {"class_name": "Zeros", "config": {}}, "gamma_initializer": {"class_name": "Ones", "config": {}}, "moving_mean_initializer": {"class_name": "Zeros", "config": {}}, "moving_variance_initializer": {"class_name": "Ones", "config": {}}, "beta_regularizer": null, "gamma_regularizer": null, "beta_constraint": null, "gamma_constraint": null}, "inbound_nodes": [[["block4a_expand_conv", 0, 0, {}]]]}, {"name": "block4a_expand_activation", "class_name": "Activation", "config": {"name": "block4a_expand_activation", "trainable": true, "dtype": "float32", "activation": "swish"}, "inbound_nodes": [[["block4a_expand_bn", 0, 0, {}]]]}, {"name": "block4a_dwconv", "class_name": "DepthwiseConv2D", "config": {"name": "block4a_dwconv", "trainable": true, "dtype": "float32", "kernel_size": [3, 3], "strides": [2, 2], "padding": "same", "data_format": "channels_last", "dilation_rate": [1, 1], "activation": "linear", "use_bias": false, "bias_initializer": {"class_name": "Zeros", "config": {}}, "bias_regularizer": null, "activity_regularizer": null, "bias_constraint": null, "depth_multiplier": 1, "depthwise_initializer": {"class_name": "VarianceScaling", "config": {"scale": 2.0, "mode": "fan_out", "distribution": "normal", "seed": null}}, "depthwise_regularizer": null, "depthwise_constraint": null}, "inbound_nodes": [[["block4a_expand_activation", 0, 0, {}]]]}, {"name": "block4a_bn", "class_name": "BatchNormalization", "config": {"name": "block4a_bn", "trainable": true, "dtype": "float32", "axis": 3, "momentum": 0.99, "epsilon": 0.001, "center": true, "scale": true, "beta_initializer": {"class_name": "Zeros", "config": {}}, "gamma_initializer": {"class_name": "Ones", "config": {}}, "moving_mean_initializer": {"class_name": "Zeros", "config": {}}, "moving_variance_initializer": {"class_name": "Ones", "config": {}}, "beta_regularizer": null, "gamma_regularizer": null, "beta_constraint": null, "gamma_constraint": null}, "inbound_nodes": [[["block4a_dwconv", 0, 0, {}]]]}, {"name": "block4a_activation", "class_name": "Activation", "config": {"name": "block4a_activation", "trainable": true, "dtype": "float32", "activation": "swish"}, "inbound_nodes": [[["block4a_bn", 0, 0, {}]]]}, {"name": "block4a_se_squeeze", "class_name": "GlobalAveragePooling2D", "config": {"name": "block4a_se_squeeze", "trainable": true, "dtype": "float32", "data_format": "channels_last"}, "inbound_nodes": [[["block4a_activation", 0, 0, {}]]]}, {"name": "block4a_se_reshape", "class_name": "Reshape", "config": {"name": "block4a_se_reshape", "trainable": true, "dtype": "float32", "target_shape": [1, 1, 480]}, "inbound_nodes": [[["block4a_se_squeeze", 0, 0, {}]]]}, {"name": "block4a_se_reduce", "class_name": "Conv2D", "config": {"name": "block4a_se_reduce", "trainable": true, "dtype": "float32", "filters": 20, "kernel_size": [1, 1], "strides": [1, 1], "padding": "same", "data_format": "channels_last", "dilation_rate": [1, 1], "activation": "swish", "use_bias": true, "kernel_initializer": {"class_name": "VarianceScaling", "config": {"scale": 2.0, "mode": "fan_out", "distribution": "normal", "seed": null}}, "bias_initializer": {"class_name": "Zeros", "config": {}}, "kernel_regularizer": null, "bias_regularizer": null, "activity_regularizer": null, "kernel_constraint": null, "bias_constraint": null}, "inbound_nodes": [[["block4a_se_reshape", 0, 0, {}]]]}, {"name": "block4a_se_expand", "class_name": "Conv2D", "config": {"name": "block4a_se_expand", "trainable": true, "dtype": "float32", "filters": 480, "kernel_size": [1, 1], "strides": [1, 1], "padding": "same", "data_format": "channels_last", "dilation_rate": [1, 1], "activation": "sigmoid", "use_bias": true, "kernel_initializer": {"class_name": "VarianceScaling", "config": {"scale": 2.0, "mode": "fan_out", "distribution": "normal", "seed": null}}, "bias_initializer": {"class_name": "Zeros", "config": {}}, "kernel_regularizer": null, "bias_regularizer": null, "activity_regularizer": null, "kernel_constraint": null, "bias_constraint": null}, "inbound_nodes": [[["block4a_se_reduce", 0, 0, {}]]]}, {"name": "block4a_se_excite", "class_name": "Multiply", "config": {"name": "block4a_se_excite", "trainable": true, "dtype": "float32"}, "inbound_nodes": [[["block4a_activation", 0, 0, {}], ["block4a_se_expand", 0, 0, {}]]]}, {"name": "block4a_project_conv", "class_name": "Conv2D", "config": {"name": "block4a_project_conv", "trainable": true, "dtype": "float32", "filters": 160, "kernel_size": [1, 1], "strides": [1, 1], "padding": "same", "data_format": "channels_last", "dilation_rate": [1, 1], "activation": "linear", "use_bias": false, "kernel_initializer": {"class_name": "VarianceScaling", "config": {"scale": 2.0, "mode": "fan_out", "distribution": "normal", "seed": null}}, "bias_initializer": {"class_name": "Zeros", "config": {}}, "kernel_regularizer": null, "bias_regularizer": null, "activity_regularizer": null, "kernel_constraint": null, "bias_constraint": null}, "inbound_nodes": [[["block4a_se_excite", 0, 0, {}]]]}, {"name": "block4a_project_bn", "class_name": "BatchNormalization", "config": {"name": "block4a_project_bn", "trainable": true, "dtype": "float32", "axis": 3, "momentum": 0.99, "epsilon": 0.001, "center": true, "scale": true, "beta_initializer": {"class_name": "Zeros", "config": {}}, "gamma_initializer": {"class_name": "Ones", "config": {}}, "moving_mean_initializer": {"class_name": "Zeros", "config": {}}, "moving_variance_initializer": {"class_name": "Ones", "config": {}}, "beta_regularizer": null, "gamma_regularizer": null, "beta_constraint": null, "gamma_constraint": null}, "inbound_nodes": [[["block4a_project_conv", 0, 0, {}]]]}, {"name": "block4b_expand_conv", "class_name": "Conv2D", "config": {"name": "block4b_expand_conv", "trainable": true, "dtype": "float32", "filters": 960, "kernel_size": [1, 1], "strides": [1, 1], "padding": "same", "data_format": "channels_last", "dilation_rate": [1, 1], "activation": "linear", "use_bias": false, "kernel_initializer": {"class_name": "VarianceScaling", "config": {"scale": 2.0, "mode": "fan_out", "distribution": "normal", "seed": null}}, "bias_initializer": {"class_name": "Zeros", "config": {}}, "kernel_regularizer": null, "bias_regularizer": null, "activity_regularizer": null, "kernel_constraint": null, "bias_constraint": null}, "inbound_nodes": [[["block4a_project_bn", 0, 0, {}]]]}, {"name": "block4b_expand_bn", "class_name": "BatchNormalization", "config": {"name": "block4b_expand_bn", "trainable": true, "dtype": "float32", "axis": 3, "momentum": 0.99, "epsilon": 0.001, "center": true, "scale": true, "beta_initializer": {"class_name": "Zeros", "config": {}}, "gamma_initializer": {"class_name": "Ones", "config": {}}, "moving_mean_initializer": {"class_name": "Zeros", "config": {}}, "moving_variance_initializer": {"class_name": "Ones", "config": {}}, "beta_regularizer": null, "gamma_regularizer": null, "beta_constraint": null, "gamma_constraint": null}, "inbound_nodes": [[["block4b_expand_conv", 0, 0, {}]]]}, {"name": "block4b_expand_activation", "class_name": "Activation", "config": {"name": "block4b_expand_activation", "trainable": true, "dtype": "float32", "activation": "swish"}, "inbound_nodes": [[["block4b_expand_bn", 0, 0, {}]]]}, {"name": "block4b_dwconv", "class_name": "DepthwiseConv2D", "config": {"name": "block4b_dwconv", "trainable": true, "dtype": "float32", "kernel_size": [3, 3], "strides": [1, 1], "padding": "same", "data_format": "channels_last", "dilation_rate": [1, 1], "activation": "linear", "use_bias": false, "bias_initializer": {"class_name": "Zeros", "config": {}}, "bias_regularizer": null, "activity_regularizer": null, "bias_constraint": null, "depth_multiplier": 1, "depthwise_initializer": {"class_name": "VarianceScaling", "config": {"scale": 2.0, "mode": "fan_out", "distribution": "normal", "seed": null}}, "depthwise_regularizer": null, "depthwise_constraint": null}, "inbound_nodes": [[["block4b_expand_activation", 0, 0, {}]]]}, {"name": "block4b_bn", "class_name": "BatchNormalization", "config": {"name": "block4b_bn", "trainable": true, "dtype": "float32", "axis": 3, "momentum": 0.99, "epsilon": 0.001, "center": true, "scale": true, "beta_initializer": {"class_name": "Zeros", "config": {}}, "gamma_initializer": {"class_name": "Ones", "config": {}}, "moving_mean_initializer": {"class_name": "Zeros", "config": {}}, "moving_variance_initializer": {"class_name": "Ones", "config": {}}, "beta_regularizer": null, "gamma_regularizer": null, "beta_constraint": null, "gamma_constraint": null}, "inbound_nodes": [[["block4b_dwconv", 0, 0, {}]]]}, {"name": "block4b_activation", "class_name": "Activation", "config": {"name": "block4b_activation", "trainable": true, "dtype": "float32", "activation": "swish"}, "inbound_nodes": [[["block4b_bn", 0, 0, {}]]]}, {"name": "block4b_se_squeeze", "class_name": "GlobalAveragePooling2D", "config": {"name": "block4b_se_squeeze", "trainable": true, "dtype": "float32", "data_format": "channels_last"}, "inbound_nodes": [[["block4b_activation", 0, 0, {}]]]}, {"name": "block4b_se_reshape", "class_name": "Reshape", "config": {"name": "block4b_se_reshape", "trainable": true, "dtype": "float32", "target_shape": [1, 1, 960]}, "inbound_nodes": [[["block4b_se_squeeze", 0, 0, {}]]]}, {"name": "block4b_se_reduce", "class_name": "Conv2D", "config": {"name": "block4b_se_reduce", "trainable": true, "dtype": "float32", "filters": 40, "kernel_size": [1, 1], "strides": [1, 1], "padding": "same", "data_format": "channels_last", "dilation_rate": [1, 1], "activation": "swish", "use_bias": true, "kernel_initializer": {"class_name": "VarianceScaling", "config": {"scale": 2.0, "mode": "fan_out", "distribution": "normal", "seed": null}}, "bias_initializer": {"class_name": "Zeros", "config": {}}, "kernel_regularizer": null, "bias_regularizer": null, "activity_regularizer": null, "kernel_constraint": null, "bias_constraint": null}, "inbound_nodes": [[["block4b_se_reshape", 0, 0, {}]]]}, {"name": "block4b_se_expand", "class_name": "Conv2D", "config": {"name": "block4b_se_expand", "trainable": true, "dtype": "float32", "filters": 960, "kernel_size": [1, 1], "strides": [1, 1], "padding": "same", "data_format": "channels_last", "dilation_rate": [1, 1], "activation": "sigmoid", "use_bias": true, "kernel_initializer": {"class_name": "VarianceScaling", "config": {"scale": 2.0, "mode": "fan_out", "distribution": "normal", "seed": null}}, "bias_initializer": {"class_name": "Zeros", "config": {}}, "kernel_regularizer": null, "bias_regularizer": null, "activity_regularizer": null, "kernel_constraint": null, "bias_constraint": null}, "inbound_nodes": [[["block4b_se_reduce", 0, 0, {}]]]}, {"name": "block4b_se_excite", "class_name": "Multiply", "config": {"name": "block4b_se_excite", "trainable": true, "dtype": "float32"}, "inbound_nodes": [[["block4b_activation", 0, 0, {}], ["block4b_se_expand", 0, 0, {}]]]}, {"name": "block4b_project_conv", "class_name": "Conv2D", "config": {"name": "block4b_project_conv", "trainable": true, "dtype": "float32", "filters": 160, "kernel_size": [1, 1], "strides": [1, 1], "padding": "same", "data_format": "channels_last", "dilation_rate": [1, 1], "activation": "linear", "use_bias": false, "kernel_initializer": {"class_name": "VarianceScaling", "config": {"scale": 2.0, "mode": "fan_out", "distribution": "normal", "seed": null}}, "bias_initializer": {"class_name": "Zeros", "config": {}}, "kernel_regularizer": null, "bias_regularizer": null, "activity_regularizer": null, "kernel_constraint": null, "bias_constraint": null}, "inbound_nodes": [[["block4b_se_excite", 0, 0, {}]]]}, {"name": "block4b_project_bn", "class_name": "BatchNormalization", "config": {"name": "block4b_project_bn", "trainable": true, "dtype": "float32", "axis": 3, "momentum": 0.99, "epsilon": 0.001, "center": true, "scale": true, "beta_initializer": {"class_name": "Zeros", "config": {}}, "gamma_initializer": {"class_name": "Ones", "config": {}}, "moving_mean_initializer": {"class_name": "Zeros", "config": {}}, "moving_variance_initializer": {"class_name": "Ones", "config": {}}, "beta_regularizer": null, "gamma_regularizer": null, "beta_constraint": null, "gamma_constraint": null}, "inbound_nodes": [[["block4b_project_conv", 0, 0, {}]]]}, {"name": "block4b_drop", "class_name": "FixedDropout", "config": {"name": "block4b_drop", "trainable": true, "dtype": "float32", "rate": 0.23750000000000002, "noise_shape": [null, 1, 1, 1], "seed": null}, "inbound_nodes": [[["block4b_project_bn", 0, 0, {}]]]}, {"name": "block4b_add", "class_name": "Add", "config": {"name": "block4b_add", "trainable": true, "dtype": "float32"}, "inbound_nodes": [[["block4b_drop", 0, 0, {}], ["block4a_project_bn", 0, 0, {}]]]}, {"name": "block4c_expand_conv", "class_name": "Conv2D", "config": {"name": "block4c_expand_conv", "trainable": true, "dtype": "float32", "filters": 960, "kernel_size": [1, 1], "strides": [1, 1], "padding": "same", "data_format": "channels_last", "dilation_rate": [1, 1], "activation": "linear", "use_bias": false, "kernel_initializer": {"class_name": "VarianceScaling", "config": {"scale": 2.0, "mode": "fan_out", "distribution": "normal", "seed": null}}, "bias_initializer": {"class_name": "Zeros", "config": {}}, "kernel_regularizer": null, "bias_regularizer": null, "activity_regularizer": null, "kernel_constraint": null, "bias_constraint": null}, "inbound_nodes": [[["block4b_add", 0, 0, {}]]]}, {"name": "block4c_expand_bn", "class_name": "BatchNormalization", "config": {"name": "block4c_expand_bn", "trainable": true, "dtype": "float32", "axis": 3, "momentum": 0.99, "epsilon": 0.001, "center": true, "scale": true, "beta_initializer": {"class_name": "Zeros", "config": {}}, "gamma_initializer": {"class_name": "Ones", "config": {}}, "moving_mean_initializer": {"class_name": "Zeros", "config": {}}, "moving_variance_initializer": {"class_name": "Ones", "config": {}}, "beta_regularizer": null, "gamma_regularizer": null, "beta_constraint": null, "gamma_constraint": null}, "inbound_nodes": [[["block4c_expand_conv", 0, 0, {}]]]}, {"name": "block4c_expand_activation", "class_name": "Activation", "config": {"name": "block4c_expand_activation", "trainable": true, "dtype": "float32", "activation": "swish"}, "inbound_nodes": [[["block4c_expand_bn", 0, 0, {}]]]}, {"name": "block4c_dwconv", "class_name": "DepthwiseConv2D", "config": {"name": "block4c_dwconv", "trainable": true, "dtype": "float32", "kernel_size": [3, 3], "strides": [1, 1], "padding": "same", "data_format": "channels_last", "dilation_rate": [1, 1], "activation": "linear", "use_bias": false, "bias_initializer": {"class_name": "Zeros", "config": {}}, "bias_regularizer": null, "activity_regularizer": null, "bias_constraint": null, "depth_multiplier": 1, "depthwise_initializer": {"class_name": "VarianceScaling", "config": {"scale": 2.0, "mode": "fan_out", "distribution": "normal", "seed": null}}, "depthwise_regularizer": null, "depthwise_constraint": null}, "inbound_nodes": [[["block4c_expand_activation", 0, 0, {}]]]}, {"name": "block4c_bn", "class_name": "BatchNormalization", "config": {"name": "block4c_bn", "trainable": true, "dtype": "float32", "axis": 3, "momentum": 0.99, "epsilon": 0.001, "center": true, "scale": true, "beta_initializer": {"class_name": "Zeros", "config": {}}, "gamma_initializer": {"class_name": "Ones", "config": {}}, "moving_mean_initializer": {"class_name": "Zeros", "config": {}}, "moving_variance_initializer": {"class_name": "Ones", "config": {}}, "beta_regularizer": null, "gamma_regularizer": null, "beta_constraint": null, "gamma_constraint": null}, "inbound_nodes": [[["block4c_dwconv", 0, 0, {}]]]}, {"name": "block4c_activation", "class_name": "Activation", "config": {"name": "block4c_activation", "trainable": true, "dtype": "float32", "activation": "swish"}, "inbound_nodes": [[["block4c_bn", 0, 0, {}]]]}, {"name": "block4c_se_squeeze", "class_name": "GlobalAveragePooling2D", "config": {"name": "block4c_se_squeeze", "trainable": true, "dtype": "float32", "data_format": "channels_last"}, "inbound_nodes": [[["block4c_activation", 0, 0, {}]]]}, {"name": "block4c_se_reshape", "class_name": "Reshape", "config": {"name": "block4c_se_reshape", "trainable": true, "dtype": "float32", "target_shape": [1, 1, 960]}, "inbound_nodes": [[["block4c_se_squeeze", 0, 0, {}]]]}, {"name": "block4c_se_reduce", "class_name": "Conv2D", "config": {"name": "block4c_se_reduce", "trainable": true, "dtype": "float32", "filters": 40, "kernel_size": [1, 1], "strides": [1, 1], "padding": "same", "data_format": "channels_last", "dilation_rate": [1, 1], "activation": "swish", "use_bias": true, "kernel_initializer": {"class_name": "VarianceScaling", "config": {"scale": 2.0, "mode": "fan_out", "distribution": "normal", "seed": null}}, "bias_initializer": {"class_name": "Zeros", "config": {}}, "kernel_regularizer": null, "bias_regularizer": null, "activity_regularizer": null, "kernel_constraint": null, "bias_constraint": null}, "inbound_nodes": [[["block4c_se_reshape", 0, 0, {}]]]}, {"name": "block4c_se_expand", "class_name": "Conv2D", "config": {"name": "block4c_se_expand", "trainable": true, "dtype": "float32", "filters": 960, "kernel_size": [1, 1], "strides": [1, 1], "padding": "same", "data_format": "channels_last", "dilation_rate": [1, 1], "activation": "sigmoid", "use_bias": true, "kernel_initializer": {"class_name": "VarianceScaling", "config": {"scale": 2.0, "mode": "fan_out", "distribution": "normal", "seed": null}}, "bias_initializer": {"class_name": "Zeros", "config": {}}, "kernel_regularizer": null, "bias_regularizer": null, "activity_regularizer": null, "kernel_constraint": null, "bias_constraint": null}, "inbound_nodes": [[["block4c_se_reduce", 0, 0, {}]]]}, {"name": "block4c_se_excite", "class_name": "Multiply", "config": {"name": "block4c_se_excite", "trainable": true, "dtype": "float32"}, "inbound_nodes": [[["block4c_activation", 0, 0, {}], ["block4c_se_expand", 0, 0, {}]]]}, {"name": "block4c_project_conv", "class_name": "Conv2D", "config": {"name": "block4c_project_conv", "trainable": true, "dtype": "float32", "filters": 160, "kernel_size": [1, 1], "strides": [1, 1], "padding": "same", "data_format": "channels_last", "dilation_rate": [1, 1], "activation": "linear", "use_bias": false, "kernel_initializer": {"class_name": "VarianceScaling", "config": {"scale": 2.0, "mode": "fan_out", "distribution": "normal", "seed": null}}, "bias_initializer": {"class_name": "Zeros", "config": {}}, "kernel_regularizer": null, "bias_regularizer": null, "activity_regularizer": null, "kernel_constraint": null, "bias_constraint": null}, "inbound_nodes": [[["block4c_se_excite", 0, 0, {}]]]}, {"name": "block4c_project_bn", "class_name": "BatchNormalization", "config": {"name": "block4c_project_bn", "trainable": true, "dtype": "float32", "axis": 3, "momentum": 0.99, "epsilon": 0.001, "center": true, "scale": true, "beta_initializer": {"class_name": "Zeros", "config": {}}, "gamma_initializer": {"class_name": "Ones", "config": {}}, "moving_mean_initializer": {"class_name": "Zeros", "config": {}}, "moving_variance_initializer": {"class_name": "Ones", "config": {}}, "beta_regularizer": null, "gamma_regularizer": null, "beta_constraint": null, "gamma_constraint": null}, "inbound_nodes": [[["block4c_project_conv", 0, 0, {}]]]}, {"name": "block4c_drop", "class_name": "FixedDropout", "config": {"name": "block4c_drop", "trainable": true, "dtype": "float32", "rate": 0.25, "noise_shape": [null, 1, 1, 1], "seed": null}, "inbound_nodes": [[["block4c_project_bn", 0, 0, {}]]]}, {"name": "block4c_add", "class_name": "Add", "config": {"name": "block4c_add", "trainable": true, "dtype": "float32"}, "inbound_nodes": [[["block4c_drop", 0, 0, {}], ["block4b_add", 0, 0, {}]]]}, {"name": "block4d_expand_conv", "class_name": "Conv2D", "config": {"name": "block4d_expand_conv", "trainable": true, "dtype": "float32", "filters": 960, "kernel_size": [1, 1], "strides": [1, 1], "padding": "same", "data_format": "channels_last", "dilation_rate": [1, 1], "activation": "linear", "use_bias": false, "kernel_initializer": {"class_name": "VarianceScaling", "config": {"scale": 2.0, "mode": "fan_out", "distribution": "normal", "seed": null}}, "bias_initializer": {"class_name": "Zeros", "config": {}}, "kernel_regularizer": null, "bias_regularizer": null, "activity_regularizer": null, "kernel_constraint": null, "bias_constraint": null}, "inbound_nodes": [[["block4c_add", 0, 0, {}]]]}, {"name": "block4d_expand_bn", "class_name": "BatchNormalization", "config": {"name": "block4d_expand_bn", "trainable": true, "dtype": "float32", "axis": 3, "momentum": 0.99, "epsilon": 0.001, "center": true, "scale": true, "beta_initializer": {"class_name": "Zeros", "config": {}}, "gamma_initializer": {"class_name": "Ones", "config": {}}, "moving_mean_initializer": {"class_name": "Zeros", "config": {}}, "moving_variance_initializer": {"class_name": "Ones", "config": {}}, "beta_regularizer": null, "gamma_regularizer": null, "beta_constraint": null, "gamma_constraint": null}, "inbound_nodes": [[["block4d_expand_conv", 0, 0, {}]]]}, {"name": "block4d_expand_activation", "class_name": "Activation", "config": {"name": "block4d_expand_activation", "trainable": true, "dtype": "float32", "activation": "swish"}, "inbound_nodes": [[["block4d_expand_bn", 0, 0, {}]]]}, {"name": "block4d_dwconv", "class_name": "DepthwiseConv2D", "config": {"name": "block4d_dwconv", "trainable": true, "dtype": "float32", "kernel_size": [3, 3], "strides": [1, 1], "padding": "same", "data_format": "channels_last", "dilation_rate": [1, 1], "activation": "linear", "use_bias": false, "bias_initializer": {"class_name": "Zeros", "config": {}}, "bias_regularizer": null, "activity_regularizer": null, "bias_constraint": null, "depth_multiplier": 1, "depthwise_initializer": {"class_name": "VarianceScaling", "config": {"scale": 2.0, "mode": "fan_out", "distribution": "normal", "seed": null}}, "depthwise_regularizer": null, "depthwise_constraint": null}, "inbound_nodes": [[["block4d_expand_activation", 0, 0, {}]]]}, {"name": "block4d_bn", "class_name": "BatchNormalization", "config": {"name": "block4d_bn", "trainable": true, "dtype": "float32", "axis": 3, "momentum": 0.99, "epsilon": 0.001, "center": true, "scale": true, "beta_initializer": {"class_name": "Zeros", "config": {}}, "gamma_initializer": {"class_name": "Ones", "config": {}}, "moving_mean_initializer": {"class_name": "Zeros", "config": {}}, "moving_variance_initializer": {"class_name": "Ones", "config": {}}, "beta_regularizer": null, "gamma_regularizer": null, "beta_constraint": null, "gamma_constraint": null}, "inbound_nodes": [[["block4d_dwconv", 0, 0, {}]]]}, {"name": "block4d_activation", "class_name": "Activation", "config": {"name": "block4d_activation", "trainable": true, "dtype": "float32", "activation": "swish"}, "inbound_nodes": [[["block4d_bn", 0, 0, {}]]]}, {"name": "block4d_se_squeeze", "class_name": "GlobalAveragePooling2D", "config": {"name": "block4d_se_squeeze", "trainable": true, "dtype": "float32", "data_format": "channels_last"}, "inbound_nodes": [[["block4d_activation", 0, 0, {}]]]}, {"name": "block4d_se_reshape", "class_name": "Reshape", "config": {"name": "block4d_se_reshape", "trainable": true, "dtype": "float32", "target_shape": [1, 1, 960]}, "inbound_nodes": [[["block4d_se_squeeze", 0, 0, {}]]]}, {"name": "block4d_se_reduce", "class_name": "Conv2D", "config": {"name": "block4d_se_reduce", "trainable": true, "dtype": "float32", "filters": 40, "kernel_size": [1, 1], "strides": [1, 1], "padding": "same", "data_format": "channels_last", "dilation_rate": [1, 1], "activation": "swish", "use_bias": true, "kernel_initializer": {"class_name": "VarianceScaling", "config": {"scale": 2.0, "mode": "fan_out", "distribution": "normal", "seed": null}}, "bias_initializer": {"class_name": "Zeros", "config": {}}, "kernel_regularizer": null, "bias_regularizer": null, "activity_regularizer": null, "kernel_constraint": null, "bias_constraint": null}, "inbound_nodes": [[["block4d_se_reshape", 0, 0, {}]]]}, {"name": "block4d_se_expand", "class_name": "Conv2D", "config": {"name": "block4d_se_expand", "trainable": true, "dtype": "float32", "filters": 960, "kernel_size": [1, 1], "strides": [1, 1], "padding": "same", "data_format": "channels_last", "dilation_rate": [1, 1], "activation": "sigmoid", "use_bias": true, "kernel_initializer": {"class_name": "VarianceScaling", "config": {"scale": 2.0, "mode": "fan_out", "distribution": "normal", "seed": null}}, "bias_initializer": {"class_name": "Zeros", "config": {}}, "kernel_regularizer": null, "bias_regularizer": null, "activity_regularizer": null, "kernel_constraint": null, "bias_constraint": null}, "inbound_nodes": [[["block4d_se_reduce", 0, 0, {}]]]}, {"name": "block4d_se_excite", "class_name": "Multiply", "config": {"name": "block4d_se_excite", "trainable": true, "dtype": "float32"}, "inbound_nodes": [[["block4d_activation", 0, 0, {}], ["block4d_se_expand", 0, 0, {}]]]}, {"name": "block4d_project_conv", "class_name": "Conv2D", "config": {"name": "block4d_project_conv", "trainable": true, "dtype": "float32", "filters": 160, "kernel_size": [1, 1], "strides": [1, 1], "padding": "same", "data_format": "channels_last", "dilation_rate": [1, 1], "activation": "linear", "use_bias": false, "kernel_initializer": {"class_name": "VarianceScaling", "config": {"scale": 2.0, "mode": "fan_out", "distribution": "normal", "seed": null}}, "bias_initializer": {"class_name": "Zeros", "config": {}}, "kernel_regularizer": null, "bias_regularizer": null, "activity_regularizer": null, "kernel_constraint": null, "bias_constraint": null}, "inbound_nodes": [[["block4d_se_excite", 0, 0, {}]]]}, {"name": "block4d_project_bn", "class_name": "BatchNormalization", "config": {"name": "block4d_project_bn", "trainable": true, "dtype": "float32", "axis": 3, "momentum": 0.99, "epsilon": 0.001, "center": true, "scale": true, "beta_initializer": {"class_name": "Zeros", "config": {}}, "gamma_initializer": {"class_name": "Ones", "config": {}}, "moving_mean_initializer": {"class_name": "Zeros", "config": {}}, "moving_variance_initializer": {"class_name": "Ones", "config": {}}, "beta_regularizer": null, "gamma_regularizer": null, "beta_constraint": null, "gamma_constraint": null}, "inbound_nodes": [[["block4d_project_conv", 0, 0, {}]]]}, {"name": "block4d_drop", "class_name": "FixedDropout", "config": {"name": "block4d_drop", "trainable": true, "dtype": "float32", "rate": 0.2625, "noise_shape": [null, 1, 1, 1], "seed": null}, "inbound_nodes": [[["block4d_project_bn", 0, 0, {}]]]}, {"name": "block4d_add", "class_name": "Add", "config": {"name": "block4d_add", "trainable": true, "dtype": "float32"}, "inbound_nodes": [[["block4d_drop", 0, 0, {}], ["block4c_add", 0, 0, {}]]]}, {"name": "block4e_expand_conv", "class_name": "Conv2D", "config": {"name": "block4e_expand_conv", "trainable": true, "dtype": "float32", "filters": 960, "kernel_size": [1, 1], "strides": [1, 1], "padding": "same", "data_format": "channels_last", "dilation_rate": [1, 1], "activation": "linear", "use_bias": false, "kernel_initializer": {"class_name": "VarianceScaling", "config": {"scale": 2.0, "mode": "fan_out", "distribution": "normal", "seed": null}}, "bias_initializer": {"class_name": "Zeros", "config": {}}, "kernel_regularizer": null, "bias_regularizer": null, "activity_regularizer": null, "kernel_constraint": null, "bias_constraint": null}, "inbound_nodes": [[["block4d_add", 0, 0, {}]]]}, {"name": "block4e_expand_bn", "class_name": "BatchNormalization", "config": {"name": "block4e_expand_bn", "trainable": true, "dtype": "float32", "axis": 3, "momentum": 0.99, "epsilon": 0.001, "center": true, "scale": true, "beta_initializer": {"class_name": "Zeros", "config": {}}, "gamma_initializer": {"class_name": "Ones", "config": {}}, "moving_mean_initializer": {"class_name": "Zeros", "config": {}}, "moving_variance_initializer": {"class_name": "Ones", "config": {}}, "beta_regularizer": null, "gamma_regularizer": null, "beta_constraint": null, "gamma_constraint": null}, "inbound_nodes": [[["block4e_expand_conv", 0, 0, {}]]]}, {"name": "block4e_expand_activation", "class_name": "Activation", "config": {"name": "block4e_expand_activation", "trainable": true, "dtype": "float32", "activation": "swish"}, "inbound_nodes": [[["block4e_expand_bn", 0, 0, {}]]]}, {"name": "block4e_dwconv", "class_name": "DepthwiseConv2D", "config": {"name": "block4e_dwconv", "trainable": true, "dtype": "float32", "kernel_size": [3, 3], "strides": [1, 1], "padding": "same", "data_format": "channels_last", "dilation_rate": [1, 1], "activation": "linear", "use_bias": false, "bias_initializer": {"class_name": "Zeros", "…
}, {"name": "block6k_expand_activation", "class_name": "Activation", "config": {"name": "block6k_expand_activation", "trainable": true, "dtype": "float32", "activation": "swish"}, "inbound_nodes": [[["block6k_expand_bn", 0, 0, {}]]]}, {"name": "block6k_dwconv", "class_name": "DepthwiseConv2D", "config": {"name": "block6k_dwconv", "trainable": true, "dtype": "float32", "kernel_size": [5, 5], "strides": [1, 1], "padding": "same", "data_format": "channels_last", "dilation_rate": [1, 1], "activation": "linear", "use_bias": false, "bias_initializer": {"class_name": "Zeros", "config": {}}, "bias_regularizer": null, "activity_regularizer": null, "bias_constraint": null, "depth_multiplier": 1, "depthwise_initializer": {"class_name": "VarianceScaling", "config": {"scale": 2.0, "mode": "fan_out", "distribution": "normal", "seed": null}}, "depthwise_regularizer": null, "depthwise_constraint": null}, "inbound_nodes": [[["block6k_expand_activation", 0, 0, {}]]]}, {"name": "block6k_bn", "class_name": "BatchNormalization", "config": {"name": "block6k_bn", "trainable": true, "dtype": "float32", "axis": 3, "momentum": 0.99, "epsilon": 0.001, "center": true, "scale": true, "beta_initializer": {"class_name": "Zeros", "config": {}}, "gamma_initializer": {"class_name": "Ones", "config": {}}, "moving_mean_initializer": {"class_name": "Zeros", "config": {}}, "moving_variance_initializer": {"class_name": "Ones", "config": {}}, "beta_regularizer": null, "gamma_regularizer": null, "beta_constraint": null, "gamma_constraint": null}, "inbound_nodes": [[["block6k_dwconv", 0, 0, {}]]]}, {"name": "block6k_activation", "class_name": "Activation", "config": {"name": "block6k_activation", "trainable": true, "dtype": "float32", "activation": "swish"}, "inbound_nodes": [[["block6k_bn", 0, 0, {}]]]}, {"name": "block6k_se_squeeze", "class_name": "GlobalAveragePooling2D", "config": {"name": "block6k_se_squeeze", "trainable": true, "dtype": "float32", "data_format": "channels_last"}, "inbound_nodes": [[["block6k_activation", 0, 0, {}]]]}, {"name": "block6k_se_reshape", "class_name": "Reshape", "config": {"name": "block6k_se_reshape", "trainable": true, "dtype": "float32", "target_shape": [1, 1, 2304]}, "inbound_nodes": [[["block6k_se_squeeze", 0, 0, {}]]]}, {"name": "block6k_se_reduce", "class_name": "Conv2D", "config": {"name": "block6k_se_reduce", "trainable": true, "dtype": "float32", "filters": 96, "kernel_size": [1, 1], "strides": [1, 1], "padding": "same", "data_format": "channels_last", "dilation_rate": [1, 1], "activation": "swish", "use_bias": true, "kernel_initializer": {"class_name": "VarianceScaling", "config": {"scale": 2.0, "mode": "fan_out", "distribution": "normal", "seed": null}}, "bias_initializer": {"class_name": "Zeros", "config": {}}, "kernel_regularizer": null, "bias_regularizer": null, "activity_regularizer": null, "kernel_constraint": null, "bias_constraint": null}, "inbound_nodes": [[["block6k_se_reshape", 0, 0, {}]]]}, {"name": "block6k_se_expand", "class_name": "Conv2D", "config": {"name": "block6k_se_expand", "trainable": true, "dtype": "float32", "filters": 2304, "kernel_size": [1, 1], "strides": [1, 1], "padding": "same", "data_format": "channels_last", "dilation_rate": [1, 1], "activation": "sigmoid", "use_bias": true, "kernel_initializer": {"class_name": "VarianceScaling", "config": {"scale": 2.0, "mode": "fan_out", "distribution": "normal", "seed": null}}, "bias_initializer": {"class_name": "Zeros", "config": {}}, "kernel_regularizer": null, "bias_regularizer": null, "activity_regularizer": null, "kernel_constraint": null, "bias_constraint": null}, "inbound_nodes": [[["block6k_se_reduce", 0, 0, {}]]]}, {"name": "block6k_se_excite", "class_name": "Multiply", "config": {"name": "block6k_se_excite", "trainable": true, "dtype": "float32"}, "inbound_nodes": [[["block6k_activation", 0, 0, {}], ["block6k_se_expand", 0, 0, {}]]]}, {"name": "block6k_project_conv", "class_name": "Conv2D", "config": {"name": "block6k_project_conv", "trainable": true, "dtype": "float32", "filters": 384, "kernel_size": [1, 1], "strides": [1, 1], "padding": "same", "data_format": "channels_last", "dilation_rate": [1, 1], "activation": "linear", "use_bias": false, "kernel_initializer": {"class_name": "VarianceScaling", "config": {"scale": 2.0, "mode": "fan_out", "distribution": "normal", "seed": null}}, "bias_initializer": {"class_name": "Zeros", "config": {}}, "kernel_regularizer": null, "bias_regularizer": null, "activity_regularizer": null, "kernel_constraint": null, "bias_constraint": null}, "inbound_nodes": [[["block6k_se_excite", 0, 0, {}]]]}, {"name": "block6k_project_bn", "class_name": "BatchNormalization", "config": {"name": "block6k_project_bn", "trainable": true, "dtype": "float32", "axis": 3, "momentum": 0.99, "epsilon": 0.001, "center": true, "scale": true, "beta_initializer": {"class_name": "Zeros", "config": {}}, "gamma_initializer": {"class_name": "Ones", "config": {}}, "moving_mean_initializer": {"class_name": "Zeros", "config": {}}, "moving_variance_initializer": {"class_name": "Ones", "config": {}}, "beta_regularizer": null, "gamma_regularizer": null, "beta_constraint": null, "gamma_constraint": null}, "inbound_nodes": [[["block6k_project_conv", 0, 0, {}]]]}, {"name": "block6k_drop", "class_name": "FixedDropout", "config": {"name": "block6k_drop", "trainable": true, "dtype": "float32", "rate": 0.6000000000000001, "noise_shape": [null, 1, 1, 1], "seed": null}, "inbound_nodes": [[["block6k_project_bn", 0, 0, {}]]]}, {"name": "block6k_add", "class_name": "Add", "config": {"name": "block6k_add", "trainable": true, "dtype": "float32"}, "inbound_nodes": [[["block6k_drop", 0, 0, {}], ["block6j_add", 0, 0, {}]]]}, {"name": "block6l_expand_conv", "class_name": "Conv2D", "config": {"name": "block6l_expand_conv", "trainable": true, "dtype": "float32", "filters": 2304, "kernel_size": [1, 1], "strides": [1, 1], "padding": "same", "data_format": "channels_last", "dilation_rate": [1, 1], "activation": "linear", "use_bias": false, "kernel_initializer": {"class_name": "VarianceScaling", "config": {"scale": 2.0, "mode": "fan_out", "distribution": "normal", "seed": null}}, "bias_initializer": {"class_name": "Zeros", "config": {}}, "kernel_regularizer": null, "bias_regularizer": null, "activity_regularizer": null, "kernel_constraint": null, "bias_constraint": null}, "inbound_nodes": [[["block6k_add", 0, 0, {}]]]}, {"name": "block6l_expand_bn", "class_name": "BatchNormalization", "config": {"name": "block6l_expand_bn", "trainable": true, "dtype": "float32", "axis": 3, "momentum": 0.99, "epsilon": 0.001, "center": true, "scale": true, "beta_initializer": {"class_name": "Zeros", "config": {}}, "gamma_initializer": {"class_name": "Ones", "config": {}}, "moving_mean_initializer": {"class_name": "Zeros", "config": {}}, "moving_variance_initializer": {"class_name": "Ones", "config": {}}, "beta_regularizer": null, "gamma_regularizer": null, "beta_constraint": null, "gamma_constraint": null}, "inbound_nodes": [[["block6l_expand_conv", 0, 0, {}]]]}, {"name": "block6l_expand_activation", "class_name": "Activation", "config": {"name": "block6l_expand_activation", "trainable": true, "dtype": "float32", "activation": "swish"}, "inbound_nodes": [[["block6l_expand_bn", 0, 0, {}]]]}, {"name": "block6l_dwconv", "class_name": "DepthwiseConv2D", "config": {"name": "block6l_dwconv", "trainable": true, "dtype": "float32", "kernel_size": [5, 5], "strides": [1, 1], "padding": "same", "data_format": "channels_last", "dilation_rate": [1, 1], "activation": "linear", "use_bias": false, "bias_initializer": {"class_name": "Zeros", "config": {}}, "bias_regularizer": null, "activity_regularizer": null, "bias_constraint": null, "depth_multiplier": 1, "depthwise_initializer": {"class_name": "VarianceScaling", "config": {"scale": 2.0, "mode": "fan_out", "distribution": "normal", "seed": null}}, "depthwise_regularizer": null, "depthwise_constraint": null}, "inbound_nodes": [[["block6l_expand_activation", 0, 0, {}]]]}, {"name": "block6l_bn", "class_name": "BatchNormalization", "config": {"name": "block6l_bn", "trainable": true, "dtype": "float32", "axis": 3, "momentum": 0.99, "epsilon": 0.001, "center": true, "scale": true, "beta_initializer": {"class_name": "Zeros", "config": {}}, "gamma_initializer": {"class_name": "Ones", "config": {}}, "moving_mean_initializer": {"class_name": "Zeros", "config": {}}, "moving_variance_initializer": {"class_name": "Ones", "config": {}}, "beta_regularizer": null, "gamma_regularizer": null, "beta_constraint": null, "gamma_constraint": null}, "inbound_nodes": [[["block6l_dwconv", 0, 0, {}]]]}, {"name": "block6l_activation", "class_name": "Activation", "config": {"name": "block6l_activation", "trainable": true, "dtype": "float32", "activation": "swish"}, "inbound_nodes": [[["block6l_bn", 0, 0, {}]]]}, {"name": "block6l_se_squeeze", "class_name": "GlobalAveragePooling2D", "config": {"name": "block6l_se_squeeze", "trainable": true, "dtype": "float32", "data_format": "channels_last"}, "inbound_nodes": [[["block6l_activation", 0, 0, {}]]]}, {"name": "block6l_se_reshape", "class_name": "Reshape", "config": {"name": "block6l_se_reshape", "trainable": true, "dtype": "float32", "target_shape": [1, 1, 2304]}, "inbound_nodes": [[["block6l_se_squeeze", 0, 0, {}]]]}, {"name": "block6l_se_reduce", "class_name": "Conv2D", "config": {"name": "block6l_se_reduce", "trainable": true, "dtype": "float32", "filters": 96, "kernel_size": [1, 1], "strides": [1, 1], "padding": "same", "data_format": "channels_last", "dilation_rate": [1, 1], "activation": "swish", "use_bias": true, "kernel_initializer": {"class_name": "VarianceScaling", "config": {"scale": 2.0, "mode": "fan_out", "distribution": "normal", "seed": null}}, "bias_initializer": {"class_name": "Zeros", "config": {}}, "kernel_regularizer": null, "bias_regularizer": null, "activity_regularizer": null, "kernel_constraint": null, "bias_constraint": null}, "inbound_nodes": [[["block6l_se_reshape", 0, 0, {}]]]}, {"name": "block6l_se_expand", "class_name": "Conv2D", "config": {"name": "block6l_se_expand", "trainable": true, "dtype": "float32", "filters": 2304, "kernel_size": [1, 1], "strides": [1, 1], "padding": "same", "data_format": "channels_last", "dilation_rate": [1, 1], "activation": "sigmoid", "use_bias": true, "kernel_initializer": {"class_name": "VarianceScaling", "config": {"scale": 2.0, "mode": "fan_out", "distribution": "normal", "seed": null}}, "bias_initializer": {"class_name": "Zeros", "config": {}}, "kernel_regularizer": null, "bias_regularizer": null, "activity_regularizer": null, "kernel_constraint": null, "bias_constraint": null}, "inbound_nodes": [[["block6l_se_reduce", 0, 0, {}]]]}, {"name": "block6l_se_excite", "class_name": "Multiply", "config": {"name": "block6l_se_excite", "trainable": true, "dtype": "float32"}, "inbound_nodes": [[["block6l_activation", 0, 0, {}], ["block6l_se_expand", 0, 0, {}]]]}, {"name": "block6l_project_conv", "class_name": "Conv2D", "config": {"name": "block6l_project_conv", "trainable": true, "dtype": "float32", "filters": 384, "kernel_size": [1, 1], "strides": [1, 1], "padding": "same", "data_format": "channels_last", "dilation_rate": [1, 1], "activation": "linear", "use_bias": false, "kernel_initializer": {"class_name": "VarianceScaling", "config": {"scale": 2.0, "mode": "fan_out", "distribution": "normal", "seed": null}}, "bias_initializer": {"class_name": "Zeros", "config": {}}, "kernel_regularizer": null, "bias_regularizer": null, "activity_regularizer": null, "kernel_constraint": null, "bias_constraint": null}, "inbound_nodes": [[["block6l_se_excite", 0, 0, {}]]]}, {"name": "block6l_project_bn", "class_name": "BatchNormalization", "config": {"name": "block6l_project_bn", "trainable": true, "dtype": "float32", "axis": 3, "momentum": 0.99, "epsilon": 0.001, "center": true, "scale": true, "beta_initializer": {"class_name": "Zeros", "config": {}}, "gamma_initializer": {"class_name": "Ones", "config": {}}, "moving_mean_initializer": {"class_name": "Zeros", "config": {}}, "moving_variance_initializer": {"class_name": "Ones", "config": {}}, "beta_regularizer": null, "gamma_regularizer": null, "beta_constraint": null, "gamma_constraint": null}, "inbound_nodes": [[["block6l_project_conv", 0, 0, {}]]]}, {"name": "block6l_drop", "class_name": "FixedDropout", "config": {"name": "block6l_drop", "trainable": true, "dtype": "float32", "rate": 0.6125, "noise_shape": [null, 1, 1, 1], "seed": null}, "inbound_nodes": [[["block6l_project_bn", 0, 0, {}]]]}, {"name": "block6l_add", "class_name": "Add", "config": {"name": "block6l_add", "trainable": true, "dtype": "float32"}, "inbound_nodes": [[["block6l_drop", 0, 0, {}], ["block6k_add", 0, 0, {}]]]}, {"name": "block6m_expand_conv", "class_name": "Conv2D", "config": {"name": "block6m_expand_conv", "trainable": true, "dtype": "float32", "filters": 2304, "kernel_size": [1, 1], "strides": [1, 1], "padding": "same", "data_format": "channels_last", "dilation_rate": [1, 1], "activation": "linear", "use_bias": false, "kernel_initializer": {"class_name": "VarianceScaling", "config": {"scale": 2.0, "mode": "fan_out", "distribution": "normal", "seed": null}}, "bias_initializer": {"class_name": "Zeros", "config": {}}, "kernel_regularizer": null, "bias_regularizer": null, "activity_regularizer": null, "kernel_constraint": null, "bias_constraint": null}, "inbound_nodes": [[["block6l_add", 0, 0, {}]]]}, {"name": "block6m_expand_bn", "class_name": "BatchNormalization", "config": {"name": "block6m_expand_bn", "trainable": true, "dtype": "float32", "axis": 3, "momentum": 0.99, "epsilon": 0.001, "center": true, "scale": true, "beta_initializer": {"class_name": "Zeros", "config": {}}, "gamma_initializer": {"class_name": "Ones", "config": {}}, "moving_mean_initializer": {"class_name": "Zeros", "config": {}}, "moving_variance_initializer": {"class_name": "Ones", "config": {}}, "beta_regularizer": null, "gamma_regularizer": null, "beta_constraint": null, "gamma_constraint": null}, "inbound_nodes": [[["block6m_expand_conv", 0, 0, {}]]]}, {"name": "block6m_expand_activation", "class_name": "Activation", "config": {"name": "block6m_expand_activation", "trainable": true, "dtype": "float32", "activation": "swish"}, "inbound_nodes": [[["block6m_expand_bn", 0, 0, {}]]]}, {"name": "block6m_dwconv", "class_name": "DepthwiseConv2D", "config": {"name": "block6m_dwconv", "trainable": true, "dtype": "float32", "kernel_size": [5, 5], "strides": [1, 1], "padding": "same", "data_format": "channels_last", "dilation_rate": [1, 1], "activation": "linear", "use_bias": false, "bias_initializer": {"class_name": "Zeros", "config": {}}, "bias_regularizer": null, "activity_regularizer": null, "bias_constraint": null, "depth_multiplier": 1, "depthwise_initializer": {"class_name": "VarianceScaling", "config": {"scale": 2.0, "mode": "fan_out", "distribution": "normal", "seed": null}}, "depthwise_regularizer": null, "depthwise_constraint": null}, "inbound_nodes": [[["block6m_expand_activation", 0, 0, {}]]]}, {"name": "block6m_bn", "class_name": "BatchNormalization", "config": {"name": "block6m_bn", "trainable": true, "dtype": "float32", "axis": 3, "momentum": 0.99, "epsilon": 0.001, "center": true, "scale": true, "beta_initializer": {"class_name": "Zeros", "config": {}}, "gamma_initializer": {"class_name": "Ones", "config": {}}, "moving_mean_initializer": {"class_name": "Zeros", "config": {}}, "moving_variance_initializer": {"class_name": "Ones", "config": {}}, "beta_regularizer": null, "gamma_regularizer": null, "beta_constraint": null, "gamma_constraint": null}, "inbound_nodes": [[["block6m_dwconv", 0, 0, {}]]]}, {"name": "block6m_activation", "class_name": "Activation", "config": {"name": "block6m_activation", "trainable": true, "dtype": "float32", "activation": "swish"}, "inbound_nodes": [[["block6m_bn", 0, 0, {}]]]}, {"name": "block6m_se_squeeze", "class_name": "GlobalAveragePooling2D", "config": {"name": "block6m_se_squeeze", "trainable": true, "dtype": "float32", "data_format": "channels_last"}, "inbound_nodes": [[["block6m_activation", 0, 0, {}]]]}, {"name": "block6m_se_reshape", "class_name": "Reshape", "config": {"name": "block6m_se_reshape", "trainable": true, "dtype": "float32", "target_shape": [1, 1, 2304]}, "inbound_nodes": [[["block6m_se_squeeze", 0, 0, {}]]]}, {"name": "block6m_se_reduce", "class_name": "Conv2D", "config": {"name": "block6m_se_reduce", "trainable": true, "dtype": "float32", "filters": 96, "kernel_size": [1, 1], "strides": [1, 1], "padding": "same", "data_format": "channels_last", "dilation_rate": [1, 1], "activation": "swish", "use_bias": true, "kernel_initializer": {"class_name": "VarianceScaling", "config": {"scale": 2.0, "mode": "fan_out", "distribution": "normal", "seed": null}}, "bias_initializer": {"class_name": "Zeros", "config": {}}, "kernel_regularizer": null, "bias_regularizer": null, "activity_regularizer": null, "kernel_constraint": null, "bias_constraint": null}, "inbound_nodes": [[["block6m_se_reshape", 0, 0, {}]]]}, {"name": "block6m_se_expand", "class_name": "Conv2D", "config": {"name": "block6m_se_expand", "trainable": true, "dtype": "float32", "filters": 2304, "kernel_size": [1, 1], "strides": [1, 1], "padding": "same", "data_format": "channels_last", "dilation_rate": [1, 1], "activation": "sigmoid", "use_bias": true, "kernel_initializer": {"class_name": "VarianceScaling", "config": {"scale": 2.0, "mode": "fan_out", "distribution": "normal", "seed": null}}, "bias_initializer": {"class_name": "Zeros", "config": {}}, "kernel_regularizer": null, "bias_regularizer": null, "activity_regularizer": null, "kernel_constraint": null, "bias_constraint": null}, "inbound_nodes": [[["block6m_se_reduce", 0, 0, {}]]]}, {"name": "block6m_se_excite", "class_name": "Multiply", "config": {"name": "block6m_se_excite", "trainable": true, "dtype": "float32"}, "inbound_nodes": [[["block6m_activation", 0, 0, {}], ["block6m_se_expand", 0, 0, {}]]]}, {"name": "block6m_project_conv", "class_name": "Conv2D", "config": {"name": "block6m_project_conv", "trainable": true, "dtype": "float32", "filters": 384, "kernel_size": [1, 1], "strides": [1, 1], "padding": "same", "data_format": "channels_last", "dilation_rate": [1, 1], "activation": "linear", "use_bias": false, "kernel_initializer": {"class_name": "VarianceScaling", "config": {"scale": 2.0, "mode": "fan_out", "distribution": "normal", "seed": null}}, "bias_initializer": {"class_name": "Zeros", "config": {}}, "kernel_regularizer": null, "bias_regularizer": null, "activity_regularizer": null, "kernel_constraint": null, "bias_constraint": null}, "inbound_nodes": [[["block6m_se_excite", 0, 0, {}]]]}, {"name": "block6m_project_bn", "class_name": "BatchNormalization", "config": {"name": "block6m_project_bn", "trainable": true, "dtype": "float32", "axis": 3, "momentum": 0.99, "epsilon": 0.001, "center": true, "scale": true, "beta_initializer": {"class_name": "Zeros", "config": {}}, "gamma_initializer": {"class_name": "Ones", "config": {}}, "moving_mean_initializer": {"class_name": "Zeros", "config": {}}, "moving_variance_initializer": {"class_name": "Ones", "config": {}}, "beta_regularizer": null, "gamma_regularizer": null, "beta_constraint": null, "gamma_constraint": null}, "inbound_nodes": [[["block6m_project_conv", 0, 0, {}]]]}, {"name": "block6m_drop", "class_name": "FixedDropout", "config": {"name": "block6m_drop", "trainable": true, "dtype": "float32", "rate": 0.625, "noise_shape": [null, 1, 1, 1], "seed": null}, "inbound_nodes": [[["block6m_project_bn", 0, 0, {}]]]}, {"name": "block6m_add", "class_name": "Add", "config": {"name": "block6m_add", "trainable": true, "dtype": "float32"}, "inbound_nodes": [[["block6m_drop", 0, 0, {}], ["block6l_add", 0, 0, {}]]]}, {"name": "block7a_expand_conv", "class_name": "Conv2D", "config": {"name": "block7a_expand_conv", "trainable": true, "dtype": "float32", "filters": 2304, "kernel_size": [1, 1], "strides": [1, 1], "padding": "same", "data_format": "channels_last", "dilation_rate": [1, 1], "activation": "linear", "use_bias": false, "kernel_initializer": {"class_name": "VarianceScaling", "config": {"scale": 2.0, "mode": "fan_out", "distribution": "normal", "seed": null}}, "bias_initializer": {"class_name": "Zeros", "config": {}}, "kernel_regularizer": null, "bias_regularizer": null, "activity_regularizer": null, "kernel_constraint": null, "bias_constraint": null}, "inbound_nodes": [[["block6m_add", 0, 0, {}]]]}, {"name": "block7a_expand_bn", "class_name": "BatchNormalization", "config": {"name": "block7a_expand_bn", "trainable": true, "dtype": "float32", "axis": 3, "momentum": 0.99, "epsilon": 0.001, "center": true, "scale": true, "beta_initializer": {"class_name": "Zeros", "config": {}}, "gamma_initializer": {"class_name": "Ones", "config": {}}, "moving_mean_initializer": {"class_name": "Zeros", "config": {}}, "moving_variance_initializer": {"class_name": "Ones", "config": {}}, "beta_regularizer": null, "gamma_regularizer": null, "beta_constraint": null, "gamma_constraint": null}, "inbound_nodes": [[["block7a_expand_conv", 0, 0, {}]]]}, {"name": "block7a_expand_activation", "class_name": "Activation", "config": {"name": "block7a_expand_activation", "trainable": true, "dtype": "float32", "activation": "swish"}, "inbound_nodes": [[["block7a_expand_bn", 0, 0, {}]]]}, {"name": "block7a_dwconv", "class_name": "DepthwiseConv2D", "config": {"name": "block7a_dwconv", "trainable": true, "dtype": "float32", "kernel_size": [3, 3], "strides": [1, 1], "padding": "same", "data_format": "channels_last", "dilation_rate": [1, 1], "activation": "linear", "use_bias": false, "bias_initializer": {"class_name": "Zeros", "config": {}}, "bias_regularizer": null, "activity_regularizer": null, "bias_constraint": null, "depth_multiplier": 1, "depthwise_initializer": {"class_name": "VarianceScaling", "config": {"scale": 2.0, "mode": "fan_out", "distribution": "normal", "seed": null}}, "depthwise_regularizer": null, "depthwise_constraint": null}, "inbound_nodes": [[["block7a_expand_activation", 0, 0, {}]]]}, {"name": "block7a_bn", "class_name": "BatchNormalization", "config": {"name": "block7a_bn", "trainable": true, "dtype": "float32", "axis": 3, "momentum": 0.99, "epsilon": 0.001, "center": true, "scale": true, "beta_initializer": {"class_name": "Zeros", "config": {}}, "gamma_initializer": {"class_name": "Ones", "config": {}}, "moving_mean_initializer": {"class_name": "Zeros", "config": {}}, "moving_variance_initializer": {"class_name": "Ones", "config": {}}, "beta_regularizer": null, "gamma_regularizer": null, "beta_constraint": null, "gamma_constraint": null}, "inbound_nodes": [[["block7a_dwconv", 0, 0, {}]]]}, {"name": "block7a_activation", "class_name": "Activation", "config": {"name": "block7a_activation", "trainable": true, "dtype": "float32", "activation": "swish"}, "inbound_nodes": [[["block7a_bn", 0, 0, {}]]]}, {"name": "block7a_se_squeeze", "class_name": "GlobalAveragePooling2D", "config": {"name": "block7a_se_squeeze", "trainable": true, "dtype": "float32", "data_format": "channels_last"}, "inbound_nodes": [[["block7a_activation", 0, 0, {}]]]}, {"name": "block7a_se_reshape", "class_name": "Reshape", "config": {"name": "block7a_se_reshape", "trainable": true, "dtype": "float32", "target_shape": [1, 1, 2304]}, "inbound_nodes": [[["block7a_se_squeeze", 0, 0, {}]]]}, {"name": "block7a_se_reduce", "class_name": "Conv2D", "config": {"name": "block7a_se_reduce", "trainable": true, "dtype": "float32", "filters": 96, "kernel_size": [1, 1], "strides": [1, 1], "padding": "same", "data_format": "channels_last", "dilation_rate": [1, 1], "activation": "swish", "use_bias": true, "kernel_initializer": {"class_name": "VarianceScaling", "config": {"scale": 2.0, "mode": "fan_out", "distribution": "normal", "seed": null}}, "bias_initializer": {"class_name": "Zeros", "config": {}}, "kernel_regularizer": null, "bias_regularizer": null, "activity_regularizer": null, "kernel_constraint": null, "bias_constraint": null}, "inbound_nodes": [[["block7a_se_reshape", 0, 0, {}]]]}, {"name": "block7a_se_expand", "class_name": "Conv2D", "config": {"name": "block7a_se_expand", "trainable": true, "dtype": "float32", "filters": 2304, "kernel_size": [1, 1], "strides": [1, 1], "padding": "same", "data_format": "channels_last", "dilation_rate": [1, 1], "activation": "sigmoid", "use_bias": true, "kernel_initializer": {"class_name": "VarianceScaling", "config": {"scale": 2.0, "mode": "fan_out", "distribution": "normal", "seed": null}}, "bias_initializer": {"class_name": "Zeros", "config": {}}, "kernel_regularizer": null, "bias_regularizer": null, "activity_regularizer": null, "kernel_constraint": null, "bias_constraint": null}, "inbound_nodes": [[["block7a_se_reduce", 0, 0, {}]]]}, {"name": "block7a_se_excite", "class_name": "Multiply", "config": {"name": "block7a_se_excite", "trainable": true, "dtype": "float32"}, "inbound_nodes": [[["block7a_activation", 0, 0, {}], ["block7a_se_expand", 0, 0, {}]]]}, {"name": "block7a_project_conv", "class_name": "Conv2D", "config": {"name": "block7a_project_conv", "trainable": true, "dtype": "float32", "filters": 640, "kernel_size": [1, 1], "strides": [1, 1], "padding": "same", "data_format": "channels_last", "dilation_rate": [1, 1], "activation": "linear", "use_bias": false, "kernel_initializer": {"class_name": "VarianceScaling", "config": {"scale": 2.0, "mode": "fan_out", "distribution": "normal", "seed": null}}, "bias_initializer": {"class_name": "Zeros", "config": {}}, "kernel_regularizer": null, "bias_regularizer": null, "activity_regularizer": null, "kernel_constraint": null, "bias_constraint": null}, "inbound_nodes": [[["block7a_se_excite", 0, 0, {}]]]}, {"name": "block7a_project_bn", "class_name": "BatchNormalization", "config": {"name": "block7a_project_bn", "trainable": true, "dtype": "float32", "axis": 3, "momentum": 0.99, "epsilon": 0.001, "center": true, "scale": true, "beta_initializer": {"class_name": "Zeros", "config": {}}, "gamma_initializer": {"class_name": "Ones", "config": {}}, "moving_mean_initializer": {"class_name": "Zeros", "config": {}}, "moving_variance_initializer": {"class_name": "Ones", "config": {}}, "beta_regularizer": null, "gamma_regularizer": null, "beta_constraint": null, "gamma_constraint": null}, "inbound_nodes": [[["block7a_project_conv", 0, 0, {}]]]}, {"name": "block7b_expand_conv", "class_name": "Conv2D", "config": {"name": "block7b_expand_conv", "trainable": true, "dtype": "float32", "filters": 3840, "kernel_size": [1, 1], "strides": [1, 1], "padding": "same", "data_format": "channels_last", "dilation_rate": [1, 1], "activation": "linear", "use_bias": false, "kernel_initializer": {"class_name": "VarianceScaling", "config": {"scale": 2.0, "mode": "fan_out", "distribution": "normal", "seed": null}}, "bias_initializer": {"class_name": "Zeros", "config": {}}, "kernel_regularizer": null, "bias_regularizer": null, "activity_regularizer": null, "kernel_constraint": null, "bias_constraint": null}, "inbound_nodes": [[["block7a_project_bn", 0, 0, {}]]]}, {"name": "block7b_expand_bn", "class_name": "BatchNormalization", "config": {"name": "block7b_expand_bn", "trainable": true, "dtype": "float32", "axis": 3, "momentum": 0.99, "epsilon": 0.001, "center": true, "scale": true, "beta_initializer": {"class_name": "Zeros", "config": {}}, "gamma_initializer": {"class_name": "Ones", "config": {}}, "moving_mean_initializer": {"class_name": "Zeros", "config": {}}, "moving_variance_initializer": {"class_name": "Ones", "config": {}}, "beta_regularizer": null, "gamma_regularizer": null, "beta_constraint": null, "gamma_constraint": null}, "inbound_nodes": [[["block7b_expand_conv", 0, 0, {}]]]}, {"name": "block7b_expand_activation", "class_name": "Activation", "config": {"name": "block7b_expand_activation", "trainable": true, "dtype": "float32", "activation": "swish"}, "inbound_nodes": [[["block7b_expand_bn", 0, 0, {}]]]}, {"name": "block7b_dwconv", "class_name": "DepthwiseConv2D", "config": {"name": "block7b_dwconv", "trainable": true, "dtype": "float32", "kernel_size": [3, 3], "strides": [1, 1], "padding": "same", "data_format": "channels_last", "dilation_rate": [1, 1], "activation": "linear", "use_bias": false, "bias_initializer": {"class_name": "Zeros", "config": {}}, "bias_regularizer": null, "activity_regularizer": null, "bias_constraint": null, "depth_multiplier": 1, "depthwise_initializer": {"class_name": "VarianceScaling", "config": {"scale": 2.0, "mode": "fan_out", "distribution": "normal", "seed": null}}, "depthwise_regularizer": null, "depthwise_constraint": null}, "inbound_nodes": [[["block7b_expand_activation", 0, 0, {}]]]}, {"name": "block7b_bn", "class_name": "BatchNormalization", "config": {"name": "block7b_bn", "trainable": true, "dtype": "float32", "axis": 3, "momentum": 0.99, "epsilon": 0.001, "center": true, "scale": true, "beta_initializer": {"class_name": "Zeros", "config": {}}, "gamma_initializer": {"class_name": "Ones", "config": {}}, "moving_mean_initializer": {"class_name": "Zeros", "config": {}}, "moving_variance_initializer": {"class_name": "Ones", "config": {}}, "beta_regularizer": null, "gamma_regularizer": null, "beta_constraint": null, "gamma_constraint": null}, "inbound_nodes": [[["block7b_dwconv", 0, 0, {}]]]}, {"name": "block7b_activation", "class_name": "Activation", "config": {"name": "block7b_activation", "trainable": true, "dtype": "float32", "activation": "swish"}, "inbound_nodes": [[["block7b_bn", 0, 0, {}]]]}, {"name": "block7b_se_squeeze", "class_name": "GlobalAveragePooling2D", "config": {"name": "block7b_se_squeeze", "trainable": true, "dtype": "float32", "data_format": "channels_last"}, "inbound_nodes": [[["block7b_activation", 0, 0, {}]]]}, {"name": "block7b_se_reshape", "class_name": "Reshape", "config": {"name": "block7b_se_reshape", "trainable": true, "dtype": "float32", "target_shape": [1, 1, 3840]}, "inbound_nodes": [[["block7b_se_squeeze", 0, 0, {}]]]}, {"name": "block7b_se_reduce", "class_name": "Conv2D", "config": {"name": "block7b_se_reduce", "trainable": true, "dtype": "float32", "filters": 160, "kernel_size": [1, 1], "strides": [1, 1], "padding": "same", "data_format": "channels_last", "dilation_rate": [1, 1], "activation": "swish", "use_bias": true, "kernel_initializer": {"class_name": "VarianceScaling", "config": {"scale": 2.0, "mode": "fan_out", "distribution": "normal", "seed": null}}, "bias_initializer": {"class_name": "Zeros", "config": {}}, "kernel_regularizer": null, "bias_regularizer": null, "activity_regularizer": null, "kernel_constraint": null, "bias_constraint": null}, "inbound_nodes": [[["block7b_se_reshape", 0, 0, {}]]]}, {"name": "block7b_se_expand", "class_name": "Conv2D", "config": {"name": "block7b_se_expand", "trainable": true, "dtype": "float32", "filters": 3840, "kernel_size": [1, 1], "strides": [1, 1], "padding": "same", "data_format": "channels_last", "dilation_rate": [1, 1], "activation": "sigmoid", "use_bias": true, "kernel_initializer": {"class_name": "VarianceScaling", "config": {"scale": 2.0, "mode": "fan_out", "distribution": "normal", "seed": null}}, "bias_initializer": {"class_name": "Zeros", "config": {}}, "kernel_regularizer": null, "bias_regularizer": null, "activity_regularizer": null, "kernel_constraint": null, "bias_constraint": null}, "inbound_nodes": [[["block7b_se_reduce", 0, 0, {}]]]}, {"name": "block7b_se_excite", "class_name": "Multiply", "config": {"name": "block7b_se_excite", "trainable": true, "dtype": "float32"}, "inbound_nodes": [[["block7b_activation", 0, 0, {}], ["block7b_se_expand", 0, 0, {}]]]}, {"name": "block7b_project_conv", "class_name": "Conv2D", "config": {"name": "block7b_project_conv", "trainable": true, "dtype": "float32", "filters": 640, "kernel_size": [1, 1], "strides": [1, 1], "padding": "same", "data_format": "channels_last", "dilation_rate": [1, 1], "activation": "linear", "use_bias": false, "kernel_initializer": {"class_name": "VarianceScaling", "config": {"scale": 2.0, "mode": "fan_out", "distribution": "normal", "seed": null}}, "bias_initializer": {"class_name": "Zeros", "config": {}}, "kernel_regularizer": null, "bias_regularizer": null, "activity_regularizer": null, "kernel_constraint": null, "bias_constraint": null}, "inbound_nodes": [[["block7b_se_excite", 0, 0, {}]]]}, {"name": "block7b_project_bn", "class_name": "BatchNormalization", "config": {"name": "block7b_project_bn", "trainable": true, "dtype": "float32", "axis": 3, "momentum": 0.99, "epsilon": 0.001, "center": true, "scale": true, "beta_initializer": {"class_name": "Zeros", "config": {}}, "gamma_initializer": {"class_name": "Ones", "config": {}}, "moving_mean_initializer": {"class_name": "Zeros", "config": {}}, "moving_variance_initializer": {"class_name": "Ones", "config": {}}, "beta_regularizer": null, "gamma_regularizer": null, "beta_constraint": null, "gamma_constraint": null}, "inbound_nodes": [[["block7b_project_conv", 0, 0, {}]]]}, {"name": "block7b_drop", "class_name": "FixedDropout", "config": {"name": "block7b_drop", "trainable": true, "dtype": "float32", "rate": 0.65, "noise_shape": [null, 1, 1, 1], "seed": null}, "inbound_nodes": [[["block7b_project_bn", 0, 0, {}]]]}, {"name": "block7b_add", "class_name": "Add", "config": {"name": "block7b_add", "trainable": true, "dtype": "float32"}, "inbound_nodes": [[["block7b_drop", 0, 0, {}], ["block7a_project_bn", 0, 0, {}]]]}, {"name": "block7c_expand_conv", "class_name": "Conv2D", "config": {"name": "block7c_expand_conv", "trainable": true, "dtype": "float32", "filters": 3840, "kernel_size": [1, 1], "strides": [1, 1], "padding": "same", "data_format": "channels_last", "dilation_rate": [1, 1], "activation": "linear", "use_bias": false, "kernel_initializer": {"class_name": "VarianceScaling", "config": {"scale": 2.0, "mode": "fan_out", "distribution": "normal", "seed": null}}, "bias_initializer": {"class_name": "Zeros", "config": {}}, "kernel_regularizer": null, "bias_regularizer": null, "activity_regularizer": null, "kernel_constraint": null, "bias_constraint": null}, "inbound_nodes": [[["block7b_add", 0, 0, {}]]]}, {"name": "block7c_expand_bn", "class_name": "BatchNormalization", "config": {"name": "block7c_expand_bn", "trainable": true, "dtype": "float32", "axis": 3, "momentum": 0.99, "epsilon": 0.001, "center": true, "scale": true, "beta_initializer": {"class_name": "Zeros", "config": {}}, "gamma_initializer": {"class_name": "Ones", "config": {}}, "moving_mean_initializer": {"class_name": "Zeros", "config": {}}, "moving_variance_initializer": {"class_name": "Ones", "config": {}}, "beta_regularizer": null, "gamma_regularizer": null, "beta_constraint": null, "gamma_constraint": null}, "inbound_nodes": [[["block7c_expand_conv", 0, 0, {}]]]}, {"name": "block7c_expand_activation", "class_name": "Activation", "config": {"name": "block7c_expand_activation", "trainable": true, "dtype": "float32", "activation": "swish"}, "inbound_nodes": [[["block7c_expand_bn", 0, 0, {}]]]}, {"name": "block7c_dwconv", "class_name": "DepthwiseConv2D", "config": {"name": "block7c_dwconv", "trainable": true, "dtype": "float32", "kernel_size": [3, 3], "strides": [1, 1], "padding": "same", "data_format": "channels_last", "dilation_rate": [1, 1], "activation": "linear", "use_bias": false, "bias_initializer": {"class_name": "Zeros", "config": {}}, "bias_regularizer": null, "activity_regularizer": null, "bias_constraint": null, "depth_multiplier": 1, "depthwise_initializer": {"class_name": "VarianceScaling", "config": {"scale": 2.0, "mode": "fan_out", "distribution": "normal", "seed": null}}, "depthwise_regularizer": null, "depthwise_constraint": null}, "inbound_nodes": [[["block7c_expand_activation", 0, 0, {}]]]}, {"name": "block7c_bn", "class_name": "BatchNormalization", "config": {"name": "block7c_bn", "trainable": true, "dtype": "float32", "axis": 3, "momentum": 0.99, "epsilon": 0.001, "center": true, "scale": true, "beta_initializer": {"class_name": "Zeros", "config": {}}, "gamma_initializer": {"class_name": "Ones", "config": {}}, "moving_mean_initializer": {"class_name": "Zeros", "config": {}}, "moving_variance_initializer": {"class_name": "Ones", "config": {}}, "beta_regularizer": null, "gamma_regularizer": null, "beta_constraint": null, "gamma_constraint": null}, "inbound_nodes": [[["block7c_dwconv", 0, 0, {}]]]}, {"name": "block7c_activation", "class_name": "Activation", "config": {"name": "block7c_activation", "trainable": true, "dtype": "float32", "activation": "swish"}, "inbound_nodes": [[["block7c_bn", 0, 0, {}]]]}, {"name": "block7c_se_squeeze", "class_name": "GlobalAveragePooling2D", "config": {"name": "block7c_se_squeeze", "trainable": true, "dtype": "float32", "data_format": "channels_last"}, "inbound_nodes": [[["block7c_activation", 0, 0, {}]]]}, {"name": "block7c_se_reshape", "class_name": "Reshape", "config": {"name": "block7c_se_reshape", "trainable": true, "dtype": "float32", "target_shape": [1, 1, 3840]}, "inbound_nodes": [[["block7c_se_squeeze", 0, 0, {}]]]}, {"name": "block7c_se_reduce", "class_name": "Conv2D", "config": {"name": "block7c_se_reduce", "trainable": true, "dtype": "float32", "filters": 160, "kernel_size": [1, 1], "strides": [1, 1], "padding": "same", "data_format": "channels_last", "dilation_rate": [1, 1], "activation": "swish", "use_bias": true, "kernel_initializer": {"class_name": "VarianceScaling", "config": {"scale": 2.0, "mode": "fan_out", "distribution": "normal", "seed": null}}, "bias_initializer": {"class_name": "Zeros", "config": {}}, "kernel_regularizer": null, "bias_regularizer": null, "activity_regularizer": null, "kernel_constraint": null, "bias_constraint": null}, "inbound_nodes": [[["block7c_se_reshape", 0, 0, {}]]]}, {"name": "block7c_se_expand", "class_name": "Conv2D", "config": {"name": "block7c_se_expand", "trainable": true, "dtype": "float32", "filters": 3840, "kernel_size": [1, 1], "strides": [1, 1], "padding": "same", "data_format": "channels_last", "dilation_rate": [1, 1], "activation": "sigmoid", "use_bias": true, "kernel_initializer": {"class_name": "VarianceScaling", "config": {"scale": 2.0, "mode": "fan_out", "distribution": "normal", "seed": null}}, "bias_initializer": {"class_name": "Zeros", "config": {}}, "kernel_regularizer": null, "bias_regularizer": null, "activity_regularizer": null, "kernel_constraint": null, "bias_constraint": null}, "inbound_nodes": [[["block7c_se_reduce", 0, 0, {}]]]}, {"name": "block7c_se_excite", "class_name": "Multiply", "config": {"name": "block7c_se_excite", "trainable": true, "dtype": "float32"}, "inbound_nodes": [[["block7c_activation", 0, 0, {}], ["block7c_se_expand", 0, 0, {}]]]}, {"name": "block7c_project_conv", "class_name": "Conv2D", "config": {"name": "block7c_project_conv", "trainable": true, "dtype": "float32", "filters": 640, "kernel_size": [1, 1], "strides": [1, 1], "padding": "same", "data_format": "channels_last", "dilation_rate": [1, 1], "activation": "linear", "use_bias": false, "kernel_initializer": {"class_name": "VarianceScaling", "config": {"scale": 2.0, "mode": "fan_out", "distribution": "normal", "seed": null}}, "bias_initializer": {"class_name": "Zeros", "config": {}}, "kernel_regularizer": null, "bias_regularizer": null, "activity_regularizer": null, "kernel_constraint": null, "bias_constraint": null}, "inbound_nodes": [[["block7c_se_excite", 0, 0, {}]]]}, {"name": "block7c_project_bn", "class_name": "BatchNormalization", "config": {"name": "block7c_project_bn", "trainable": true, "dtype": "float32", "axis": 3, "momentum": 0.99, "epsilon": 0.001, "center": true, "scale": true, "beta_initializer": {"class_name": "Zeros", "config": {}}, "gamma_initializer": {"class_name": "Ones", "config": {}}, "moving_mean_initializer": {"class_name": "Zeros", "config": {}}, "moving_variance_initializer": {"class_name": "Ones", "config": {}}, "beta_regularizer": null, "gamma_regularizer": null, "beta_constraint": null, "gamma_constraint": null}, "inbound_nodes": [[["block7c_project_conv", 0, 0, {}]]]}, {"name": "block7c_drop", "class_name": "FixedDropout", "config": {"name": "block7c_drop", "trainable": true, "dtype": "float32", "rate": 0.6625000000000001, "noise_shape": [null, 1, 1, 1], "seed": null}, "inbound_nodes": [[["block7c_project_bn", 0, 0, {}]]]}, {"name": "block7c_add", "class_name": "Add", "config": {"name": "block7c_add", "trainable": true, "dtype": "float32"}, "inbound_nodes": [[["block7c_drop", 0, 0, {}], ["block7b_add", 0, 0, {}]]]}, {"name": "block7d_expand_conv", "class_name": "Conv2D", "config": {"name": "block7d_expand_conv", "trainable": true, "dtype": "float32", "filters": 3840, "kernel_size": [1, 1], "strides": [1, 1], "padding": "same", "data_format": "channels_last", "dilation_rate": [1, 1], "activation": "linear", "use_bias": false, "kernel_initializer": {"class_name": "VarianceScaling", "config": {"scale": 2.0, "mode": "fan_out", "distribution": "normal", "seed": null}}, "bias_initializer": {"class_name": "Zeros", "config": {}}, "kernel_regularizer": null, "bias_regularizer": null, "activity_regularizer": null, "kernel_constraint": null, "bias_constraint": null}, "inbound_nodes": [[["block7c_add", 0, 0, {}]]]}, {"name": "block7d_expand_bn", "class_name": "BatchNormalization", "config": {"name": "block7d_expand_bn", "trainable": true, "dtype": "float32", "axis": 3, "momentum": 0.99, "epsilon": 0.001, "center": true, "scale": true, "beta_initializer": {"class_name": "Zeros", "config": {}}, "gamma_initializer": {"class_name": "Ones", "config": {}}, "moving_mean_initializer": {"class_name": "Zeros", "config": {}}, "moving_variance_initializer": {"class_name": "Ones", "config": {}}, "beta_regularizer": null, "gamma_regularizer": null, "beta_constraint": null, "gamma_constraint": null}, "inbound_nodes": [[["block7d_expand_conv", 0, 0, {}]]]}, {"name": "block7d_expand_activation", "class_name": "Activation", "config": {"name": "block7d_expand_activation", "trainable": true, "dtype": "float32", "activation": "swish"}, "inbound_nodes": [[["block7d_expand_bn", 0, 0, {}]]]}, {"name": "block7d_dwconv", "class_name": "DepthwiseConv2D", "config": {"name": "block7d_dwconv", "trainable": true, "dtype": "float32", "kernel_size": [3, 3], "strides": [1, 1], "padding": "same", "data_format": "channels_last", "dilation_rate": [1, 1], "activation": "linear", "use_bias": false, "bias_initializer": {"class_name": "Zeros", "config": {}}, "bias_regularizer": null, "activity_regularizer": null, "bias_constraint": null, "depth_multiplier": 1, "depthwise_initializer": {"class_name": "VarianceScaling", "config": {"scale": 2.0, "mode": "fan_out", "distribution": "normal", "seed": null}}, "depthwise_regularizer": null, "depthwise_constraint": null}, "inbound_nodes": [[["block7d_expand_activation", 0, 0, {}]]]}, {"name": "block7d_bn", "class_name": "BatchNormalization", "config": {"name": "block7d_bn", "trainable": true, "dtype": "float32", "axis": 3, "momentum": 0.99, "epsilon": 0.001, "center": true, "scale": true, "beta_initializer": {"class_name": "Zeros", "config": {}}, "gamma_initializer": {"class_name": "Ones", "config": {}}, "moving_mean_initializer": {"class_name": "Zeros", "config": {}}, "moving_variance_initializer": {"class_name": "Ones", "config": {}}, "beta_regularizer": null, "gamma_regularizer": null, "beta_constraint": null, "gamma_constraint": null}, "inbound_nodes": [[["block7d_dwconv", 0, 0, {}]]]}, {"name": "block7d_activation", "class_name": "Activation", "config": {"name": "block7d_activation", "trainable": true, "dtype": "float32", "activation": "swish"}, "inbound_nodes": [[["block7d_bn", 0, 0, {}]]]}, {"name": "block7d_se_squeeze", "class_name": "GlobalAveragePooling2D", "config": {"name": "block7d_se_squeeze", "trainable": true, "dtype": "float32", "data_format": "channels_last"}, "inbound_nodes": [[["block7d_activation", 0, 0, {}]]]}, {"name": "block7d_se_reshape", "class_name": "Reshape", "config": {"name": "block7d_se_reshape", "trainable": true, "dtype": "float32", "target_shape": [1, 1, 3840]}, "inbound_nodes": [[["block7d_se_squeeze", 0, 0, {}]]]}, {"name": "block7d_se_reduce", "class_name": "Conv2D", "config": {"name": "block7d_se_reduce", "trainable": true, "dtype": "float32", "filters": 160, "kernel_size": [1, 1], "strides": [1, 1], "padding": "same", "data_format": "channels_last", "dilation_rate": [1, 1], "activation": "swish", "use_bias": true, "kernel_initializer": {"class_name": "VarianceScaling", "config": {"scale": 2.0, "mode": "fan_out", "distribution": "normal", "seed": null}}, "bias_initializer": {"class_name": "Zeros", "config": {}}, "kernel_regularizer": null, "bias_regularizer": null, "activity_regularizer": null, "kernel_constraint": null, "bias_constraint": null}, "inbound_nodes": [[["block7d_se_reshape", 0, 0, {}]]]}, {"name": "block7d_se_expand", "class_name": "Conv2D", "config": {"name": "block7d_se_expand", "trainable": true, "dtype": "float32", "filters": 3840, "kernel_size": [1, 1], "strides": [1, 1], "padding": "same", "data_format": "channels_last", "dilation_rate": [1, 1], "activation": "sigmoid", "use_bias": true, "kernel_initializer": {"class_name": "VarianceScaling", "config": {"scale": 2.0, "mode": "fan_out", "distribution": "normal", "seed": null}}, "bias_initializer": {"class_name": "Zeros", "config": {}}, "kernel_regularizer": null, "bias_regularizer": null, "activity_regularizer": null, "kernel_constraint": null, "bias_constraint": null}, "inbound_nodes": [[["block7d_se_reduce", 0, 0, {}]]]}, {"name": "block7d_se_excite", "class_name": "Multiply", "config": {"name": "block7d_se_excite", "trainable": true, "dtype": "float32"}, "inbound_nodes": [[["block7d_activation", 0, 0, {}], ["block7d_se_expand", 0, 0, {}]]]}, {"name": "block7d_project_conv", "class_name": "Conv2D", "config": {"name": "block7d_project_conv", "trainable": true, "dtype": "float32", "filters": 640, "kernel_size": [1, 1], "strides": [1, 1], "padding": "same", "data_format": "channels_last", "dilation_rate": [1, 1], "activation": "linear", "use_bias": false, "kernel_initializer": {"class_name": "VarianceScaling", "config": {"scale": 2.0, "mode": "fan_out", "distribution": "normal", "seed": null}}, "bias_initializer": {"class_name": "Zeros", "config": {}}, "kernel_regularizer": null, "bias_regularizer": null, "activity_regularizer": null, "kernel_constraint": null, "bias_constraint": null}, "inbound_nodes": [[["block7d_se_excite", 0, 0, {}]]]}, {"name": "block7d_project_bn", "class_name": "BatchNormalization", "config": {"name": "block7d_project_bn", "trainable": true, "dtype": "float32", "axis": 3, "momentum": 0.99, "epsilon": 0.001, "center": true, "scale": true, "beta_initializer": {"class_name": "Zeros", "config": {}}, "gamma_initializer": {"class_name": "Ones", "config": {}}, "moving_mean_initializer": {"class_name": "Zeros", "config": {}}, "moving_variance_initializer": {"class_name": "Ones", "config": {}}, "beta_regularizer": null, "gamma_regularizer": null, "beta_constraint": null, "gamma_constraint": null}, "inbound_nodes": [[["block7d_project_conv", 0, 0, {}]]]}, {"name": "block7d_drop", "class_name": "FixedDropout", "config": {"name": "block7d_drop", "trainable": true, "dtype": "float32", "rate": 0.675, "noise_shape": [null, 1, 1, 1], "seed": null}, "inbound_nodes": [[["block7d_project_bn", 0, 0, {}]]]}, {"name": "block7d_add", "class_name": "Add", "config": {"name": "block7d_add", "trainable": true, "dtype": "float32"}, "inbound_nodes": [[["block7d_drop", 0, 0, {}], ["block7c_add", 0, 0, {}]]]}, {"name": "top_conv", "class_name": "Conv2D", "config": {"name": "top_conv", "trainable": true, "dtype": "float32", "filters": 2560, "kernel_size": [1, 1], "strides": [1, 1], "padding": "same", "data_format": "channels_last", "dilation_rate": [1, 1], "activation": "linear", "use_bias": false, "kernel_initializer": {"class_name": "VarianceScaling", "config": {"scale": 2.0, "mode": "fan_out", "distribution": "normal", "seed": null}}, "bias_initializer": {"class_name": "Zeros", "config": {}}, "kernel_regularizer": null, "bias_regularizer": null, "activity_regularizer": null, "kernel_constraint": null, "bias_constraint": null}, "inbound_nodes": [[["block7d_add", 0, 0, {}]]]}, {"name": "top_bn", "class_name": "BatchNormalization", "config": {"name": "top_bn", "trainable": true, "dtype": "float32", "axis": 3, "momentum": 0.99, "epsilon": 0.001, "center": true, "scale": true, "beta_initializer": {"class_name": "Zeros", "config": {}}, "gamma_initializer": {"class_name": "Ones", "config": {}}, "moving_mean_initializer": {"class_name": "Zeros", "config": {}}, "moving_variance_initializer": {"class_name": "Ones", "config": {}}, "beta_regularizer": null, "gamma_regularizer": null, "beta_constraint": null, "gamma_constraint": null}, "inbound_nodes": [[["top_conv", 0, 0, {}]]]}, {"name": "top_activation", "class_name": "Activation", "config": {"name": "top_activation", "trainable": true, "dtype": "float32", "activation": "swish"}, "inbound_nodes": [[["top_bn", 0, 0, {}]]]}, {"name": "avg_pool", "class_name": "GlobalAveragePooling2D", "config": {"name": "avg_pool", "trainable": true, "dtype": "float32", "data_format": "channels_last"}, "inbound_nodes": [[["top_activation", 0, 0, {}]]]}, {"name": "top_dropout", "class_name": "Dropout", "config": {"name": "top_dropout", "trainable": true, "dtype": "float32", "rate": 0.5, "noise_shape": null, "seed": null}, "inbound_nodes": [[["avg_pool", 0, 0, {}]]]}, {"name": "probs", "class_name": "Dense", "config": {"name": "probs", "trainable": true, "dtype": "float32", "units": 1000, "activation": "softmax", "use_bias": true, "kernel_initializer": {"class_name": "VarianceScaling", "config": {"scale": 0.3333333333333333, "mode": "fan_out", "distribution": "uniform", "seed": null}}, "bias_initializer": {"class_name": "Zeros", "config": {}}, "kernel_regularizer": null, "bias_regularizer": null, "activity_regularizer": null, "kernel_constraint": null, "bias_constraint": null}, "inbound_nodes": [[["top_dropout", 0, 0, {}]]]}], "input_layers": [["input_5", 0, 0]], "output_layers": [["probs", 0, 0]]}, "keras_version": "2.3.1", "backend": "tensorflow"}