{"class_name": "Model", "config": {"name": "resnet152", "layers": [{"name": "input_1", "class_name": "InputLayer", "config": {"batch_input_shape": [null, 224, 224, 3], "dtype": "float32", "sparse": false, "name": "input_1"}, "inbound_nodes": []}, {"name": "conv1_pad", "class_name": "ZeroPadding2D", "config": {"name": "conv1_pad", "trainable": true, "dtype": "float32", "padding": [[3, 3], [3, 3]], "data_format": "channels_last"}, "inbound_nodes": [[["input_1", 0, 0, {}]]]}, {"name": "conv1_conv", "class_name": "Conv2D", "config": {"name": "conv1_conv", "trainable": true, "dtype": "float32", "filters": 64, "kernel_size": [7, 7], "strides": [2, 2], "padding": "valid", "data_format": "channels_last", "dilation_rate": [1, 1], "activation": "linear", "use_bias": true, "kernel_initializer": {"class_name": "VarianceScaling", "config": {"scale": 1.0, "mode": "fan_avg", "distribution": "uniform", "seed": null}}, "bias_initializer": {"class_name": "Zeros", "config": {}}, "kernel_regularizer": null, "bias_regularizer": null, "activity_regularizer": null, "kernel_constraint": null, "bias_constraint": null}, "inbound_nodes": [[["conv1_pad", 0, 0, {}]]]}, {"name": "conv1_bn", "class_name": "BatchNormalization", "config": {"name": "conv1_bn", "trainable": true, "dtype": "float32", "axis": 3, "momentum": 0.99, "epsilon": 1.001e-05, "center": true, "scale": true, "beta_initializer": {"class_name": "Zeros", "config": {}}, "gamma_initializer": {"class_name": "Ones", "config": {}}, "moving_mean_initializer": {"class_name": "Zeros", "config": {}}, "moving_variance_initializer": {"class_name": "Ones", "config": {}}, "beta_regularizer": null, "gamma_regularizer": null, "beta_constraint": null, "gamma_constraint": null}, "inbound_nodes": [[["conv1_conv", 0, 0, {}]]]}, {"name": "conv1_relu", "class_name": "Activation", "config": {"name": "conv1_relu", "trainable": true, "dtype": "float32", "activation": "relu"}, "inbound_nodes": [[["conv1_bn", 0, 0, {}]]]}, {"name": "pool1_pad", "class_name": "ZeroPadding2D", "config": {"name": "pool1_pad", "trainable": true, "dtype": "float32", "padding": [[1, 1], [1, 1]], "data_format": "channels_last"}, "inbound_nodes": [[["conv1_relu", 0, 0, {}]]]}, {"name": "pool1_pool", "class_name": "MaxPooling2D", "config": {"name": "pool1_pool", "trainable": true, "dtype": "float32", "pool_size": [3, 3], "padding": "valid", "strides": [2, 2], "data_format": "channels_last"}, "inbound_nodes": [[["pool1_pad", 0, 0, {}]]]}, {"name": "conv2_block1_1_conv", "class_name": "Conv2D", "config": {"name": "conv2_block1_1_conv", "trainable": true, "dtype": "float32", "filters": 64, "kernel_size": [1, 1], "strides": [1, 1], "padding": "valid", "data_format": "channels_last", "dilation_rate": [1, 1], "activation": "linear", "use_bias": true, "kernel_initializer": {"class_name": "VarianceScaling", "config": {"scale": 1.0, "mode": "fan_avg", "distribution": "uniform", "seed": null}}, "bias_initializer": {"class_name": "Zeros", "config": {}}, "kernel_regularizer": null, "bias_regularizer": null, "activity_regularizer": null, "kernel_constraint": null, "bias_constraint": null}, "inbound_nodes": [[["pool1_pool", 0, 0, {}]]]}, {"name": "conv2_block1_1_bn", "class_name": "BatchNormalization", "config": {"name": "conv2_block1_1_bn", "trainable": true, "dtype": "float32", "axis": 3, "momentum": 0.99, "epsilon": 1.001e-05, "center": true, "scale": true, "beta_initializer": {"class_name": "Zeros", "config": {}}, "gamma_initializer": {"class_name": "Ones", "config": {}}, "moving_mean_initializer": {"class_name": "Zeros", "config": {}}, "moving_variance_initializer": {"class_name": "Ones", "config": {}}, "beta_regularizer": null, "gamma_regularizer": null, "beta_constraint": null, "gamma_constraint": null}, "inbound_nodes": [[["conv2_block1_1_conv", 0, 0, {}]]]}, {"name": "conv2_block1_1_relu", "class_name": "Activation", "config": {"name": "conv2_block1_1_relu", "trainable": true, "dtype": "float32", "activation": "relu"}, "inbound_nodes": [[["conv2_block1_1_bn", 0, 0, {}]]]}, {"name": "conv2_block1_2_conv", "class_name": "Conv2D", "config": {"name": "conv2_block1_2_conv", "trainable": true, "dtype": "float32", "filters": 64, "kernel_size": [3, 3], "strides": [1, 1], "padding": "same", "data_format": "channels_last", "dilation_rate": [1, 1], "activation": "linear", "use_bias": true, "kernel_initializer": {"class_name": "VarianceScaling", "config": {"scale": 1.0, "mode": "fan_avg", "distribution": "uniform", "seed": null}}, "bias_initializer": {"class_name": "Zeros", "config": {}}, "kernel_regularizer": null, "bias_regularizer": null, "activity_regularizer": null, "kernel_constraint": null, "bias_constraint": null}, "inbound_nodes": [[["conv2_block1_1_relu", 0, 0, {}]]]}, {"name": "conv2_block1_2_bn", "class_name": "BatchNormalization", "config": {"name": "conv2_block1_2_bn", "trainable": true, "dtype": "float32", "axis": 3, "momentum": 0.99, "epsilon": 1.001e-05, "center": true, "scale": true, "beta_initializer": {"class_name": "Zeros", "config": {}}, "gamma_initializer": {"class_name": "Ones", "config": {}}, "moving_mean_initializer": {"class_name": "Zeros", "config": {}}, "moving_variance_initializer": {"class_name": "Ones", "config": {}}, "beta_regularizer": null, "gamma_regularizer": null, "beta_constraint": null, "gamma_constraint": null}, "inbound_nodes": [[["conv2_block1_2_conv", 0, 0, {}]]]}, {"name": "conv2_block1_2_relu", "class_name": "Activation", "config": {"name": "conv2_block1_2_relu", "trainable": true, "dtype": "float32", "activation": "relu"}, "inbound_nodes": [[["conv2_block1_2_bn", 0, 0, {}]]]}, {"name": "conv2_block1_0_conv", "class_name": "Conv2D", "config": {"name": "conv2_block1_0_conv", "trainable": true, "dtype": "float32", "filters": 256, "kernel_size": [1, 1], "strides": [1, 1], "padding": "valid", "data_format": "channels_last", "dilation_rate": [1, 1], "activation": "linear", "use_bias": true, "kernel_initializer": {"class_name": "VarianceScaling", "config": {"scale": 1.0, "mode": "fan_avg", "distribution": "uniform", "seed": null}}, "bias_initializer": {"class_name": "Zeros", "config": {}}, "kernel_regularizer": null, "bias_regularizer": null, "activity_regularizer": null, "kernel_constraint": null, "bias_constraint": null}, "inbound_nodes": [[["pool1_pool", 0, 0, {}]]]}, {"name": "conv2_block1_3_conv", "class_name": "Conv2D", "config": {"name": "conv2_block1_3_conv", "trainable": true, "dtype": "float32", "filters": 256, "kernel_size": [1, 1], "strides": [1, 1], "padding": "valid", "data_format": "channels_last", "dilation_rate": [1, 1], "activation": "linear", "use_bias": true, "kernel_initializer": {"class_name": "VarianceScaling", "config": {"scale": 1.0, "mode": "fan_avg", "distribution": "uniform", "seed": null}}, "bias_initializer": {"class_name": "Zeros", "config": {}}, "kernel_regularizer": null, "bias_regularizer": null, "activity_regularizer": null, "kernel_constraint": null, "bias_constraint": null}, "inbound_nodes": [[["conv2_block1_2_relu", 0, 0, {}]]]}, {"name": "conv2_block1_0_bn", "class_name": "BatchNormalization", "config": {"name": "conv2_block1_0_bn", "trainable": true, "dtype": "float32", "axis": 3, "momentum": 0.99, "epsilon": 1.001e-05, "center": true, "scale": true, "beta_initializer": {"class_name": "Zeros", "config": {}}, "gamma_initializer": {"class_name": "Ones", "config": {}}, "moving_mean_initializer": {"class_name": "Zeros", "config": {}}, "moving_variance_initializer": {"class_name": "Ones", "config": {}}, "beta_regularizer": null, "gamma_regularizer": null, "beta_constraint": null, "gamma_constraint": null}, "inbound_nodes": [[["conv2_block1_0_conv", 0, 0, {}]]]}, {"name": "conv2_block1_3_bn", "class_name": "BatchNormalization", "config": {"name": "conv2_block1_3_bn", "trainable": true, "dtype": "float32", "axis": 3, "momentum": 0.99, "epsilon": 1.001e-05, "center": true, "scale": true, "beta_initializer": {"class_name": "Zeros", "config": {}}, "gamma_initializer": {"class_name": "Ones", "config": {}}, "moving_mean_initializer": {"class_name": "Zeros", "config": {}}, "moving_variance_initializer": {"class_name": "Ones", "config": {}}, "beta_regularizer": null, "gamma_regularizer": null, "beta_constraint": null, "gamma_constraint": null}, "inbound_nodes": [[["conv2_block1_3_conv", 0, 0, {}]]]}, {"name": "conv2_block1_add", "class_name": "Add", "config": {"name": "conv2_block1_add", "trainable": true, "dtype": "float32"}, "inbound_nodes": [[["conv2_block1_0_bn", 0, 0, {}], ["conv2_block1_3_bn", 0, 0, {}]]]}, {"name": "conv2_block1_out", "class_name": "Activation", "config": {"name": "conv2_block1_out", "trainable": true, "dtype": "float32", "activation": "relu"}, "inbound_nodes": [[["conv2_block1_add", 0, 0, {}]]]}, {"name": "conv2_block2_1_conv", "class_name": "Conv2D", "config": {"name": "conv2_block2_1_conv", "trainable": true, "dtype": "float32", "filters": 64, "kernel_size": [1, 1], "strides": [1, 1], "padding": "valid", "data_format": "channels_last", "dilation_rate": [1, 1], "activation": "linear", "use_bias": true, "kernel_initializer": {"class_name": "VarianceScaling", "config": {"scale": 1.0, "mode": "fan_avg", "distribution": "uniform", "seed": null}}, "bias_initializer": {"class_name": "Zeros", "config": {}}, "kernel_regularizer": null, "bias_regularizer": null, "activity_regularizer": null, "kernel_constraint": null, "bias_constraint": null}, "inbound_nodes": [[["conv2_block1_out", 0, 0, {}]]]}, {"name": "conv2_block2_1_bn", "class_name": "BatchNormalization", "config": {"name": "conv2_block2_1_bn", "trainable": true, "dtype": "float32", "axis": 3, "momentum": 0.99, "epsilon": 1.001e-05, "center": true, "scale": true, "beta_initializer": {"class_name": "Zeros", "config": {}}, "gamma_initializer": {"class_name": "Ones", "config": {}}, "moving_mean_initializer": {"class_name": "Zeros", "config": {}}, "moving_variance_initializer": {"class_name": "Ones", "config": {}}, "beta_regularizer": null, "gamma_regularizer": null, "beta_constraint": null, "gamma_constraint": null}, "inbound_nodes": [[["conv2_block2_1_conv", 0, 0, {}]]]}, {"name": "conv2_block2_1_relu", "class_name": "Activation", "config": {"name": "conv2_block2_1_relu", "trainable": true, "dtype": "float32", "activation": "relu"}, "inbound_nodes": [[["conv2_block2_1_bn", 0, 0, {}]]]}, {"name": "conv2_block2_2_conv", "class_name": "Conv2D", "config": {"name": "conv2_block2_2_conv", "trainable": true, "dtype": "float32", "filters": 64, "kernel_size": [3, 3], "strides": [1, 1], "padding": "same", "data_format": "channels_last", "dilation_rate": [1, 1], "activation": "linear", "use_bias": true, "kernel_initializer": {"class_name": "VarianceScaling", "config": {"scale": 1.0, "mode": "fan_avg", "distribution": "uniform", "seed": null}}, "bias_initializer": {"class_name": "Zeros", "config": {}}, "kernel_regularizer": null, "bias_regularizer": null, "activity_regularizer": null, "kernel_constraint": null, "bias_constraint": null}, "inbound_nodes": [[["conv2_block2_1_relu", 0, 0, {}]]]}, {"name": "conv2_block2_2_bn", "class_name": "BatchNormalization", "config": {"name": "conv2_block2_2_bn", "trainable": true, "dtype": "float32", "axis": 3, "momentum": 0.99, "epsilon": 1.001e-05, "center": true, "scale": true, "beta_initializer": {"class_name": "Zeros", "config": {}}, "gamma_initializer": {"class_name": "Ones", "config": {}}, "moving_mean_initializer": {"class_name": "Zeros", "config": {}}, "moving_variance_initializer": {"class_name": "Ones", "config": {}}, "beta_regularizer": null, "gamma_regularizer": null, "beta_constraint": null, "gamma_constraint": null}, "inbound_nodes": [[["conv2_block2_2_conv", 0, 0, {}]]]}, {"name": "conv2_block2_2_relu", "class_name": "Activation", "config": {"name": "conv2_block2_2_relu", "trainable": true, "dtype": "float32", "activation": "relu"}, "inbound_nodes": [[["conv2_block2_2_bn", 0, 0, {}]]]}, {"name": "conv2_block2_3_conv", "class_name": "Conv2D", "config": {"name": "conv2_block2_3_conv", "trainable": true, "dtype": "float32", "filters": 256, "kernel_size": [1, 1], "strides": [1, 1], "padding": "valid", "data_format": "channels_last", "dilation_rate": [1, 1], "activation": "linear", "use_bias": true, "kernel_initializer": {"class_name": "VarianceScaling", "config": {"scale": 1.0, "mode": "fan_avg", "distribution": "uniform", "seed": null}}, "bias_initializer": {"class_name": "Zeros", "config": {}}, "kernel_regularizer": null, "bias_regularizer": null, "activity_regularizer": null, "kernel_constraint": null, "bias_constraint": null}, "inbound_nodes": [[["conv2_block2_2_relu", 0, 0, {}]]]}, {"name": "conv2_block2_3_bn", "class_name": "BatchNormalization", "config": {"name": "conv2_block2_3_bn", "trainable": true, "dtype": "float32", "axis": 3, "momentum": 0.99, "epsilon": 1.001e-05, "center": true, "scale": true, "beta_initializer": {"class_name": "Zeros", "config": {}}, "gamma_initializer": {"class_name": "Ones", "config": {}}, "moving_mean_initializer": {"class_name": "Zeros", "config": {}}, "moving_variance_initializer": {"class_name": "Ones", "config": {}}, "beta_regularizer": null, "gamma_regularizer": null, "beta_constraint": null, "gamma_constraint": null}, "inbound_nodes": [[["conv2_block2_3_conv", 0, 0, {}]]]}, {"name": "conv2_block2_add", "class_name": "Add", "config": {"name": "conv2_block2_add", "trainable": true, "dtype": "float32"}, "inbound_nodes": [[["conv2_block1_out", 0, 0, {}], ["conv2_block2_3_bn", 0, 0, {}]]]}, {"name": "conv2_block2_out", "class_name": "Activation", "config": {"name": "conv2_block2_out", "trainable": true, "dtype": "float32", "activation": "relu"}, "inbound_nodes": [[["conv2_block2_add", 0, 0, {}]]]}, {"name": "conv2_block3_1_conv", "class_name": "Conv2D", "config": {"name": "conv2_block3_1_conv", "trainable": true, "dtype": "float32", "filters": 64, "kernel_size": [1, 1], "strides": [1, 1], "padding": "valid", "data_format": "channels_last", "dilation_rate": [1, 1], "activation": "linear", "use_bias": true, "kernel_initializer": {"class_name": "VarianceScaling", "config": {"scale": 1.0, "mode": "fan_avg", "distribution": "uniform", "seed": null}}, "bias_initializer": {"class_name": "Zeros", "config": {}}, "kernel_regularizer": null, "bias_regularizer": null, "activity_regularizer": null, "kernel_constraint": null, "bias_constraint": null}, "inbound_nodes": [[["conv2_block2_out", 0, 0, {}]]]}, {"name": "conv2_block3_1_bn", "class_name": "BatchNormalization", "config": {"name": "conv2_block3_1_bn", "trainable": true, "dtype": "float32", "axis": 3, "momentum": 0.99, "epsilon": 1.001e-05, "center": true, "scale": true, "beta_initializer": {"class_name": "Zeros", "config": {}}, "gamma_initializer": {"class_name": "Ones", "config": {}}, "moving_mean_initializer": {"class_name": "Zeros", "config": {}}, "moving_variance_initializer": {"class_name": "Ones", "config": {}}, "beta_regularizer": null, "gamma_regularizer": null, "beta_constraint": null, "gamma_constraint": null}, "inbound_nodes": [[["conv2_block3_1_conv", 0, 0, {}]]]}, {"name": "conv2_block3_1_relu", "class_name": "Activation", "config": {"name": "conv2_block3_1_relu", "trainable": true, "dtype": "float32", "activation": "relu"}, "inbound_nodes": [[["conv2_block3_1_bn", 0, 0, {}]]]}, {"name": "conv2_block3_2_conv", "class_name": "Conv2D", "config": {"name": "conv2_block3_2_conv", "trainable": true, "dtype": "float32", "filters": 64, "kernel_size": [3, 3], "strides": [1, 1], "padding": "same", "data_format": "channels_last", "dilation_rate": [1, 1], "activation": "linear", "use_bias": true, "kernel_initializer": {"class_name": "VarianceScaling", "config": {"scale": 1.0, "mode": "fan_avg", "distribution": "uniform", "seed": null}}, "bias_initializer": {"class_name": "Zeros", "config": {}}, "kernel_regularizer": null, "bias_regularizer": null, "activity_regularizer": null, "kernel_constraint": null, "bias_constraint": null}, "inbound_nodes": [[["conv2_block3_1_relu", 0, 0, {}]]]}, {"name": "conv2_block3_2_bn", "class_name": "BatchNormalization", "config": {"name": "conv2_block3_2_bn", "trainable": true, "dtype": "float32", "axis": 3, "momentum": 0.99, "epsilon": 1.001e-05, "center": true, "scale": true, "beta_initializer": {"class_name": "Zeros", "config": {}}, "gamma_initializer": {"class_name": "Ones", "config": {}}, "moving_mean_initializer": {"class_name": "Zeros", "config": {}}, "moving_variance_initializer": {"class_name": "Ones", "config": {}}, "beta_regularizer": null, "gamma_regularizer": null, "beta_constraint": null, "gamma_constraint": null}, "inbound_nodes": [[["conv2_block3_2_conv", 0, 0, {}]]]}, {"name": "conv2_block3_2_relu", "class_name": "Activation", "config": {"name": "conv2_block3_2_relu", "trainable": true, "dtype": "float32", "activation": "relu"}, "inbound_nodes": [[["conv2_block3_2_bn", 0, 0, {}]]]}, {"name": "conv2_block3_3_conv", "class_name": "Conv2D", "config": {"name": "conv2_block3_3_conv", "trainable": true, "dtype": "float32", "filters": 256, "kernel_size": [1, 1], "strides": [1, 1], "padding": "valid", "data_format": "channels_last", "dilation_rate": [1, 1], "activation": "linear", "use_bias": true, "kernel_initializer": {"class_name": "VarianceScaling", "config": {"scale": 1.0, "mode": "fan_avg", "distribution": "uniform", "seed": null}}, "bias_initializer": {"class_name": "Zeros", "config": {}}, "kernel_regularizer": null, "bias_regularizer": null, "activity_regularizer": null, "kernel_constraint": null, "bias_constraint": null}, "inbound_nodes": [[["conv2_block3_2_relu", 0, 0, {}]]]}, {"name": "conv2_block3_3_bn", "class_name": "BatchNormalization", "config": {"name": "conv2_block3_3_bn", "trainable": true, "dtype": "float32", "axis": 3, "momentum": 0.99, "epsilon": 1.001e-05, "center": true, "scale": true, "beta_initializer": {"class_name": "Zeros", "config": {}}, "gamma_initializer": {"class_name": "Ones", "config": {}}, "moving_mean_initializer": {"class_name": "Zeros", "config": {}}, "moving_variance_initializer": {"class_name": "Ones", "config": {}}, "beta_regularizer": null, "gamma_regularizer": null, "beta_constraint": null, "gamma_constraint": null}, "inbound_nodes": [[["conv2_block3_3_conv", 0, 0, {}]]]}, {"name": "conv2_block3_add", "class_name": "Add", "config": {"name": "conv2_block3_add", "trainable": true, "dtype": "float32"}, "inbound_nodes": [[["conv2_block2_out", 0, 0, {}], ["conv2_block3_3_bn", 0, 0, {}]]]}, {"name": "conv2_block3_out", "class_name": "Activation", "config": {"name": "conv2_block3_out", "trainable": true, "dtype": "float32", "activation": "relu"}, "inbound_nodes": [[["conv2_block3_add", 0, 0, {}]]]}, {"name": "conv3_block1_1_conv", "class_name": "Conv2D", "config": {"name": "conv3_block1_1_conv", "trainable": true, "dtype": "float32", "filters": 128, "kernel_size": [1, 1], "strides": [2, 2], "padding": "valid", "data_format": "channels_last", "dilation_rate": [1, 1], "activation": "linear", "use_bias": true, "kernel_initializer": {"class_name": "VarianceScaling", "config": {"scale": 1.0, "mode": "fan_avg", "distribution": "uniform", "seed": null}}, "bias_initializer": {"class_name": "Zeros", "config": {}}, "kernel_regularizer": null, "bias_regularizer": null, "activity_regularizer": null, "kernel_constraint": null, "bias_constraint": null}, "inbound_nodes": [[["conv2_block3_out", 0, 0, {}]]]}, {"name": "conv3_block1_1_bn", "class_name": "BatchNormalization", "config": {"name": "conv3_block1_1_bn", "trainable": true, "dtype": "float32", "axis": 3, "momentum": 0.99, "epsilon": 1.001e-05, "center": true, "scale": true, "beta_initializer": {"class_name": "Zeros", "config": {}}, "gamma_initializer": {"class_name": "Ones", "config": {}}, "moving_mean_initializer": {"class_name": "Zeros", "config": {}}, "moving_variance_initializer": {"class_name": "Ones", "config": {}}, "beta_regularizer": null, "gamma_regularizer": null, "beta_constraint": null, "gamma_constraint": null}, "inbound_nodes": [[["conv3_block1_1_conv", 0, 0, {}]]]}, {"name": "conv3_block1_1_relu", "class_name": "Activation", "config": {"name": "conv3_block1_1_relu", "trainable": true, "dtype": "float32", "activation": "relu"}, "inbound_nodes": [[["conv3_block1_1_bn", 0, 0, {}]]]}, {"name": "conv3_block1_2_conv", "class_name": "Conv2D", "config": {"name": "conv3_block1_2_conv", "trainable": true, "dtype": "float32", "filters": 128, "kernel_size": [3, 3], "strides": [1, 1], "padding": "same", "data_format": "channels_last", "dilation_rate": [1, 1], "activation": "linear", "use_bias": true, "kernel_initializer": {"class_name": "VarianceScaling", "config": {"scale": 1.0, "mode": "fan_avg", "distribution": "uniform", "seed": null}}, "bias_initializer": {"class_name": "Zeros", "config": {}}, "kernel_regularizer": null, "bias_regularizer": null, "activity_regularizer": null, "kernel_constraint": null, "bias_constraint": null}, "inbound_nodes": [[["conv3_block1_1_relu", 0, 0, {}]]]}, {"name": "conv3_block1_2_bn", "class_name": "BatchNormalization", "config": {"name": "conv3_block1_2_bn", "trainable": true, "dtype": "float32", "axis": 3, "momentum": 0.99, "epsilon": 1.001e-05, "center": true, "scale": true, "beta_initializer": {"class_name": "Zeros", "config": {}}, "gamma_initializer": {"class_name": "Ones", "config": {}}, "moving_mean_initializer": {"class_name": "Zeros", "config": {}}, "moving_variance_initializer": {"class_name": "Ones", "config": {}}, "beta_regularizer": null, "gamma_regularizer": null, "beta_constraint": null, "gamma_constraint": null}, "inbound_nodes": [[["conv3_block1_2_conv", 0, 0, {}]]]}, {"name": "conv3_block1_2_relu", "class_name": "Activation", "config": {"name": "conv3_block1_2_relu", "trainable": true, "dtype": "float32", "activation": "relu"}, "inbound_nodes": [[["conv3_block1_2_bn", 0, 0, {}]]]}, {"name": "conv3_block1_0_conv", "class_name": "Conv2D", "config": {"name": "conv3_block1_0_conv", "trainable": true, "dtype": "float32", "filters": 512, "kernel_size": [1, 1], "strides": [2, 2], "padding": "valid", "data_format": "channels_last", "dilation_rate": [1, 1], "activation": "linear", "use_bias": true, "kernel_initializer": {"class_name": "VarianceScaling", "config": {"scale": 1.0, "mode": "fan_avg", "distribution": "uniform", "seed": null}}, "bias_initializer": {"class_name": "Zeros", "config": {}}, "kernel_regularizer": null, "bias_regularizer": null, "activity_regularizer": null, "kernel_constraint": null, "bias_constraint": null}, "inbound_nodes": [[["conv2_block3_out", 0, 0, {}]]]}, {"name": "conv3_block1_3_conv", "class_name": "Conv2D", "config": {"name": "conv3_block1_3_conv", "trainable": true, "dtype": "float32", "filters": 512, "kernel_size": [1, 1], "strides": [1, 1], "padding": "valid", "data_format": "channels_last", "dilation_rate": [1, 1], "activation": "linear", "use_bias": true, "kernel_initializer": {"class_name": "VarianceScaling", "config": {"scale": 1.0, "mode": "fan_avg", "distribution": "uniform", "seed": null}}, "bias_initializer": {"class_name": "Zeros", "config": {}}, "kernel_regularizer": null, "bias_regularizer": null, "activity_regularizer": null, "kernel_constraint": null, "bias_constraint": null}, "inbound_nodes": [[["conv3_block1_2_relu", 0, 0, {}]]]}, {"name": "conv3_block1_0_bn", "class_name": "BatchNormalization", "config": {"name": "conv3_block1_0_bn", "trainable": true, "dtype": "float32", "axis": 3, "momentum": 0.99, "epsilon": 1.001e-05, "center": true, "scale": true, "beta_initializer": {"class_name": "Zeros", "config": {}}, "gamma_initializer": {"class_name": "Ones", "config": {}}, "moving_mean_initializer": {"class_name": "Zeros", "config": {}}, "moving_variance_initializer": {"class_name": "Ones", "config": {}}, "beta_regularizer": null, "gamma_regularizer": null, "beta_constraint": null, "gamma_constraint": null}, "inbound_nodes": [[["conv3_block1_0_conv", 0, 0, {}]]]}, {"name": "conv3_block1_3_bn", "class_name": "BatchNormalization", "config": {"name": "conv3_block1_3_bn", "trainable": true, "dtype": "float32", "axis": 3, "momentum": 0.99, "epsilon": 1.001e-05, "center": true, "scale": true, "beta_initializer": {"class_name": "Zeros", "config": {}}, "gamma_initializer": {"class_name": "Ones", "config": {}}, "moving_mean_initializer": {"class_name": "Zeros", "config": {}}, "moving_variance_initializer": {"class_name": "Ones", "config": {}}, "beta_regularizer": null, "gamma_regularizer": null, "beta_constraint": null, "gamma_constraint": null}, "inbound_nodes": [[["conv3_block1_3_conv", 0, 0, {}]]]}, {"name": "conv3_block1_add", "class_name": "Add", "config": {"name": "conv3_block1_add", "trainable": true, "dtype": "float32"}, "inbound_nodes": [[["conv3_block1_0_bn", 0, 0, {}], ["conv3_block1_3_bn", 0, 0, {}]]]}, {"name": "conv3_block1_out", "class_name": "Activation", "config": {"name": "conv3_block1_out", "trainable": true, "dtype": "float32", "activation": "relu"}, "inbound_nodes": [[["conv3_block1_add", 0, 0, {}]]]}, {"name": "conv3_block2_1_conv", "class_name": "Conv2D", "config": {"name": "conv3_block2_1_conv", "trainable": true, "dtype": "float32", "filters": 128, "kernel_size": [1, 1], "strides": [1, 1], "padding": "valid", "data_format": "channels_last", "dilation_rate": [1, 1], "activation": "linear", "use_bias": true, "kernel_initializer": {"class_name": "VarianceScaling", "config": {"scale": 1.0, "mode": "fan_avg", "distribution": "uniform", "seed": null}}, "bias_initializer": {"class_name": "Zeros", "config": {}}, "kernel_regularizer": null, "bias_regularizer": null, "activity_regularizer": null, "kernel_constraint": null, "bias_constraint": null}, "inbound_nodes": [[["conv3_block1_out", 0, 0, {}]]]}, {"name": "conv3_block2_1_bn", "class_name": "BatchNormalization", "config": {"name": "conv3_block2_1_bn", "trainable": true, "dtype": "float32", "axis": 3, "momentum": 0.99, "epsilon": 1.001e-05, "center": true, "scale": true, "beta_initializer": {"class_name": "Zeros", "config": {}}, "gamma_initializer": {"class_name": "Ones", "config": {}}, "moving_mean_initializer": {"class_name": "Zeros", "config": {}}, "moving_variance_initializer": {"class_name": "Ones", "config": {}}, "beta_regularizer": null, "gamma_regularizer": null, "beta_constraint": null, "gamma_constraint": null}, "inbound_nodes": [[["conv3_block2_1_conv", 0, 0, {}]]]}, {"name": "conv3_block2_1_relu", "class_name": "Activation", "config": {"name": "conv3_block2_1_relu", "trainable": true, "dtype": "float32", "activation": "relu"}, "inbound_nodes": [[["conv3_block2_1_bn", 0, 0, {}]]]}, {"name": "conv3_block2_2_conv", "class_name": "Conv2D", "config": {"name": "conv3_block2_2_conv", "trainable": true, "dtype": "float32", "filters": 128, "kernel_size": [3, 3], "strides": [1, 1], "padding": "same", "data_format": "channels_last", "dilation_rate": [1, 1], "activation": "linear", "use_bias": true, "kernel_initializer": {"class_name": "VarianceScaling", "config": {"scale": 1.0, "mode": "fan_avg", "distribution": "uniform", "seed": null}}, "bias_initializer": {"class_name": "Zeros", "config": {}}, "kernel_regularizer": null, "bias_regularizer": null, "activity_regularizer": null, "kernel_constraint": null, "bias_constraint": null}, "inbound_nodes": [[["conv3_block2_1_relu", 0, 0, {}]]]}, {"name": "conv3_block2_2_bn", "class_name": "BatchNormalization", "config": {"name": "conv3_block2_2_bn", "trainable": true, "dtype": "float32", "axis": 3, "momentum": 0.99, "epsilon": 1.001e-05, "center": true, "scale": true, "beta_initializer": {"class_name": "Zeros", "config": {}}, "gamma_initializer": {"class_name": "Ones", "config": {}}, "moving_mean_initializer": {"class_name": "Zeros", "config": {}}, "moving_variance_initializer": {"class_name": "Ones", "config": {}}, "beta_regularizer": null, "gamma_regularizer": null, "beta_constraint": null, "gamma_constraint": null}, "inbound_nodes": [[["conv3_block2_2_conv", 0, 0, {}]]]}, {"name": "conv3_block2_2_relu", "class_name": "Activation", "config": {"name": "conv3_block2_2_relu", "trainable": true, "dtype": "float32", "activation": "relu"}, "inbound_nodes": [[["conv3_block2_2_bn", 0, 0, {}]]]}, {"name": "conv3_block2_3_conv", "class_name": "Conv2D", "config": {"name": "conv3_block2_3_conv", "trainable": true, "dtype": "float32", "filters": 512, "kernel_size": [1, 1], "strides": [1, 1], "padding": "valid", "data_format": "channels_last", "dilation_rate": [1, 1], "activation": "linear", "use_bias": true, "kernel_initializer": {"class_name": "VarianceScaling", "config": {"scale": 1.0, "mode": "fan_avg", "distribution": "uniform", "seed": null}}, "bias_initializer": {"class_name": "Zeros", "config": {}}, "kernel_regularizer": null, "bias_regularizer": null, "activity_regularizer": null, "kernel_constraint": null, "bias_constraint": null}, "inbound_nodes": [[["conv3_block2_2_relu", 0, 0, {}]]]}, {"name": "conv3_block2_3_bn", "class_name": "BatchNormalization", "config": {"name": "conv3_block2_3_bn", "trainable": true, "dtype": "float32", "axis": 3, "momentum": 0.99, "epsilon": 1.001e-05, "center": true, "scale": true, "beta_initializer": {"class_name": "Zeros", "config": {}}, "gamma_initializer": {"class_name": "Ones", "config": {}}, "moving_mean_initializer": {"class_name": "Zeros", "config": {}}, "moving_variance_initializer": {"class_name": "Ones", "config": {}}, "beta_regularizer": null, "gamma_regularizer": null, "beta_constraint": null, "gamma_constraint": null}, "inbound_nodes": [[["conv3_block2_3_conv", 0, 0, {}]]]}, {"name": "conv3_block2_add", "class_name": "Add", "config": {"name": "conv3_block2_add", "trainable": true, "dtype": "float32"}, "inbound_nodes": [[["conv3_block1_out", 0, 0, {}], ["conv3_block2_3_bn", 0, 0, {}]]]}, {"name": "conv3_block2_out", "class_name": "Activation", "config": {"name": "conv3_block2_out", "trainable": true, "dtype": "float32", "activation": "relu"}, "inbound_nodes": [[["conv3_block2_add", 0, 0, {}]]]}, {"name": "conv3_block3_1_conv", "class_name": "Conv2D", "config": {"name": "conv3_block3_1_conv", "trainable": true, "dtype": "float32", "filters": 128, "kernel_size": [1, 1], "strides": [1, 1], "padding": "valid", "data_format": "channels_last", "dilation_rate": [1, 1], "activation": "linear", "use_bias": true, "kernel_initializer": {"class_name": "VarianceScaling", "config": {"scale": 1.0, "mode": "fan_avg", "distribution": "uniform", "seed": null}}, "bias_initializer": {"class_name": "Zeros", "config": {}}, "kernel_regularizer": null, "bias_regularizer": null, "activity_regularizer": null, "kernel_constraint": null, "bias_constraint": null}, "inbound_nodes": [[["conv3_block2_out", 0, 0, {}]]]}, {"name": "conv3_block3_1_bn", "class_name": "BatchNormalization", "config": {"name": "conv3_block3_1_bn", "trainable": true, "dtype": "float32", "axis": 3, "momentum": 0.99, "epsilon": 1.001e-05, "center": true, "scale": true, "beta_initializer": {"class_name": "Zeros", "config": {}}, "gamma_initializer": {"class_name": "Ones", "config": {}}, "moving_mean_initializer": {"class_name": "Zeros", "config": {}}, "moving_variance_initializer": {"class_name": "Ones", "config": {}}, "beta_regularizer": null, "gamma_regularizer": null, "beta_constraint": null, "gamma_constraint": null}, "inbound_nodes": [[["conv3_block3_1_conv", 0, 0, {}]]]}, {"name": "conv3_block3_1_relu", "class_name": "Activation", "config": {"name": "conv3_block3_1_relu", "trainable": true, "dtype": "float32", "activation": "relu"}, "inbound_nodes": [[["conv3_block3_1_bn", 0, 0, {}]]]}, {"name": "conv3_block3_2_conv", "class_name": "Conv2D", "config": {"name": "conv3_block3_2_conv", "trainable": true, "dtype": "float32", "filters": 128, "kernel_size": [3, 3], "strides": [1, 1], "padding": "same", "data_format": "channels_last", "dilation_rate": [1, 1], "activation": "linear", "use_bias": true, "kernel_initializer": {"class_name": "VarianceScaling", "config": {"scale": 1.0, "mode": "fan_avg", "distribution": "uniform", "seed": null}}, "bias_initializer": {"class_name": "Zeros", "config": {}}, "kernel_regularizer": null, "bias_regularizer": null, "activity_regularizer": null, "kernel_constraint": null, "bias_constraint": null}, "inbound_nodes": [[["conv3_block3_1_relu", 0, 0, {}]]]}, {"name": "conv3_block3_2_bn", "class_name": "BatchNormalization", "config": {"name": "conv3_block3_2_bn", "trainable": true, "dtype": "float32", "axis": 3, "momentum": 0.99, "epsilon": 1.001e-05, "center": true, "scale": true, "beta_initializer": {"class_name": "Zeros", "config": {}}, "gamma_initializer": {"class_name": "Ones", "config": {}}, "moving_mean_initializer": {"class_name": "Zeros", "config": {}}, "moving_variance_initializer": {"class_name": "Ones", "config": {}}, "beta_regularizer": null, "gamma_regularizer": null, "beta_constraint": null, "gamma_constraint": null}, "inbound_nodes": [[["conv3_block3_2_conv", 0, 0, {}]]]}, {"name": "conv3_block3_2_relu", "class_name": "Activation", "config": {"name": "conv3_block3_2_relu", "trainable": true, "dtype": "float32", "activation": "relu"}, "inbound_nodes": [[["conv3_block3_2_bn", 0, 0, {}]]]}, {"name": "conv3_block3_3_conv", "class_name": "Conv2D", "config": {"name": "conv3_block3_3_conv", "trainable": true, "dtype": "float32", "filters": 512, "kernel_size": [1, 1], "strides": [1, 1], "padding": "valid", "data_format": "channels_last", "dilation_rate": [1, 1], "activation": "linear", "use_bias": true, "kernel_initializer": {"class_name": "VarianceScaling", "config": {"scale": 1.0, "mode": "fan_avg", "distribution": "uniform", "seed": null}}, "bias_initializer": {"class_name": "Zeros", "config": {}}, "kernel_regularizer": null, "bias_regularizer": null, "activity_regularizer": null, "kernel_constraint": null, "bias_constraint": null}, "inbound_nodes": [[["conv3_block3_2_relu", 0, 0, {}]]]}, {"name": "conv3_block3_3_bn", "class_name": "BatchNormalization", "config": {"name": "conv3_block3_3_bn", "trainable": true, "dtype": "float32", "axis": 3, "momentum": 0.99, "epsilon": 1.001e-05, "center": true, "scale": true, "beta_initializer": {"class_name": "Zeros", "config": {}}, "gamma_initializer": {"class_name": "Ones", "config": {}}, "moving_mean_initializer": {"class_name": "Zeros", "config": {}}, "moving_variance_initializer": {"class_name": "Ones", "config": {}}, "beta_regularizer": null, "gamma_regularizer": null, "beta_constraint": null, "gamma_constraint": null}, "inbound_nodes": [[["conv3_block3_3_conv", 0, 0, {}]]]}, {"name": "conv3_block3_add", "class_name": "Add", "config": {"name": "conv3_block3_add", "trainable": true, "dtype": "float32"}, "inbound_nodes": [[["conv3_block2_out", 0, 0, {}], ["conv3_block3_3_bn", 0, 0, {}]]]}, {"name": "conv3_block3_out", "class_name": "Activation", "config": {"name": "conv3_block3_out", "trainable": true, "dtype": "float32", "activation": "relu"}, "inbound_nodes": [[["conv3_block3_add", 0, 0, {}]]]}, {"name": "conv3_block4_1_conv", "class_name": "Conv2D", "config": {"name": "conv3_block4_1_conv", "trainable": true, "dtype": "float32", "filters": 128, "kernel_size": [1, 1], "strides": [1, 1], "padding": "valid", "data_format": "channels_last", "dilation_rate": [1, 1], "activation": "linear", "use_bias": true, "kernel_initializer": {"class_name": "VarianceScaling", "config": {"scale": 1.0, "mode": "fan_avg", "distribution": "uniform", "seed": null}}, "bias_initializer": {"class_name": "Zeros", "config": {}}, "kernel_regularizer": null, "bias_regularizer": null, "activity_regularizer": null, "kernel_constraint": null, "bias_constraint": null}, "inbound_nodes": [[["conv3_block3_out", 0, 0, {}]]]}, {"name": "conv3_block4_1_bn", "class_name": "BatchNormalization", "config": {"name": "conv3_block4_1_bn", "trainable": true, "dtype": "float32", "axis": 3, "momentum": 0.99, "epsilon": 1.001e-05, "center": true, "scale": true, "beta_initializer": {"class_name": "Zeros", "config": {}}, "gamma_initializer": {"class_name": "Ones", "config": {}}, "moving_mean_initializer": {"class_name": "Zeros", "config": {}}, "moving_variance_initializer": {"class_name": "Ones", "config": {}}, "beta_regularizer": null, "gamma_regularizer": null, "beta_constraint": null, "gamma_constraint": null}, "inbound_nodes": [[["conv3_block4_1_conv", 0, 0, {}]]]}, {"name": "conv3_block4_1_relu", "class_name": "Activation", "config": {"name": "conv3_block4_1_relu", "trainable": true, "dtype": "float32", "activation": "relu"}, "inbound_nodes": [[["conv3_block4_1_bn", 0, 0, {}]]]}, {"name": "conv3_block4_2_conv", "class_name": "Conv2D", "config": {"name": "conv3_block4_2_conv", "trainable": true, "dtype": "float32", "filters": 128, "kernel_size": [3, 3], "strides": [1, 1], "padding": "same", "data_format": "channels_last", "dilation_rate": [1, 1], "activation": "linear", "use_bias": true, "kernel_initializer": {"class_name": "VarianceScaling", "config": {"scale": 1.0, "mode": "fan_avg", "distribution": "uniform", "seed": null}}, "bias_initializer": {"class_name": "Zeros", "config": {}}, "kernel_regularizer": null, "bias_regularizer": null, "activity_regularizer": null, "kernel_constraint": null, "bias_constraint": null}, "inbound_nodes": [[["conv3_block4_1_relu", 0, 0, {}]]]}, {"name": "conv3_block4_2_bn", "class_name": "BatchNormalization", "config": {"name": "conv3_block4_2_bn", "trainable": true, "dtype": "float32", "axis": 3, "momentum": 0.99, "epsilon": 1.001e-05, "center": true, "scale": true, "beta_initializer": {"class_name": "Zeros", "config": {}}, "gamma_initializer": {"class_name": "Ones", "config": {}}, "moving_mean_initializer": {"class_name": "Zeros", "config": {}}, "moving_variance_initializer": {"class_name": "Ones", "config": {}}, "beta_regularizer": null, "gamma_regularizer": null, "beta_constraint": null, "gamma_constraint": null}, "inbound_nodes": [[["conv3_block4_2_conv", 0, 0, {}]]]}, {"name": "conv3_block4_2_relu", "class_name": "Activation", "config": {"name": "conv3_block4_2_relu", "trainable": true, "dtype": "float32", "activation": "relu"}, "inbound_nodes": [[["conv3_block4_2_bn", 0, 0, {}]]]}, {"name": "conv3_block4_3_conv", "class_name": "Conv2D", "config": {"name": "conv3_block4_3_conv", "trainable": true, "dtype": "float32", "filters": 512, "kernel_size": [1, 1], "strides": [1, 1], "padding": "valid", "data_format": "channels_last", "dilation_rate": [1, 1], "activation": "linear", "use_bias": true, "kernel_initializer": {"class_name": "VarianceScaling", "config": {"scale": 1.0, "mode": "fan_avg", "distribution": "uniform", "seed": null}}, "bias_initializer": {"class_name": "Zeros", "config": {}}, "kernel_regularizer": null, "bias_regularizer": null, "activity_regularizer": null, "kernel_constraint": null, "bias_constraint": null}, "inbound_nodes": [[["conv3_block4_2_relu", 0, 0, {}]]]}, {"name": "conv3_block4_3_bn", "class_name": "BatchNormalization", "config": {"name": "conv3_block4_3_bn", "trainable": true, "dtype": "float32", "axis": 3, "momentum": 0.99, "epsilon": 1.001e-05, "center": true, "scale": true, "beta_initializer": {"class_name": "Zeros", "config": {}}, "gamma_initializer": {"class_name": "Ones", "config": {}}, "moving_mean_initializer": {"class_name": "Zeros", "config": {}}, "moving_variance_initializer": {"class_name": "Ones", "config": {}}, "beta_regularizer": null, "gamma_regularizer": null, "beta_constraint": null, "gamma_constraint": null}, "inbound_nodes": [[["conv3_block4_3_conv", 0, 0, {}]]]}, {"name": "conv3_block4_add", "class_name": "Add", "config": {"name": "conv3_block4_add", "trainable": true, "dtype": "float32"}, "inbound_nodes": [[["conv3_block3_out", 0, 0, {}], ["conv3_block4_3_bn", 0, 0, {}]]]}, {"name": "conv3_block4_out", "class_name": "Activation", "config": {"name": "conv3_block4_out", "trainable": true, "dtype": "float32", "activation": "relu"}, "inbound_nodes": [[["conv3_block4_add", 0, 0, {}]]]}, {"name": "conv3_block5_1_conv", "class_name": "Conv2D", "config": {"name": "conv3_block5_1_conv", "trainable": true, "dtype": "float32", "filters": 128, "kernel_size": [1, 1], "strides": [1, 1], "padding": "valid", "data_format": "channels_last", "dilation_rate": [1, 1], "activation": "linear", "use_bias": true, "kernel_initializer": {"class_name": "VarianceScaling", "config": {"scale": 1.0, "mode": "fan_avg", "distribution": "uniform", "seed": null}}, "bias_initializer": {"class_name": "Zeros", "config": {}}, "kernel_regularizer": null, "bias_regularizer": null, "activity_regularizer": null, "kernel_constraint": null, "bias_constraint": null}, "inbound_nodes": [[["conv3_block4_out", 0, 0, {}]]]}, {"name": "conv3_block5_1_bn", "class_name": "BatchNormalization", "config": {"name": "conv3_block5_1_bn", "trainable": true, "dtype": "float32", "axis": 3, "momentum": 0.99, "epsilon": 1.001e-05, "center": true, "scale": true, "beta_initializer": {"class_name": "Zeros", "config": {}}, "gamma_initializer": {"class_name": "Ones", "config": {}}, "moving_mean_initializer": {"class_name": "Zeros", "config": {}}, "moving_variance_initializer": {"class_name": "Ones", "config": {}}, "beta_regularizer": null, "gamma_regularizer": null, "beta_constraint": null, "gamma_constraint": null}, "inbound_nodes": [[["conv3_block5_1_conv", 0, 0, {}]]]}, {"name": "conv3_block5_1_relu", "class_name": "Activation", "config": {"name": "conv3_block5_1_relu", "trainable": true, "dtype": "float32", "activation": "relu"}, "inbound_nodes": [[["conv3_block5_1_bn", 0, 0, {}]]]}, {"name": "conv3_block5_2_conv", "class_name": "Conv2D", "config": {"name": "conv3_block5_2_conv", "trainable": true, "dtype": "float32", "filters": 128, "kernel_size": [3, 3], "strides": [1, 1], "padding": "same", "data_format": "channels_last", "dilation_rate": [1, 1], "activation": "linear", "use_bias": true, "kernel_initializer": {"class_name": "VarianceScaling", "config": {"scale": 1.0, "mode": "fan_avg", "distribution": "uniform", "seed": null}}, "bias_initializer": {"class_name": "Zeros", "config": {}}, "kernel_regularizer": null, "bias_regularizer": null, "activity_regularizer": null, "kernel_constraint": null, "bias_constraint": null}, "inbound_nodes": [[["conv3_block5_1_relu", 0, 0, {}]]]}, {"name": "conv3_block5_2_bn", "class_name": "BatchNormalization", "config": {"name": "conv3_block5_2_bn", "trainable": true, "dtype": "float32", "axis": 3, "momentum": 0.99, "epsilon": 1.001e-05, "center": true, "scale": true, "beta_initializer": {"class_name": "Zeros", "config": {}}, "gamma_initializer": {"class_name": "Ones", "config": {}}, "moving_mean_initializer": {"class_name": "Zeros", "config": {}}, "moving_variance_initializer": {"class_name": "Ones", "config": {}}, "beta_regularizer": null, "gamma_regularizer": null, "beta_constraint": null, "gamma_constraint": null}, "inbound_nodes": [[["conv3_block5_2_conv", 0, 0, {}]]]}, {"name": "conv3_block5_2_relu", "class_name": "Activation", "config": {"name": "conv3_block5_2_relu", "trainable": true, "dtype": "float32", "activation": "relu"}, "inbound_nodes": [[["conv3_block5_2_bn", 0, 0, {}]]]}, {"name": "conv3_block5_3_conv", "class_name": "Conv2D", "config": {"name": "conv3_block5_3_conv", "trainable": true, "dtype": "float32", "filters": 512, "kernel_size": [1, 1], "strides": [1, 1], "padding": "valid", "data_format": "channels_last", "dilation_rate": [1, 1], "activation": "linear", "use_bias": true, "kernel_initializer": {"class_name": "VarianceScaling", "config": {"scale": 1.0, "mode": "fan_avg", "distribution": "uniform", "seed": null}}, "bias_initializer": {"class_name": "Zeros", "config": {}}, "kernel_regularizer": null, "bias_regularizer": null, "activity_regularizer": null, "kernel_constraint": null, "bias_constraint": null}, "inbound_nodes": [[["conv3_block5_2_relu", 0, 0, {}]]]}, {"name": "conv3_block5_3_bn", "class_name": "BatchNormalization", "config": {"name": "conv3_block5_3_bn", "trainable": true, "dtype": "float32", "axis": 3, "momentum": 0.99, "epsilon": 1.001e-05, "center": true, "scale": true, "beta_initializer": {"class_name": "Zeros", "config": {}}, "gamma_initializer": {"class_name": "Ones", "config": {}}, "moving_mean_initializer": {"class_name": "Zeros", "config": {}}, "moving_variance_initializer": {"class_name": "Ones", "config": {}}, "beta_regularizer": null, "gamma_regularizer": null, "beta_constraint": null, "gamma_constraint": null}, "inbound_nodes": [[["conv3_block5_3_conv", 0, 0, {}]]]}, {"name": "conv3_block5_add", "class_name": "Add", "config": {"name": "conv3_block5_add", "trainable": true, "dtype": "float32"}, "inbound_nodes": [[["conv3_block4_out", 0, 0, {}], ["conv3_block5_3_bn", 0, 0, {}]]]}, {"name": "conv3_block5_out", "class_name": "Activation", "config": {"name": "conv3_block5_out", "trainable": true, "dtype": "float32", "activation": "relu"}, "inbound_nodes": [[["conv3_block5_add", 0, 0, {}]]]}, {"name": "conv3_block6_1_conv", "class_name": "Conv2D", "config": {"name": "conv3_block6_1_conv", "trainable": true, "dtype": "float32", "filters": 128, "kernel_size": [1, 1], "strides": [1, 1], "padding": "valid", "data_format": "channels_last", "dilation_rate": [1, 1], "activation": "linear", "use_bias": true, "kernel_initializer": {"class_name": "VarianceScaling", "config": {"scale": 1.0, "mode": "fan_avg", "distribution": "uniform", "seed": null}}, "bias_initializer": {"class_name": "Zeros", "config": {}}, "kernel_regularizer": null, "bias_regularizer": null, "activity_regularizer": null, "kernel_constraint": null, "bias_constraint": null}, "inbound_nodes": [[["conv3_block5_out", 0, 0, {}]]]}, {"name": "conv3_block6_1_bn", "class_name": "BatchNormalization", "config": {"name": "conv3_block6_1_bn", "trainable": true, "dtype": "float32", "axis": 3, "momentum": 0.99, "epsilon": 1.001e-05, "center": true, "scale": true, "beta_initializer": {"class_name": "Zeros", "config": {}}, "gamma_initializer": {"class_name": "Ones", "config": {}}, "moving_mean_initializer": {"class_name": "Zeros", "config": {}}, "moving_variance_initializer": {"class_name": "Ones", "config": {}}, "beta_regularizer": null, "gamma_regularizer": null, "beta_constraint": null, "gamma_constraint": null}, "inbound_nodes": [[["conv3_block6_1_conv", 0, 0, {}]]]}, {"name": "conv3_block6_1_relu", "class_name": "Activation", "config": {"name": "conv3_block6_1_relu", "trainable": true, "dtype": "float32", "activation": "relu"}, "inbound_nodes": [[["conv3_block6_1_bn", 0, 0, {}]]]}, {"name": "conv3_block6_2_conv", "class_name": "Conv2D", "config": {"name": "conv3_block6_2_conv", "trainable": true, "dtype": "float32", "filters": 128, "kernel_size": [3, 3], "strides": [1, 1], "padding": "same", "data_format": "channels_last", "dilation_rate": [1, 1], "activation": "linear", "use_bias": true, "kernel_initializer": {"class_name": "VarianceScaling", "config": {"scale": 1.0, "mode": "fan_avg", "distribution": "uniform", "seed": null}}, "bias_initializer": {"class_name": "Zeros", "config": {}}, "kernel_regularizer": null, "bias_regularizer": null, "activity_regularizer": null, "kernel_constraint": null, "bias_constraint": null}, "inbound_nodes": [[["conv3_block6_1_relu", 0, 0, {}]]]}, {"name": "conv3_block6_2_bn", "class_name": "BatchNormalization", "config": {"name": "conv3_block6_2_bn", "trainable": true, "dtype": "float32", "axis": 3, "momentum": 0.99, "epsilon": 1.001e-05, "center": true, "scale": true, "beta_initializer": {"class_name": "Zeros", "config": {}}, "gamma_initializer": {"class_name": "Ones", "config": {}}, "moving_mean_initializer": {"class_name": "Zeros", "config": {}}, "moving_variance_initializer": {"class_name": "Ones", "config": {}}, "beta_regularizer": null, "gamma_regularizer": null, "beta_constraint": null, "gamma_constraint": null}, "inbound_nodes": [[["conv3_block6_2_conv", 0, 0, {}]]]}, {"name": "conv3_block6_2_relu", "class_name": "Activation", "config": {"name": "conv3_block6_2_relu", "trainable": true, "dtype": "float32", "activation": "relu"}, "inbound_nodes": [[["conv3_block6_2_bn", 0, 0, {}]]]}, {"name": "conv3_block6_3_conv", "class_name": "Conv2D", "config": {"name": "conv3_block6_3_conv", "trainable": true, "dtype": "float32", "filters": 512, "kernel_size": [1, 1], "strides": [1, 1], "padding": "valid", "data_format": "channels_last", "dilation_rate": [1, 1], "activation": "linear", "use_bias": true, "kernel_initializer": {"class_name": "VarianceScaling", "config": {"scale": 1.0, "mode": "fan_avg", "distribution": "uniform", "seed": null}}, "bias_initializer": {"class_name": "Zeros", "config": {}}, "kernel_regularizer": null, "bias_regularizer": null, "activity_regularizer": null, "kernel_constraint": null, "bias_constraint": null}, "inbound_nodes": [[["conv3_block6_2_relu", 0, 0, {}]]]}, {"name": "conv3_block6_3_bn", "class_name": "BatchNormalization", "config": {"name": "conv3_block6_3_bn", "trainable": true, "dtype": "float32", "axis": 3, "momentum": 0.99, "epsilon": 1.001e-05, "center": true, "scale": true, "beta_initializer": {"class_name": "Zeros", "config": {}}, "gamma_initializer": {"class_name": "Ones", "config": {}}, "moving_mean_initializer": {"class_name": "Zeros", "config": {}}, "moving_variance_initializer": {"class_name": "Ones", "config": {}}, "beta_regularizer": null, "gamma_regularizer": null, "beta_constraint": null, "gamma_constraint": null}, "inbound_nodes": [[["conv3_block6_3_conv", 0, 0, {}]]]}, {"name": "conv3_block6_add", "class_name": "Add", "config": {"name": "conv3_block6_add", "trainable": true, "dtype": "float32"}, "inbound_nodes": [[["conv3_block5_out", 0, 0, {}], ["conv3_block6_3_bn", 0, 0, {}]]]}, {"name": "conv3_block6_out", "class_name": "Activation", "config": {"name": "conv3_block6_out", "trainable": true, "dtype": "float32", "activation": "relu"}, "inbound_nodes": [[["conv3_block6_add", 0, 0, {}]]]}, {"name": "conv3_block7_1_conv", "class_name": "Conv2D", "config": {"name": "conv3_block7_1_conv", "trainable": true, "dtype": "float32", "filters": 128, "kernel_size": [1, 1], "strides": [1, 1], "padding": "valid", "data_format": "channels_last", "dilation_rate": [1, 1], "activation": "linear", "use_bias": true, "kernel_initializer": {"class_name": "VarianceScaling", "config": {"scale": 1.0, "mode": "fan_avg", "distribution": "uniform", "seed": null}}, "bias_initializer": {"class_name": "Zeros", "config": {}}, "kernel_regularizer": null, "bias_regularizer": null, "activity_regularizer": null, "kernel_constraint": null, "bias_constraint": null}, "inbound_nodes": [[["conv3_block6_out", 0, 0, {}]]]}, {"name": "conv3_block7_1_bn", "class_name": "BatchNormalization", "config": {"name": "conv3_block7_1_bn", "trainable": true, "dtype": "float32", "axis": 3, "momentum": 0.99, "epsilon": 1.001e-05, "center": true, "scale": true, "beta_initializer": {"class_name": "Zeros", "config": {}}, "gamma_initializer": {"class_name": "Ones", "config": {}}, "moving_mean_initializer": {"class_name": "Zeros", "config": {}}, "moving_variance_initializer": {"class_name": "Ones", "config": {}}, "beta_regularizer": null, "gamma_regularizer": null, "beta_constraint": null, "gamma_constraint": null}, "inbound_nodes": [[["conv3_block7_1_conv", 0, 0, {}]]]}, {"name": "conv3_block7_1_relu", "class_name": "Activation", "config": {"name": "conv3_block7_1_relu", "trainable": true, "dtype": "float32", "activation": "relu"}, "inbound_nodes": [[["conv3_block7_1_bn", 0, 0, {}]]]}, {"name": "conv3_block7_2_conv", "class_name": "Conv2D", "config": {"name": "conv3_block7_2_conv", "trainable": true, "dtype": "float32", "filters": 128, "kernel_size": [3, 3], "strides": [1, 1], "padding": "same", "data_format": "channels_last", "dilation_rate": [1, 1], "activation": "linear", "use_bias": true, "kernel_initializer": {"class_name": "VarianceScaling", "config": {"scale": 1.0, "mode": "fan_avg", "distribution": "uniform", "seed": null}}, "bias_initializer": {"class_name": "Zeros", "config": {}}, "kernel_regularizer": null, "bias_regularizer": null, "activity_regularizer": null, "kernel_constraint": null, "bias_constraint": null}, "inbound_nodes": [[["conv3_block7_1_relu", 0, 0, {}]]]}, {"name": "conv3_block7_2_bn", "class_name": "BatchNormalization", "config": {"name": "conv3_block7_2_bn", "trainable": true, "dtype": "float32", "axis": 3, "momentum": 0.99, "epsilon": 1.001e-05, "center": true, "scale": true, "beta_initializer": {"class_name": "Zeros", "config": {}}, "gamma_initializer": {"class_name": "Ones", "config": {}}, "moving_mean_initializer": {"class_name": "Zeros", "config": {}}, "moving_variance_initializer": {"class_name": "Ones", "config": {}}, "beta_regularizer": null, "gamma_regularizer": null, "beta_constraint": null, "gamma_constraint": null}, "inbound_nodes": [[["conv3_block7_2_conv", 0, 0, {}]]]}, {"name": "conv3_block7_2_relu", "class_name": "Activation", "config": {"name": "conv3_block7_2_relu", "trainable": true, "dtype": "float32", "activation": "relu"}, "inbound_nodes": [[["conv3_block7_2_bn", 0, 0, {}]]]}, {"name": "conv3_block7_3_conv", "class_name": "Conv2D", "config": {"name": "conv3_block7_3_conv", "trainable": true, "dtype": "float32", "filters": 512, "kernel_size": [1, 1], "strides": [1, 1], "padding": "valid", "data_format": "channels_last", "dilation_rate": [1, 1], "activation": "linear", "use_bias": true, "kernel_initializer": {"class_name": "VarianceScaling", "config": {"scale": 1.0, "mode": "fan_avg", "distribution": "uniform", "seed": null}}, "bias_initializer": {"class_name": "Zeros", "config": {}}, "kernel_regularizer": null, "bias_regularizer": null, "activity_regularizer": null, "kernel_constraint": null, "bias_constraint": null}, "inbound_nodes": [[["conv3_block7_2_relu", 0, 0, {}]]]}, {"name": "conv3_block7_3_bn", "class_name": "BatchNormalization", "config": {"name": "conv3_block7_3_bn", "trainable": true, "dtype": "float32", "axis": 3, "momentum": 0.99, "epsilon": 1.001e-05, "center": true, "scale": true, "beta_initializer": {"class_name": "Zeros", "config": {}}, "gamma_initializer": {"class_name": "Ones", "config": {}}, "moving_mean_initializer": {"class_name": "Zeros", "config": {}}, "moving_variance_initializer": {"class_name": "Ones", "config": {}}, "beta_regularizer": null, "gamma_regularizer": null, "beta_constraint": null, "gamma_constraint": null}, "inbound_nodes": [[["conv3_block7_3_conv", 0, 0, {}]]]}, {"name": "conv3_block7_add", "class_name": "Add", "config": {"name": "conv3_block7_add", "trainable": true, "dtype": "float32"}, "inbound_nodes": [[["conv3_block6_out", 0, 0, {}], ["conv3_block7_3_bn", 0, 0, {}]]]}, {"name": "conv3_block7_out", "class_name": "Activation", "config": {"name": "conv3_block7_out", "trainable": true, "dtype": "float32", "activation": "relu"}, "inbound_nodes": [[["conv3_block7_add", 0, 0, {}]]]}, {"name": "conv3_block8_1_conv", "class_name": "Conv2D", "config": {"name": "conv3_block8_1_conv", "trainable": true, "dtype": "float32", "filters": 128, "kernel_size": [1, 1], "strides": [1, 1], "padding": "valid", "data_format": "channels_last", "dilation_rate": [1, 1], "activation": "linear", "use_bias": true, "kernel_initializer": {"class_name": "VarianceScaling", "config": {"scale": 1.0, "mode": "fan_avg", "distribution": "uniform", "seed": null}}, "bias_initializer": {"class_name": "Zeros", "config": {}}, "kernel_regularizer": null, "bias_regularizer": null, "activity_regularizer": null, "kernel_constraint": null, "bias_constraint": null}, "inbound_nodes": [[["conv3_block7_out", 0, 0, {}]]]}, {"name": "conv3_block8_1_bn", "class_name": "BatchNormalization", "config": {"name": "conv3_block8_1_bn", "trainable": true, "dtype": "float32", "axis": 3, "momentum": 0.99, "epsilon": 1.001e-05, "center": true, "scale": true, "beta_initializer": {"class_name": "Zeros", "config": {}}, "gamma_initializer": {"class_name": "Ones", "config": {}}, "moving_mean_initializer": {"class_name": "Zeros", "config": {}}, "moving_variance_initializer": {"class_name": "Ones", "config": {}}, "beta_regularizer": null, "gamma_regularizer": null, "beta_constraint": null, "gamma_constraint": null}, "inbound_nodes": [[["conv3_block8_1_conv", 0, 0, {}]]]}, {"name": "conv3_block8_1_relu", "class_name": "Activation", "config": {"name": "conv3_block8_1_relu", "trainable": true, "dtype": "float32", "activation": "relu"}, "inbound_nodes": [[["conv3_block8_1_bn", 0, 0, {}]]]}, {"name": "conv3_block8_2_conv", "class_name": "Conv2D", "config": {"name": "conv3_block8_2_conv", "trainable": true, "dtype": "float32", "filters": 128, "kernel_size": [3, 3], "strides": [1, 1], "padding": "same", "data_format": "channels_last", "dilation_rate": [1, 1], "activation": "linear", "use_bias": true, "kernel_initializer": {"class_name": "VarianceScaling", "config": {"scale": 1.0, "mode": "fan_avg", "distribution": "uniform", "seed": null}}, "bias_initializer": {"class_name": "Zeros", "config": {}}, "kernel_regularizer": null, "bias_regularizer": null, "activity_regularizer": null, "kernel_constraint": null, "bias_constraint": null}, "inbound_nodes": [[["conv3_block8_1_relu", 0, 0, {}]]]}, {"name": "conv3_block8_2_bn", "class_name": "BatchNormalization", "config": {"name": "conv3_block8_2_bn", "trainable": true, "dtype": "float32", "axis": 3, "momentum": 0.99, "epsilon": 1.001e-05, "center": true, "scale": true, "beta_initializer": {"class_name": "Zeros", "config": {}}, "gamma_initializer": {"class_name": "Ones", "config": {}}, "moving_mean_initializer": {"class_name": "Zeros", "config": {}}, "moving_variance_initializer": {"class_name": "Ones", "config": {}}, "beta_regularizer": null, "gamma_regularizer": null, "beta_constraint": null, "gamma_constraint": null}, "inbound_nodes": [[["conv3_block8_2_conv", 0, 0, {}]]]}, {"name": "conv3_block8_2_relu", "class_name": "Activation", "config": {"name": "conv3_block8_2_relu", "trainable": true, "dtype": "float32", "activation": "relu"}, "inbound_nodes": [[["conv3_block8_2_bn", 0, 0, {}]]]}, {"name": "conv3_block8_3_conv", "class_name": "Conv2D", "config": {"name": "conv3_block8_3_conv", "trainable": true, "dtype": "float32", "filters": 512, "kernel_size": [1, 1], "strides": [1, 1], "padding": "valid", "data_format": "channels_last", "dilation_rate": [1, 1], "activation": "linear", "use_bias": true, "kernel_initializer": {"class_name": "VarianceScaling", "config": {"scale": 1.0, "mode": "fan_avg", "distribution": "uniform", "seed": null}}, "bias_initializer": {"class_name": "Zeros", "config": {}}, "kernel_regularizer": null, "bias_regularizer": null, "activity_regularizer": null, "kernel_constraint": null, "bias_constraint": null}, "inbound_nodes": [[["conv3_block8_2_relu", 0, 0, {}]]]}, {"name": "conv3_block8_3_bn", "class_name": "BatchNormalization", "config": {"name": "conv3_block8_3_bn", "trainable": true, "dtype": "float32", "axis": 3, "momentum": 0.99, "epsilon": 1.001e-05, "center": true, "scale": true, "beta_initializer": {"class_name": "Zeros", "config": {}}, "gamma_initializer": {"class_name": "Ones", "config": {}}, "moving_mean_initializer": {"class_name": "Zeros", "config": {}}, "moving_variance_initializer": {"class_name": "Ones", "config": {}}, "beta_regularizer": null, "gamma_regularizer": null, "beta_constraint": null, "gamma_constraint": null}, "inbound_nodes": [[["conv3_block8_3_conv", 0, 0, {}]]]}, {"name": "conv3_block8_add", "class_name": "Add", "config": {"name": "conv3_block8_add", "trainable": true, "dtype": "float32"}, "inbound_nodes": [[["conv3_block7_out", 0, 0, {}], ["conv3_block8_3_bn", 0, 0, {}]]]}, {"name": "conv3_block8_out", "class_name": "Activation", "config": {"name": "conv3_block8_out", "trainable": true, "dtype": "float32", "activation": "relu"}, "inbound_nodes": [[["conv3_block8_add", 0, 0, {}]]]}, {"name": "conv4_block1_1_conv", "class_name": "Conv2D", "config": {"name": "conv4_block1_1_conv", "trainable": true, "dtype": "float32", "filters": 256, "kernel_size": [1, 1], "strides": [2, 2], "padding": "valid", "data_format": "channels_last", "dilation_rate": [1, 1], "activation": "linear", "use_bias": true, "kernel_initializer": {"class_name": "VarianceScaling", "config": {"scale": 1.0, "mode": "fan_avg", "distribution": "uniform", "seed": null}}, "bias_initializer": {"class_name": "Zeros", "config": {}}, "kernel_regularizer": null, "bias_regularizer": null, "activity_regularizer": null, "kernel_constraint": null, "bias_constraint": null}, "inbound_nodes": [[["conv3_block8_out", 0, 0, {}]]]}, {"name": "conv4_block1_1_bn", "class_name": "BatchNormalization", "config": {"name": "conv4_block1_1_bn", "trainable": true, "dtype": "float32", "axis": 3, "momentum": 0.99, "epsilon": 1.001e-05, "center": true, "scale": true, "beta_initializer": {"class_name": "Zeros", "config": {}}, "gamma_initializer": {"class_name": "Ones", "config": {}}, "moving_mean_initializer": {"class_name": "Zeros", "config": {}}, "moving_variance_initializer": {"class_name": "Ones", "config": {}}, "beta_regularizer": null, "gamma_regularizer": null, "beta_constraint": null, "gamma_constraint": null}, "inbound_nodes": [[["conv4_block1_1_conv", 0, 0, {}]]]}, {"name": "conv4_block1_1_relu", "class_name": "Activation", "config": {"name": "conv4_block1_1_relu", "trainable": true, "dtype": "float32", "activation": "relu"}, "inbound_nodes": [[["conv4_block1_1_bn", 0, 0, {}]]]}, {"name": "conv4_block1_2_conv", "class_name": "Conv2D", "config": {"name": "conv4_block1_2_conv", "trainable": true, "dtype": "float32", "filters": 256, "kernel_size": [3, 3], "strides": [1, 1], "padding": "same", "data_format": "channels_last", "dilation_rate": [1, 1], "activation": "linear", "use_bias": true, "kernel_initializer": {"class_name": "VarianceScaling", "config": {"scale": 1.0, "mode": "fan_avg", "distribution": "uniform", "seed": null}}, "bias_initializer": {"class_name": "Zeros", "config": {}}, "kernel_regularizer": null, "bias_regularizer": null, "activity_regularizer": null, "kernel_constraint": null, "bias_constraint": null}, "inbound_nodes": [[["conv4_block1_1_relu", 0, 0, {}]]]}, {"name": "conv4_block1_2_bn", "class_name": "BatchNormalization", "config": {"name": "conv4_block1_2_bn", "trainable": true, "dtype": "float32", "axis": 3, "momentum": 0.99, "epsilon": 1.001e-05, "center": true, "scale": true, "beta_initializer": {"class_name": "Zeros", "config": {}}, "gamma_initializer": {"class_name": "Ones", "config": {}}, "moving_mean_initializer": {"class_name": "Zeros", "config": {}}, "moving_variance_initializer": {"class_name": "Ones", "config": {}}, "beta_regularizer": null, "gamma_regularizer": null, "beta_constraint": null, "gamma_constraint": null}, "inbound_nodes": [[["conv4_block1_2_conv", 0, 0, {}]]]}, {"name": "conv4_block1_2_relu", "class_name": "Activation", "config": {"name": "conv4_block1_2_relu", "trainable": true, "dtype": "float32", "activation": "relu"}, "inbound_nodes": [[["conv4_block1_2_bn", 0, 0, {}]]]}, {"name": "conv4_block1_0_conv", "class_name": "Conv2D", "config": {"name": "conv4_block1_0_conv", "trainable": true, "dtype": "float32", "filters": 1024, "kernel_size": [1, 1], "strides": [2, 2], "padding": "valid", "data_format": "channels_last", "dilation_rate": [1, 1], "activation": "linear", "use_bias": true, "kernel_initializer": {"class_name": "VarianceScaling", "config": {"scale": 1.0, "mode": "fan_avg", "distribution": "uniform", "seed": null}}, "bias_initializer": {"class_name": "Zeros", "config": {}}, "kernel_regularizer": null, "bias_regularizer": null, "activity_regularizer": null, "kernel_constraint": null, "bias_constraint": null}, "inbound_nodes": [[["conv3_block8_out", 0, 0, {}]]]}, {"name": "conv4_block1_3_conv", "class_name": "Conv2D", "config": {"name": "conv4_block1_3_conv", "trainable": true, "dtype": "float32", "filters": 1024, "kernel_size": [1, 1], "strides": [1, 1], "padding": "valid", "data_format": "channels_last", "dilation_rate": [1, 1], "activation": "linear", "use_bias": true, "kernel_initializer": {"class_name": "VarianceScaling", "config": {"scale": 1.0, "mode": "fan_avg", "distribution": "uniform", "seed": null}}, "bias_initializer": {"class_name": "Zeros", "config": {}}, "kernel_regularizer": null, "bias_regularizer": null, "activity_regularizer": null, "kernel_constraint": null, "bias_constraint": null}, "inbound_nodes": [[["conv4_block1_2_relu", 0, 0, {}]]]}, {"name": "conv4_block1_0_bn", "class_name": "BatchNormalization", "config": {"name": "conv4_block1_0_bn", "trainable": true, "dtype": "float32", "axis": 3, "momentum": 0.99, "epsilon": 1.001e-05, "center": true, "scale": true, "beta_initializer": {"class_name": "Zeros", "config": {}}, "gamma_initializer": {"class_name": "Ones", "config": {}}, "moving_mean_initializer": {"class_name": "Zeros", "config": {}}, "moving_variance_initializer": {"class_name": "Ones", "config": {}}, "beta_regularizer": null, "gamma_regularizer": null, "beta_constraint": null, "gamma_constraint": null}, "inbound_nodes": [[["conv4_block1_0_conv", 0, 0, {}]]]}, {"name": "conv4_block1_3_bn", "class_name": "BatchNormalization", "config": {"name": "conv4_block1_3_bn", "trainable": true, "dtype": "float32", "axis": 3, "momentum": 0.99, "epsilon": 1.001e-05, "center": true, "scale": true, "beta_initializer": {"class_name": "Zeros", "config": {}}, "gamma_initializer": {"class_name": "Ones", "config": {}}, "moving_mean_initializer": {"class_name": "Zeros", "config": {}}, "moving_variance_initializer": {"class_name": "Ones", "config": {}}, "beta_regularizer": null, "gamma_regularizer": null, "beta_constraint": null, "gamma_constraint": null}, "inbound_nodes": [[["conv4_block1_3_conv", 0, 0, {}]]]}, {"name": "conv4_block1_add", "class_name": "Add", "config": {"name": "conv4_block1_add", "trainable": true, "dtype": "float32"}, "inbound_nodes": [[["conv4_block1_0_bn", 0, 0, {}], ["conv4_block1_3_bn", 0, 0, {}]]]}, {"name": "conv4_block1_out", "class_name": "Activation", "config": {"name": "conv4_block1_out", "trainable": true, "dtype": "float32", "activation": "relu"}, "inbound_nodes": [[["conv4_block1_add", 0, 0, {}]]]}, {"name": "conv4_block2_1_conv", "class_name": "Conv2D", "config": {"name": "conv4_block2_1_conv", "trainable": true, "dtype": "float32", "filters": 256, "kernel_size": [1, 1], "strides": [1, 1], "padding": "valid", "data_format": "channels_last", "dilation_rate": [1, 1], "activation": "linear", "use_bias": true, "kernel_initializer": {"class_name": "VarianceScaling", "config": {"scale": 1.0, "mode": "fan_avg", "distribution": "uniform", "seed": null}}, "bias_initializer": {"class_name": "Zeros", "config": {}}, "kernel_regularizer": null, "bias_regularizer": null, "activity_regularizer": null, "kernel_constraint": null, "bias_constraint": null}, "inbound_nodes": [[["conv4_block1_out", 0, 0, {}]]]}, {"name": "conv4_block2_1_bn", "class_name": "BatchNormalization", "config": {"name": "conv4_block2_1_bn", "trainable": true, "dtype": "float32", "axis": 3, "momentum": 0.99, "epsilon": 1.001e-05, "center": true, "scale": true, "beta_initializer": {"class_name": "Zeros", "config": {}}, "gamma_initializer": {"class_name": "Ones", "config": {}}, "moving_mean_initializer": {"class_name": "Zeros", "config": {}}, "moving_variance_initializer": {"class_name": "Ones", "config": {}}, "beta_regularizer": null, "gamma_regularizer": null, "beta_constraint": null, "gamma_constraint": null}, "inbound_nodes": [[["conv4_block2_1_conv", 0, 0, {}]]]}, {"name": "conv4_block2_1_relu", "class_name": "Activation", "config": {"name": "conv4_block2_1_relu", "trainable": true, "dtype": "float32", "activation": "relu"}, "inbound_nodes": [[["conv4_block2_1_bn", 0, 0, {}]]]}, {"name": "conv4_block2_2_conv", "class_name": "Conv2D", "config": {"name": "conv4_block2_2_conv", "trainable": true, "dtype": "float32", "filters": 256, "kernel_size": [3, 3], "strides": [1, 1], "padding": "same", "data_format": "channels_last", "dilation_rate": [1, 1], "activation": "linear", "use_bias": true, "kernel_initializer": {"class_name": "VarianceScaling", "config": {"scale": 1.0, "mode": "fan_avg", "distribution": "uniform", "seed": null}}, "bias_initializer": {"class_name": "Zeros", "config": {}}, "kernel_regularizer": null, "bias_regularizer": null, "activity_regularizer": null, "kernel_constraint": null, "bias_constraint": null}, "inbound_nodes": [[["conv4_block2_1_relu", 0, 0, {}]]]}, {"name": "conv4_block2_2_bn", "class_name": "BatchNormalization", "config": {"name": "conv4_block2_2_bn", "trainable": true, "dtype": "float32", "axis": 3, "momentum": 0.99, "epsilon": 1.001e-05, "center": true, "scale": true, "beta_initializer": {"class_name": "Zeros", "config": {}}, "gamma_initializer": {"class_name": "Ones", "config": {}}, "moving_mean_initializer": {"class_name": "Zeros", "config": {}}, "moving_variance_initializer": {"class_name": "Ones", "config": {}}, "beta_regularizer": null, "gamma_regularizer": null, "beta_constraint": null, "gamma_constraint": null}, "inbound_nodes": [[["conv4_block2_2_conv", 0, 0, {}]]]}, {"name": "conv4_block2_2_relu", "class_name": "Activation", "config": {"name": "conv4_block2_2_relu", "trainable": true, "dtype": "float32", "activation": "relu"}, "inbound_nodes": [[["conv4_block2_2_bn", 0, 0, {}]]]}, {"name": "conv4_block2_3_conv", "class_name": "Conv2D", "config": {"name": "conv4_block2_3_conv", "trainable": true, "dtype": "float32", "filters": 1024, "kernel_size": [1, 1], "strides": [1, 1], "padding": "valid", "data_format": "channels_last", "dilation_rate": [1, 1], "activation": "linear", "use_bias": true, "kernel_initializer": {"class_name": "VarianceScaling", "config": {"scale": 1.0, "mode": "fan_avg", "distribution": "uniform", "seed": null}}, "bias_initializer": {"class_name": "Zeros", "config": {}}, "kernel_regularizer": null, "bias_regularizer": null, "activity_regularizer": null, "kernel_constraint": null, "bias_constraint": null}, "inbound_nodes": [[["conv4_block2_2_relu", 0, 0, {}]]]}, {"name": "conv4_block2_3_bn", "class_name": "BatchNormalization", "config": {"name": "conv4_block2_3_bn", "trainable": true, "dtype": "float32", "axis": 3, "momentum": 0.99, "epsilon": 1.001e-05, "center": true, "scale": true, "beta_initializer": {"class_name": "Zeros", "config": {}}, "gamma_initializer": {"class_name": "Ones", "config": {}}, "moving_mean_initializer": {"class_name": "Zeros", "config": {}}, "moving_variance_initializer": {"class_name": "Ones", "config": {}}, "beta_regularizer": null, "gamma_regularizer": null, "beta_constraint": null, "gamma_constraint": null}, "inbound_nodes": [[["conv4_block2_3_conv", 0, 0, {}]]]}, {"name": "conv4_block2_add", "class_name": "Add", "config": {"name": "conv4_block2_add", "trainable": true, "dtype": "float32"}, "inbound_nodes": [[["conv4_block1_out", 0, 0, {}], ["conv4_block2_3_bn", 0, 0, {}]]]}, {"name": "conv4_block2_out", "class_name": "Activation", "config": {"name": "conv4_block2_out", "trainable": true, "dtype": "float32", "activation": "relu"}, "inbound_nodes": [[["conv4_block2_add", 0, 0, {}]]]}, {"name": "conv4_block3_1_conv", "class_name": "Conv2D", "config": {"name": "conv4_block3_1_conv", "trainable": true, "dtype": "float32", "filters": 256, "kernel_size": [1, 1], "strides": [1, 1], "padding": "valid", "data_format": "channels_last", "dilation_rate": [1, 1], "activation": "linear", "use_bias": true, "kernel_initializer": {"class_name": "VarianceScaling", "config": {"scale": 1.0, "mode": "fan_avg", "distribution": "uniform", "seed": null}}, "bias_initializer": {"class_name": "Zeros", "config": {}}, "kernel_regularizer": null, "bias_regularizer": null, "activity_regularizer": null, "kernel_constraint": null, "bias_constraint": null}, "inbound_nodes": [[["conv4_block2_out", 0, 0, {}]]]}, {"name": "conv4_block3_1_bn", "class_name": "BatchNormalization", "config": {"name": "conv4_block3_1_bn", "trainable": true, "dtype": "float32", "axis": 3, "momentum": 0.99, "epsilon": 1.001e-05, "center": true, "scale": true, "beta_initializer": {"class_name": "Zeros", "config": {}}, "gamma_initializer": {"class_name": "Ones", "config": {}}, "moving_mean_initializer": {"class_name": "Zeros", "config": {}}, "moving_variance_initializer": {"class_name": "Ones", "config": {}}, "beta_regularizer": null, "gamma_regularizer": null, "beta_constraint": null, "gamma_constraint": null}, "inbound_nodes": [[["conv4_block3_1_conv", 0, 0, {}]]]}, {"name": "conv4_block3_1_relu", "class_name": "Activation", "config": {"name": "conv4_block3_1_relu", "trainable": true, "dtype": "float32", "activation": "relu"}, "inbound_nodes": [[["conv4_block3_1_bn", 0, 0, {}]]]}, {"name": "conv4_block3_2_conv", "class_name": "Conv2D", "config": {"name": "conv4_block3_2_conv", "trainable": true, "dtype": "float32", "filters": 256, "kernel_size": [3, 3], "strides": [1, 1], "padding": "same", "data_format": "channels_last", "dilation_rate": [1, 1], "activation": "linear", "use_bias": true, "kernel_initializer": {"class_name": "VarianceScaling", "config": {"scale": 1.0, "mode": "fan_avg", "distribution": "uniform", "seed": null}}, "bias_initializer": {"class_name": "Zeros", "config": {}}, "kernel_regularizer": null, "bias_regularizer": null, "activity_regularizer": null, "kernel_constraint": null, "bias_constraint": null}, "inbound_nodes": [[["conv4_block3_1_relu", 0, 0, {}]]]}, {"name": "conv4_block3_2_bn", "class_name": "BatchNormalization", "config": {"name": "conv4_block3_2_bn", "trainable": true, "dtype": "float32", "axis": 3, "momentum": 0.99, "epsilon": 1.001e-05, "center": true, "scale": true, "beta_initializer": {"class_name": "Zeros", "config": {}}, "gamma_initializer": {"class_name": "Ones", "config": {}}, "moving_mean_initializer": {"class_name": "Zeros", "config": {}}, "moving_variance_initializer": {"class_name": "Ones", "config": {}}, "beta_regularizer": null, "gamma_regularizer": null, "beta_constraint": null, "gamma_constraint": null}, "inbound_nodes": [[["conv4_block3_2_conv", 0, 0, {}]]]}, {"name": "conv4_block3_2_relu", "class_name": "Activation", "config": {"name": "conv4_block3_2_relu", "trainable": true, "dtype": "float32", "activation": "relu"}, "inbound_nodes": [[["conv4_block3_2_bn", 0, 0, {}]]]}, {"name": "conv4_block3_3_conv", "class_name": "Conv2D", "config": {"name": "conv4_block3_3_conv", "trainable": true, "dtype": "float32", "filters": 1024, "kernel_size": [1, 1], "strides": [1, 1], "padding": "valid", "data_format": "channels_last", "dilation_rate": [1, 1], "activation": "linear", "use_bias": true, "kernel_initializer": {"class_name": "VarianceScaling", "config": {"scale": 1.0, "mode": "fan_avg", "distribution": "uniform", "seed": null}}, "bias_initializer": {"class_name": "Zeros", "config": {}}, "kernel_regularizer": null, "bias_regularizer": null, "activity_regularizer": null, "kernel_constraint": null, "bias_constraint": null}, "inbound_nodes": [[["conv4_block3_2_relu", 0, 0, {}]]]}, {"name": "conv4_block3_3_bn", "class_name": "BatchNormalization", "config": {"name": "conv4_block3_3_bn", "trainable": true, "dtype": "float32", "axis": 3, "momentum": 0.99, "epsilon": 1.001e-05, "center": true, "scale": true, "beta_initializer": {"class_name": "Zeros", "config": {}}, "gamma_initializer": {"class_name": "Ones", "config": {}}, "moving_mean_initializer": {"class_name": "Zeros", "config": {}}, "moving_variance_initializer": {"class_name": "Ones", "config": {}}, "beta_regularizer": null, "gamma_regularizer": null, "beta_constraint": null, "gamma_constraint": null}, "inbound_nodes": [[["conv4_block3_3_conv", 0, 0, {}]]]}, {"name": "conv4_block3_add", "class_name": "Add", "config": {"name": "conv4_block3_add", "trainable": true, "dtype": "float32"}, "inbound_nodes": [[["conv4_block2_out", 0, 0, {}], ["conv4_block3_3_bn", 0, 0, {}]]]}, {"name": "conv4_block3_out", "class_name": "Activation", "config": {"name": "conv4_block3_out", "trainable": true, "dtype": "float32", "activation": "relu"}, "inbound_nodes": [[["conv4_block3_add", 0, 0, {}]]]}, {"name": "conv4_block4_1_conv", "class_name": "Conv2D", "config": {"name": "conv4_block4_1_conv", "trainable": true, "dtype": "float32", "filters": 256, "kernel_size": [1, 1], "strides": [1, 1], "padding": "valid", "data_format": "channels_last", "dilation_rate": [1, 1], "activation": "linear", "use_bias": true, "kernel_initializer": {"class_name": "VarianceScaling", "config": {"scale": 1.0, "mode": "fan_avg", "distribution": "uniform", "seed": null}}, "bias_initializer": {"class_name": "Zeros", "config": {}}, "kernel_regularizer": null, "bias_regularizer": null, "activity_regularizer": null, "kernel_constraint": null, "bias_constraint": null}, "inbound_nodes": [[["conv4_block3_out", 0, 0, {}]]]}, {"name": "conv4_block4_1_bn", "class_name": "BatchNormalization", "config": {"name": "conv4_block4_1_bn", "trainable": true, "dtype": "float32", "axis": 3, "momentum": 0.99, "epsilon": 1.001e-05, "center": true, "scale": true, "beta_initializer": {"class_name": "Zeros", "config": {}}, "gamma_initializer": {"class_name": "Ones", "config": {}}, "moving_mean_initializer": {"class_name": "Zeros", "config": {}}, "moving_variance_initializer": {"class_name": "Ones", "config": {}}, "beta_regularizer": null, "gamma_regularizer": null, "beta_constraint": null, "gamma_constraint": null}, "inbound_nodes": [[["conv4_block4_1_conv", 0, 0, {}]]]}, {"name": "conv4_block4_1_relu", "class_name": "Activation", "config": {"name": "conv4_block4_1_relu", "trainable": true, "dtype": "float32", "activation": "relu"}, "inbound_nodes": [[["conv4_block4_1_bn", 0, 0, {}]]]}, {"name": "conv4_block4_2_conv", "class_name": "Conv2D", "config": {"name": "conv4_block4_2_conv", "trainable": true, "dtype": "float32", "filters": 256, "kernel_size": [3, 3], "strides": [1, 1], "padding": "same", "data_format": "channels_last", "dilation_rate": [1, 1], "activation": "linear", "use_bias": true, "kernel_initializer": {"class_name": "VarianceScaling", "config": {"scale": 1.0, "mode": "fan_avg", "distribution": "uniform", "seed": null}}, "bias_initializer": {"class_name": "Zeros", "config": {}}, "kernel_regularizer": null, "bias_regularizer": null, "activity_regularizer": null, "kernel_constraint": null, "bias_constraint": null}, "inbound_nodes": [[["conv4_block4_1_relu", 0, 0, {}]]]}, {"name": "conv4_block4_2_bn", "class_name": "BatchNormalization", "config": {"name": "conv4_block4_2_bn", "trainable": true, "dtype": "float32", "axis": 3, "momentum": 0.99, "epsilon": 1.001e-05, "center": true, "scale": true, "beta_initializer": {"class_name": "Zeros", "config": {}}, "gamma_initializer": {"class_name": "Ones", "config": {}}, "moving_mean_initializer": {"class_name": "Zeros", "config": {}}, "moving_variance_initializer": {"class_name": "Ones", "config": {}}, "beta_regularizer": null, "gamma_regularizer": null, "beta_constraint": null, "gamma_constraint": null}, "inbound_nodes": [[["conv4_block4_2_conv", 0, 0, {}]]]}, {"name": "conv4_block4_2_relu", "class_name": "Activation", "config": {"name": "conv4_block4_2_relu", "trainable": true, "dtype": "float32", "activation": "relu"}, "inbound_nodes": [[["conv4_block4_2_bn", 0, 0, {}]]]}, {"name": "conv4_block4_3_conv", "class_name": "Conv2D", "config": {"name": "conv4_block4_3_conv", "trainable": true, "dtype": "float32", "filters": 1024, "kernel_size": [1, 1], "strides": [1, 1], "padding": "valid", "data_format": "channels_last", "dilation_rate": [1, 1], "activation": "linear", "use_bias": true, "kernel_initializer": {"class_name": "VarianceScaling", "config": {"scale": 1.0, "mode": "fan_avg", "distribution": "uniform", "seed": null}}, "bias_initializer": {"class_name": "Zeros", "config": {}}, "kernel_regularizer": null, "bias_regularizer": null, "activity_regularizer": null, "kernel_constraint": null, "bias_constraint": null}, "inbound_nodes": [[["conv4_block4_2_relu", 0, 0, {}]]]}, {"name": "conv4_block4_3_bn", "class_name": "BatchNormalization", "config": {"name": "conv4_block4_3_bn", "trainable": true, "dtype": "float32", "axis": 3, "momentum": 0.99, "epsilon": 1.001e-05, "center": true, "scale": true, "beta_initializer": {"class_name": "Zeros", "config": {}}, "gamma_initializer": {"class_name": "Ones", "config": {}}, "moving_mean_initializer": {"class_name": "Zeros", "config": {}}, "moving_variance_initializer": {"class_name": "Ones", "config": {}}, "beta_regularizer": null, "gamma_regularizer": null, "beta_constraint": null, "gamma_constraint": null}, "inbound_nodes": [[["conv4_block4_3_conv", 0, 0, {}]]]}, {"name": "conv4_block4_add", "class_name": "Add", "config": {"name": "conv4_block4_add", "trainable": true, "dtype": "float32"}, "inbound_nodes": [[["conv4_block3_out", 0, 0, {}], ["conv4_block4_3_bn", 0, 0, {}]]]}, {"name": "conv4_block4_out", "class_name": "Activation", "config": {"name": "conv4_block4_out", "trainable": true, "dtype": "float32", "activation": "relu"}, "inbound_nodes": [[["conv4_block4_add", 0, 0, {}]]]}, {"name": "conv4_block5_1_conv", "class_name": "Conv2D", "config": {"name": "conv4_block5_1_conv", "trainable": true, "dtype": "float32", "filters": 256, "kernel_size": [1, 1], "strides": [1, 1], "padding": "valid", "data_format": "channels_last", "dilation_rate": [1, 1], "activation": "linear", "use_bias": true, "kernel_initializer": {"class_name": "VarianceScaling", "config": {"scale": 1.0, "mode": "fan_avg", "distribution": "uniform", "seed": null}}, "bias_initializer": {"class_name": "Zeros", "config": {}}, "kernel_regularizer": null, "bias_regularizer": null, "activity_regularizer": null, "kernel_constraint": null, "bias_constraint": null}, "inbound_nodes": [[["conv4_block4_out", 0, 0, {}]]]}, {"name": "conv4_block5_1_bn", "class_name": "BatchNormalization", "config": {"name": "conv4_block5_1_bn", "trainable": true, "dtype": "float32", "axis": 3, "momentum": 0.99, "epsilon": 1.001e-05, "center": true, "scale": true, "beta_initializer": {"class_name": "Zeros", "config": {}}, "gamma_initializer": {"class_name": "Ones", "config": {}}, "moving_mean_initializer": {"class_name": "Zeros", "config": {}}, "moving_variance_initializer": {"class_name": "Ones", "config": {}}, "beta_regularizer": null, "gamma_regularizer": null, "beta_constraint": null, "gamma_constraint": null}, "inbound_nodes": [[["conv4_block5_1_conv", 0, 0, {}]]]}, {"name": "conv4_block5_1_relu", "class_name": "Activation", "config": {"name": "conv4_block5_1_relu", "trainable": true, "dtype": "float32", "activation": "relu"}, "inbound_nodes": [[["conv4_block5_1_bn", 0, 0, {}]]]}, {"name": "conv4_block5_2_conv", "class_name": "Conv2D", "config": {"name": "conv4_block5_2_conv", "trainable": true, "dtype": "float32", "filters": 256, "kernel_size": [3, 3], "strides": [1, 1], "padding": "same", "data_format": "channels_last", "dilation_rate": [1, 1], "activation": "linear", "use_bias": true, "kernel_initializer": {"class_name": "VarianceScaling", "config": {"scale": 1.0, "mode": "fan_avg", "distribution": "uniform", "seed": null}}, "bias_initializer": {"class_name": "Zeros", "config": {}}, "kernel_regularizer": null, "bias_regularizer": null, "activity_regularizer": null, "kernel_constraint": null, "bias_constraint": null}, "inbound_nodes": [[["conv4_block5_1_relu", 0, 0, {}]]]}, {"name": "conv4_block5_2_bn", "class_name": "BatchNormalization", "config": {"name": "conv4_block5_2_bn", "trainable": true, "dtype": "float32", "axis": 3, "momentum": 0.99, "epsilon": 1.001e-05, "center": true, "scale": true, "beta_initializer": {"class_name": "Zeros", "config": {}}, "gamma_initializer": {"class_name": "Ones", "config": {}}, "moving_mean_initializer": {"class_name": "Zeros", "config": {}}, "moving_variance_initializer": {"class_name": "Ones", "config": {}}, "beta_regularizer": null, "gamma_regularizer": null, "beta_constraint": null, "gamma_constraint": null}, "inbound_nodes": [[["conv4_block5_2_conv", 0, 0, {}]]]}, {"name": "conv4_block5_2_relu", "class_name": "Activation", "config": {"name": "conv4_block5_2_relu", "trainable": true, "dtype": "float32", "activation": "relu"}, "inbound_nodes": [[["conv4_block5_2_bn", 0, 0, {}]]]}, {"name": "conv4_block5_3_conv", "class_name": "Conv2D", "config": {"name": "conv4_block5_3_conv", "trainable": true, "dtype": "float32", "filters": 1024, "kernel_size": [1, 1], "strides": [1, 1], "padding": "valid", "data_format": "channels_last", "dilation_rate": [1, 1], "activation": "linear", "use_bias": true, "kernel_initializer": {"class_name": "VarianceScaling", "config": {"scale": 1.0, "mode": "fan_avg", "distribution": "uniform", "seed": null}}, "bias_initializer": {"class_name": "Zeros", "config": {}}, "kernel_regularizer": null, "bias_regularizer": null, "activity_regularizer": null, "kernel_constraint": null, "bias_constraint": null}, "inbound_nodes": [[["conv4_block5_2_relu", 0, 0, {}]]]}, {"name": "conv4_block5_3_bn", "class_name": "BatchNormalization", "config": {"name": "conv4_block5_3_bn", "trainable": true, "dtype": "float32", "axis": 3, "momentum": 0.99, "epsilon": 1.001e-05, "center": true, "scale": true, "beta_initializer": {"class_name": "Zeros", "config": {}}, "gamma_initializer": {"class_name": "Ones", "config": {}}, "moving_mean_initializer": {"class_name": "Zeros", "config": {}}, "moving_variance_initializer": {"class_name": "Ones", "config": {}}, "beta_regularizer": null, "gamma_regularizer": null, "beta_constraint": null, "gamma_constraint": null}, "inbound_nodes": [[["conv4_block5_3_conv", 0, 0, {}]]]}, {"name": "conv4_block5_add", "class_name": "Add", "config": {"name": "conv4_block5_add", "trainable": true, "dtype": "float32"}, "inbound_nodes": [[["conv4_block4_out", 0, 0, {}], ["conv4_block5_3_bn", 0, 0, {}]]]}, {"name": "conv4_block5_out", "class_name": "Activation", "config": {"name": "conv4_block5_out", "trainable": true, "dtype": "float32", "activation": "relu"}, "inbound_nodes": [[["conv4_block5_add", 0, 0, {}]]]}, {"name": "conv4_block6_1_conv", "class_name": "Conv2D", "config": {"name": "conv4_block6_1_conv", "trainable": true, "dtype": "float32", "filters": 256, "kernel_size": [1, 1], "strides": [1, 1], "padding": "valid", "data_format": "channels_last", "dilation_rate": [1, 1], "activation": "linear", "use_bias": true, "kernel_initializer": {"class_name": "VarianceScaling", "config": {"scale": 1.0, "mode": "fan_avg", "distribution": "uniform", "seed": null}}, "bias_initializer": {"class_name": "Zeros", "config": {}}, "kernel_regularizer": null, "bias_regularizer": null, "activity_regularizer": null, "kernel_constraint": null, "bias_constraint": null}, "inbound_nodes": [[["conv4_block5_out", 0, 0, {}]]]}, {"name": "conv4_block6_1_bn", "class_name": "BatchNormalization", "config": {"name": "conv4_block6_1_bn", "trainable": true, "dtype": "float32", "axis": 3, "momentum": 0.99, "epsilon": 1.001e-05, "center": true, "scale": true, "beta_initializer": {"class_name": "Zeros", "config": {}}, "gamma_initializer": {"class_name": "Ones", "config": {}}, "moving_mean_initializer": {"class_name": "Zeros", "config": {}}, "moving_variance_initializer": {"class_name": "Ones", "config": {}}, "beta_regularizer": null, "gamma_regularizer": null, "beta_constraint": null, "gamma_constraint": null}, "inbound_nodes": [[["conv4_block6_1_conv", 0, 0, {}]]]}, {"name": "conv4_block6_1_relu", "class_name": "Activation", "config": {"name": "conv4_block6_1_relu", "trainable": true, "dtype": "float32", "activation": "relu"}, "inbound_nodes": [[["conv4_block6_1_bn", 0, 0, {}]]]}, {"name": "conv4_block6_2_conv", "class_name": "Conv2D", "config": {"name": "conv4_block6_2_conv", "trainable": true, "dtype": "float32", "filters": 256, "kernel_size": [3, 3], "strides": [1, 1], "padding": "same", "data_format": "channels_last", "dilation_rate": [1, 1], "activation": "linear", "use_bias": true, "kernel_initializer": {"class_name": "VarianceScaling", "config": {"scale": 1.0, "mode": "fan_avg", "distribution": "uniform", "seed": null}}, "bias_initializer": {"class_name": "Zeros", "config": {}}, "kernel_regularizer": null, "bias_regularizer": null, "activity_regularizer": null, "kernel_constraint": null, "bias_constraint": null}, "inbound_nodes": [[["conv4_block6_1_relu", 0, 0, {}]]]}, {"name": "conv4_block6_2_bn", "class_name": "BatchNormalization", "config": {"name": "conv4_block6_2_bn", "trainable": true, "dtype": "float32", "axis": 3, "momentum": 0.99, "epsilon": 1.001e-05, "center": true, "scale": true, "beta_initializer": {"class_name": "Zeros", "config": {}}, "gamma_initializer": {"class_name": "Ones", "config": {}}, "moving_mean_initializer": {"class_name": "Zeros", "config": {}}, "moving_variance_initializer": {"class_name": "Ones", "config": {}}, "beta_regularizer": null, "gamma_regularizer": null, "beta_constraint": null, "gamma_constraint": null}, "inbound_nodes": [[["conv4_block6_2_conv", 0, 0, {}]]]}, {"name": "conv4_block6_2_relu", "class_name": "Activation", "config": {"name": "conv4_block6_2_relu", "trainable": true, "dtype": "float32", "activation": "relu"}, "inbound_nodes": [[["conv4_block6_2_bn", 0, 0, {}]]]}, {"name": "conv4_block6_3_conv", "class_name": "Conv2D", "config": {"name": "conv4_block6_3_conv", "trainable": true, "dtype": "float32", "filters": 1024, "kernel_size": [1, 1], "strides": [1, 1], "padding": "valid", "data_format": "channels_last", "dilation_rate": [1, 1], "activation": "linear", "use_bias": true, "kernel_initializer": {"class_name": "VarianceScaling", "config": {"scale": 1.0, "mode": "fan_avg", "distribution": "uniform", "seed": null}}, "bias_initializer": {"class_name": "Zeros", "config": {}}, "kernel_regularizer": null, "bias_regularizer": null, "activity_regularizer": null, "kernel_constraint": null, "bias_constraint": null}, "inbound_nodes": [[["conv4_block6_2_relu", 0, 0, {}]]]}, {"name": "conv4_block6_3_bn", "class_name": "BatchNormalization", "config": {"name": "conv4_block6_3_bn", "trainable": true, "dtype": "float32", "axis": 3, "momentum": 0.99, "epsilon": 1.001e-05, "center": true, "scale": true, "beta_initializer": {"class_name": "Zeros", "config": {}}, "gamma_initializer": {"class_name": "Ones", "config": {}}, "moving_mean_initializer": {"class_name": "Zeros", "config": {}}, "moving_variance_initializer": {"class_name": "Ones", "config": {}}, "beta_regularizer": null, "gamma_regularizer": null, "beta_constraint": null, "gamma_constraint": null}, "inbound_nodes": [[["conv4_block6_3_conv", 0, 0, {}]]]}, {"name": "conv4_block6_add", "class_name": "Add", "config": {"name": "conv4_block6_add", "trainable": true, "dtype": "float32"}, "inbound_nodes": [[["conv4_block5_out", 0, 0, {}], ["conv4_block6_3_bn", 0, 0, {}]]]}, {"name": "conv4_block6_out", "class_name": "Activation", "config": {"name": "conv4_block6_out", "trainable": true, "dtype": "float32", "activation": "relu"}, "inbound_nodes": [[["conv4_block6_add", 0, 0, {}]]]}, {"name": "conv4_block7_1_conv", "class_name": "Conv2D", "config": {"name": "conv4_block7_1_conv", "trainable": true, "dtype": "float32", "filters": 256, "kernel_size": [1, 1], "strides": [1, 1], "padding": "valid", "data_format": "channels_last", "dilation_rate": [1, 1], "activation": "linear", "use_bias": true, "kernel_initializer": {"class_name": "VarianceScaling", "config": {"scale": 1.0, "mode": "fan_avg", "distribution": "uniform", "seed": null}}, "bias_initializer": {"class_name": "Zeros", "config": {}}, "kernel_regularizer": null, "bias_regularizer": null, "activity_regularizer": null, "kernel_constraint": null, "bias_constraint": null}, "inbound_nodes": [[["conv4_block6_out", 0, 0, {}]]]}, {"name": "conv4_block7_1_bn", "class_name": "BatchNormalization", "config": {"name": "conv4_block7_1_bn", "trainable": true, "dtype": "float32", "axis": 3, "momentum": 0.99, "epsilon": 1.001e-05, "center": true, "scale": true, "beta_initializer": {"class_name": "Zeros", "config": {}}, "gamma_initializer": {"class_name": "Ones", "config": {}}, "moving_mean_initializer": {"class_name": "Zeros", "config": {}}, "moving_variance_initializer": {"class_name": "Ones", "config": {}}, "beta_regularizer": null, "gamma_regularizer": null, "beta_constraint": null, "gamma_constraint": null}, "inbound_nodes": [[["conv4_block7_1_conv", 0, 0, {}]]]}, {"name": "conv4_block7_1_relu", "class_name": "Activation", "config": {"name": "conv4_block7_1_relu", "trainable": true, "dtype": "float32", "activation": "relu"}, "inbound_nodes": [[["conv4_block7_1_bn", 0, 0, {}]]]}, {"name": "conv4_block7_2_conv", "class_name": "Conv2D", "config": {"name": "conv4_block7_2_conv", "trainable": true, "dtype": "float32", "filters": 256, "kernel_size": [3, 3], "strides": [1, 1], "padding": "same", "data_format": "channels_last", "dilation_rate": [1, 1], "activation": "linear", "use_bias": true, "kernel_initializer": {"class_name": "VarianceScaling", "config": {"scale": 1.0, "mode": "fan_avg", "distribution": "uniform", "seed": null}}, "bias_initializer": {"class_name": "Zeros", "config": {}}, "kernel_regularizer": null, "bias_regularizer": null, "activity_regularizer": null, "kernel_constraint": null, "bias_constraint": null}, "inbound_nodes": [[["conv4_block7_1_relu", 0, 0, {}]]]}, {"name": "conv4_block7_2_bn", "class_name": "BatchNormalization", "config": {"name": "conv4_block7_2_bn", "trainable": true, "dtype": "float32", "axis": 3, "momentum": 0.99, "epsilon": 1.001e-05, "center": true, "scale": true, "beta_initializer": {"class_name": "Zeros", "config": {}}, "gamma_initializer": {"class_name": "Ones", "config": {}}, "moving_mean_initializer": {"class_name": "Zeros", "config": {}}, "moving_variance_initializer": {"class_name": "Ones", "config": {}}, "beta_regularizer": null, "gamma_regularizer": null, "beta_constraint": null, "gamma_constraint": null}, "inbound_nodes": [[["conv4_block7_2_conv", 0, 0, {}]]]}, {"name": "conv4_block7_2_relu", "class_name": "Activation", "config": {"name": "conv4_block7_2_relu", "trainable": true, "dtype": "float32", "activation": "relu"}, "inbound_nodes": [[["conv4_block7_2_bn", 0, 0, {}]]]}, {"name": "conv4_block7_3_conv", "class_name": "Conv2D", "config": {"name": "conv4_block7_3_conv", "trainable": true, "dtype": "float32", "filters": 1024, "kernel_size": [1, 1], "strides": [1, 1], "padding": "valid", "data_format": "channels_last", "dilation_rate": [1, 1], "activation": "linear", "use_bias": true, "kernel_initializer": {"class_name": "VarianceScaling", "config": {"scale": 1.0, "mode": "fan_avg", "distribution": "uniform", "seed": null}}, "bias_initializer": {"class_name": "Zeros", "config": {}}, "kernel_regularizer": null, "bias_regularizer": null, "activity_regularizer": null, "kernel_constraint": null, "bias_constraint": null}, "inbound_nodes": [[["conv4_block7_2_relu", 0, 0, {}]]]}, {"name": "conv4_block7_3_bn", "class_name": "BatchNormalization", "config": {"name": "conv4_block7_3_bn", "trainable": true, "dtype": "float32", "axis": 3, "momentum": 0.99, "epsilon": 1.001e-05, "center": true, "scale": true, "beta_initializer": {"class_name": "Zeros", "config": {}}, "gamma_initializer": {"class_name": "Ones", "config": {}}, "moving_mean_initializer": {"class_name": "Zeros", "config": {}}, "moving_variance_initializer": {"class_name": "Ones", "config": {}}, "beta_regularizer": null, "gamma_regularizer": null, "beta_constraint": null, "gamma_constraint": null}, "inbound_nodes": [[["conv4_block7_3_conv", 0, 0, {}]]]}, {"name": "conv4_block7_add", "class_name": "Add", "config": {"name": "conv4_block7_add", "trainable": true, "dtype": "float32"}, "inbound_nodes": [[["conv4_block6_out", 0, 0, {}], ["conv4_block7_3_bn", 0, 0, {}]]]}, {"name": "conv4_block7_out", "class_name": "Activation", "config": {"name": "conv4_block7_out", "trainable": true, "dtype": "float32", "activation": "relu"}, "inbound_nodes": [[["conv4_block7_add", 0, 0, {}]]]}, {"name": "conv4_block8_1_conv", "class_name": "Conv2D", "config": {"name": "conv4_block8_1_conv", "trainable": true, "dtype": "float32", "filters": 256, "kernel_size": [1, 1], "strides": [1, 1], "padding": "valid", "data_format": "channels_last", "dilation_rate": [1, 1], "activation": "linear", "use_bias": true, "kernel_initializer": {"class_name": "VarianceScaling", "config": {"scale": 1.0, "mode": "fan_avg", "distribution": "uniform", "seed": null}}, "bias_initializer": {"class_name": "Zeros", "config": {}}, "kernel_regularizer": null, "bias_regularizer": null, "activity_regularizer": null, "kernel_constraint": null, "bias_constraint": null}, "inbound_nodes": [[["conv4_block7_out", 0, 0, {}]]]}, {"name": "conv4_block8_1_bn", "class_name": "BatchNormalization", "config": {"name": "conv4_block8_1_bn", "trainable": true, "dtype": "float32", "axis": 3, "momentum": 0.99, "epsilon": 1.001e-05, "center": true, "scale": true, "beta_initializer": {"class_name": "Zeros", "config": {}}, "gamma_initializer": {"class_name": "Ones", "config": {}}, "moving_mean_initializer": {"class_name": "Zeros", "config": {}}, "moving_variance_initializer": {"class_name": "Ones", "config": {}}, "beta_regularizer": null, "gamma_regularizer": null, "beta_constraint": null, "gamma_constraint": null}, "inbound_nodes": [[["conv4_block8_1_conv", 0, 0, {}]]]}, {"name": "conv4_block8_1_relu", "class_name": "Activation", "config": {"name": "conv4_block8_1_relu", "trainable": true, "dtype": "float32", "activation": "relu"}, "inbound_nodes": [[["conv4_block8_1_bn", 0, 0, {}]]]}, {"name": "conv4_block8_2_conv", "class_name": "Conv2D", "config": {"name": "conv4_block8_2_conv", "trainable": true, "dtype": "float32", "filters": 256, "kernel_size": [3, 3], "strides": [1, 1], "padding": "same", "data_format": "channels_last", "dilation_rate": [1, 1], "activation": "linear", "use_bias": true, "kernel_initializer": {"class_name": "VarianceScaling", "config": {"scale": 1.0, "mode": "fan_avg", "distribution": "uniform", "seed": null}}, "bias_initializer": {"class_name": "Zeros", "config": {}}, "kernel_regularizer": null, "bias_regularizer": null, "activity_regularizer": null, "kernel_constraint": null, "bias_constraint": null}, "inbound_nodes": [[["conv4_block8_1_relu", 0, 0, {}]]]}, {"name": "conv4_block8_2_bn", "class_name": "BatchNormalization", "config": {"name": "conv4_block8_2_bn", "trainable": true, "dtype": "float32", "axis": 3, "momentum": 0.99, "epsilon": 1.001e-05, "center": true, "scale": true, "beta_initializer": {"class_name": "Zeros", "config": {}}, "gamma_initializer": {"class_name": "Ones", "config": {}}, "moving_mean_initializer": {"class_name": "Zeros", "config": {}}, "moving_variance_initializer": {"class_name": "Ones", "config": {}}, "beta_regularizer": null, "gamma_regularizer": null, "beta_constraint": null, "gamma_constraint": null}, "inbound_nodes": [[["conv4_block8_2_conv", 0, 0, {}]]]}, {"name": "conv4_block8_2_relu", "class_name": "Activation", "config": {"name": "conv4_block8_2_relu", "trainable": true, "dtype": "float32", "activation": "relu"}, "inbound_nodes": [[["conv4_block8_2_bn", 0, 0, {}]]]}, {"name": "conv4_block8_3_conv", "class_name": "Conv2D", "config": {"name": "conv4_block8_3_conv", "trainable": true, "dtype": "float32", "filters": 1024, "kernel_size": [1, 1], "strides": [1, 1], "padding": "valid", "data_format": "channels_last", "dilation_rate": [1, 1], "activation": "linear", "use_bias": true, "kernel_initializer": {"class_name": "VarianceScaling", "config": {"scale": 1.0, "mode": "fan_avg", "distribution": "uniform", "seed": null}}, "bias_initializer": {"class_name": "Zeros", "config": {}}, "kernel_regularizer": null, "bias_regularizer": null, "activity_regularizer": null, "kernel_constraint": null, "bias_constraint": null}, "inbound_nodes": [[["conv4_block8_2_relu", 0, 0, {}]]]}, {"name": "conv4_block8_3_bn", "class_name": "BatchNormalization", "config": {"name": "conv4_block8_3_bn", "trainable": true, "dtype": "float32", "axis": 3, "momentum": 0.99, "epsilon": 1.001e-05, "center": true, "scale": true, "beta_initializer": {"class_name": "Zeros", "config": {}}, "gamma_initializer": {"class_name": "Ones", "config": {}}, "moving_mean_initializer": {"class_name": "Zeros", "config": {}}, "moving_variance_initializer": {"class_name": "Ones", "config": {}}, "beta_regularizer": null, "gamma_regularizer": null, "beta_constraint": null, "gamma_constraint": null}, "inbound_nodes": [[["conv4_block8_3_conv", 0, 0, {}]]]}, {"name": "conv4_block8_add", "class_name": "Add", "config": {"name": "conv4_block8_add", "trainable": true, "dtype": "float32"}, "inbound_nodes": [[["conv4_block7_out", 0, 0, {}], ["conv4_block8_3_bn", 0, 0, {}]]]}, {"name": "conv4_block8_out", "class_name": "Activation", "config": {"name": "conv4_block8_out", "trainable": true, "dtype": "float32", "activation": "relu"}, "inbound_nodes": [[["conv4_block8_add", 0, 0, {}]]]}, {"name": "conv4_block9_1_conv", "class_name": "Conv2D", "config": {"name": "conv4_block9_1_conv", "trainable": true, "dtype": "float32", "filters": 256, "kernel_size": [1, 1], "strides": [1, 1], "padding": "valid", "data_format": "channels_last", "dilation_rate": [1, 1], "activation": "linear", "use_bias": true, "kernel_initializer": {"class_name": "VarianceScaling", "config": {"scale": 1.0, "mode": "fan_avg", "distribution": "uniform", "seed": null}}, "bias_initializer": {"class_name": "Zeros", "config": {}}, "kernel_regularizer": null, "bias_regularizer": null, "activity_regularizer": null, "kernel_constraint": null, "bias_constraint": null}, "inbound_nodes": [[["conv4_block8_out", 0, 0, {}]]]}, {"name": "conv4_block9_1_bn", "class_name": "BatchNormalization", "config": {"name": "conv4_block9_1_bn", "trainable": true, "dtype": "float32", "axis": 3, "momentum": 0.99, "epsilon": 1.001e-05, "center": true, "scale": true, "beta_initializer": {"class_name": "Zeros", "config": {}}, "gamma_initializer": {"class_name": "Ones", "config": {}}, "moving_mean_initializer": {"class_name": "Zeros", "config": {}}, "moving_variance_initializer": {"class_name": "Ones", "config": {}}, "beta_regularizer": null, "gamma_regularizer": null, "beta_constraint": null, "gamma_constraint": null}, "inbound_nodes": [[["conv4_block9_1_conv", 0, 0, {}]]]}, {"name": "conv4_block9_1_relu", "class_name": "Activation", "config": {"name": "conv4_block9_1_relu", "trainable": true, "dtype": "float32", "activation": "relu"}, "inbound_nodes": [[["conv4_block9_1_bn", 0, 0, {}]]]}, {"name": "conv4_block9_2_conv", "class_name": "Conv2D", "config": {"name": "conv4_block9_2_conv", "trainable": true, "dtype": "float32", "filters": 256, "kernel_size": [3, 3], "strides": [1, 1], "padding": "same", "data_format": "channels_last", "dilation_rate": [1, 1], "activation": "linear", "use_bias": true, "kernel_initializer": {"class_name": "VarianceScaling", "config": {"scale": 1.0, "mode": "fan_avg", "distribution": "uniform", "seed": null}}, "bias_initializer": {"class_name": "Zeros", "config": {}}, "kernel_regularizer": null, "bias_regularizer": null, "activity_regularizer": null, "kernel_constraint": null, "bias_constraint": null}, "inbound_nodes": [[["conv4_block9_1_relu", 0, 0, {}]]]}, {"name": "conv4_block9_2_bn", "class_name": "BatchNormalization", "config": {"name": "conv4_block9_2_bn", "trainable": true, "dtype": "float32", "axis": 3, "momentum": 0.99, "epsilon": 1.001e-05, "center": true, "scale": true, "beta_initializer": {"class_name": "Zeros", "config": {}}, "gamma_initializer": {"class_name": "Ones", "config": {}}, "moving_mean_initializer": {"class_name": "Zeros", "config": {}}, "moving_variance_initializer": {"class_name": "Ones", "config": {}}, "beta_regularizer": null, "gamma_regularizer": null, "beta_constraint": null, "gamma_constraint": null}, "inbound_nodes": [[["conv4_block9_2_conv", 0, 0, {}]]]}, {"name": "conv4_block9_2_relu", "class_name": "Activation", "config": {"name": "conv4_block9_2_relu", "trainable": true, "dtype": "float32", "activation": "relu"}, "inbound_nodes": [[["conv4_block9_2_bn", 0, 0, {}]]]}, {"name": "conv4_block9_3_conv", "class_name": "Conv2D", "config": {"name": "conv4_block9_3_conv", "trainable": true, "dtype": "float32", "filters": 1024, "kernel_size": [1, 1], "strides": [1, 1], "padding": "valid", "data_format": "channels_last", "dilation_rate": [1, 1], "activation": "linear", "use_bias": true, "kernel_initializer": {"class_name": "VarianceScaling", "config": {"scale": 1.0, "mode": "fan_avg", "distribution": "uniform", "seed": null}}, "bias_initializer": {"class_name": "Zeros", "config": {}}, "kernel_regularizer": null, "bias_regularizer": null, "activity_regularizer": null, "kernel_constraint": null, "bias_constraint": null}, "inbound_nodes": [[["conv4_block9_2_relu", 0, 0, {}]]]}, {"name": "conv4_block9_3_bn", "class_name": "BatchNormalization", "config": {"name": "conv4_block9_3_bn", "trainable": true, "dtype": "float32", "axis": 3, "momentum": 0.99, "epsilon": 1.001e-05, "center": true, "scale": true, "beta_initializer": {"class_name": "Zeros", "config": {}}, "gamma_initializer": {"class_name": "Ones", "config": {}}, "moving_mean_initializer": {"class_name": "Zeros", "config": {}}, "moving_variance_initializer": {"class_name": "Ones", "config": {}}, "beta_regularizer": null, "gamma_regularizer": null, "beta_constraint": null, "gamma_constraint": null}, "inbound_nodes": [[["conv4_block9_3_conv", 0, 0, {}]]]}, {"name": "conv4_block9_add", "class_name": "Add", "config": {"name": "conv4_block9_add", "trainable": true, "dtype": "float32"}, "inbound_nodes": [[["conv4_block8_out", 0, 0, {}], ["conv4_block9_3_bn", 0, 0, {}]]]}, {"name": "conv4_block9_out", "class_name": "Activation", "config": {"name": "conv4_block9_out", "trainable": true, "dtype": "float32", "activation": "relu"}, "inbound_nodes": [[["conv4_block9_add", 0, 0, {}]]]}, {"name": "conv4_block10_1_conv", "class_name": "Conv2D", "config": {"name": "conv4_block10_1_conv", "trainable": true, "dtype": "float32", "filters": 256, "kernel_size": [1, 1], "strides": [1, 1], "padding": "valid", "data_format": "channels_last", "dilation_rate": [1, 1], "activation": "linear", "use_bias": true, "kernel_initializer": {"class_name": "VarianceScaling", "config": {"scale": 1.0, "mode": "fan_avg", "distribution": "uniform", "seed": null}}, "bias_initializer": {"class_name": "Zeros", "config": {}}, "kernel_regularizer": null, "bias_regularizer": null, "activity_regularizer": null, "kernel_constraint": null, "bias_constraint": null}, "inbound_nodes": [[["conv4_block9_out", 0, 0, {}]]]}, {"name": "conv4_block10_1_bn", "class_name": "BatchNormalization", "config": {"name": "conv4_block10_1_bn", "trainable": true, "dtype": "float32", "axis": 3, "momentum": 0.99, "epsilon": 1.001e-05, "center": true, "scale": true, "beta_initializer": {"class_name": "Zeros", "config": {}}, "gamma_initializer": {"class_name": "Ones", "config": {}}, "moving_mean_initializer": {"class_name": "Zeros", "config": {}}, "moving_variance_initializer": {"class_name": "Ones", "config": {}}, "beta_regularizer": null, "gamma_regularizer": null, "beta_constraint": null, "gamma_constraint": null}, "inbound_nodes": [[["conv4_block10_1_conv", 0, 0, {}]]]}, {"name": "conv4_block10_1_relu", "class_name": "Activation", "config": {"name": "conv4_block10_1_relu", "trainable": true, "dtype": "float32", "activation": "relu"}, "inbound_nodes": [[["conv4_block10_1_bn", 0, 0, {}]]]}, {"name": "conv4_block10_2_conv", "class_name": "Conv2D", "config": {"name": "conv4_block10_2_conv", "trainable": true, "dtype": "float32", "filters": 256, "kernel_size": [3, 3], "strides": [1, 1], "padding": "same", "data_format": "channels_last", "dilation_rate": [1, 1], "activation": "linear", "use_bias": true, "kernel_initializer": {"class_name": "VarianceScaling", "config": {"scale": 1.0, "mode": "fan_avg", "distribution": "uniform", "seed": null}}, "bias_initializer": {"class_name": "Zeros", "config": {}}, "kernel_regularizer": null, "bias_regularizer": null, "activity_regularizer": null, "kernel_constraint": null, "bias_constraint": null}, "inbound_nodes": [[["conv4_block10_1_relu", 0, 0, {}]]]}, {"name": "conv4_block10_2_bn", "class_name": "BatchNormalization", "config": {"name": "conv4_block10_2_bn", "trainable": true, "dtype": "float32", "axis": 3, "momentum": 0.99, "epsilon": 1.001e-05, "center": true, "scale": true, "beta_initializer": {"class_name": "Zeros", "config": {}}, "gamma_initializer": {"class_name": "Ones", "config": {}}, "moving_mean_initializer": {"class_name": "Zeros", "config": {}}, "moving_variance_initializer": {"class_name": "Ones", "config": {}}, "beta_regularizer": null, "gamma_regularizer": null, "beta_constraint": null, "gamma_constraint": null}, "inbound_nodes": [[["conv4_block10_2_conv", 0, 0, {}]]]}, {"name": "conv4_block10_2_relu", "class_name": "Activation", "config": {"name": "conv4_block10_2_relu", "trainable": true, "dtype": "float32", "activation": "relu"}, "inbound_nodes": [[["conv4_block10_2_bn", 0, 0, {}]]]}, {"name": "conv4_block10_3_conv", "class_name": "Conv2D", "config": {"name": "conv4_block10_3_conv", "trainable": true, "dtype": "float32", "filters": 1024, "kernel_size": [1, 1], "strides": [1, 1], "padding": "valid", "data_format": "channels_last", "dilation_rate": [1, 1], "activation": "linear", "use_bias": true, "kernel_initializer": {"class_name": "VarianceScaling", "config": {"scale": 1.0, "mode": "fan_avg", "distribution": "uniform", "seed": null}}, "bias_initializer": {"class_name": "Zeros", "config": {}}, "kernel_regularizer": null, "bias_regularizer": null, "activity_regularizer": null, "kernel_constraint": null, "bias_constraint": null}, "inbound_nodes": [[["conv4_block10_2_relu", 0, 0, {}]]]}, {"name": "conv4_block10_3_bn", "class_name": "BatchNormalization", "config": {"name": "conv4_block10_3_bn", "trainable": true, "dtype": "float32", "axis": 3, "momentum": 0.99, "epsilon": 1.001e-05, "center": true, "scale": true, "beta_initializer": {"class_name": "Zeros", "config": {}}, "gamma_initializer": {"class_name": "Ones", "config": {}}, "moving_mean_initializer": {"class_name": "Zeros", "config": {}}, "moving_variance_initializer": {"class_name": "Ones", "config": {}}, "beta_regularizer": null, "gamma_regularizer": null, "beta_constraint": null, "gamma_constraint": null}, "inbound_nodes": [[["conv4_block10_3_conv", 0, 0, {}]]]}, {"name": "conv4_block10_add", "class_name": "Add", "config": {"name": "conv4_block10_add", "trainable": true, "dtype": "float32"}, "inbound_nodes": [[["conv4_block9_out", 0, 0, {}], ["conv4_block10_3_bn", 0, 0, {}]]]}, {"name": "conv4_block10_out", "class_name": "Activation", "config": {"name": "conv4_block10_out", "trainable": true, "dtype": "float32", "activation": "relu"}, "inbound_nodes": [[["conv4_block10_add", 0, 0, {}]]]}, {"name": "conv4_block11_1_conv", "class_name": "Conv2D", "config": {"name": "conv4_block11_1_conv", "trainable": true, "dtype": "float32", "filters": 256, "kernel_size": [1, 1], "strides": [1, 1], "padding": "valid", "data_format": "channels_last", "dilation_rate": [1, 1], "activation": "linear", "use_bias": true, "kernel_initializer": {"class_name": "VarianceScaling", "config": {"scale": 1.0, "mode": "fan_avg", "distribution": "uniform", "seed": null}}, "bias_initializer": {"class_name": "Zeros", "config": {}}, "kernel_regularizer": null, "bias_regularizer": null, "activity_regularizer": null, "kernel_constraint": null, "bias_constraint": null}, "inbound_nodes": [[["conv4_block10_out", 0, 0, {}]]]}, {"name": "conv4_block11_1_bn", "class_name": "BatchNormalization", "config": {"name": "conv4_block11_1_bn", "trainable": true, "dtype": "float32", "axis": 3, "momentum": 0.99, "epsilon": 1.001e-05, "center": true, "scale": true, "beta_initializer": {"class_name": "Zeros", "config": {}}, "gamma_initializer": {"class_name": "Ones", "config": {}}, "moving_mean_initializer": {"class_name": "Zeros", "config": {}}, "moving_variance_initializer": {"class_name": "Ones", "config": {}}, "beta_regularizer": null, "gamma_regularizer": null, "beta_constraint": null, "gamma_constraint": null}, "inbound_nodes": [[["conv4_block11_1_conv", 0, 0, {}]]]}, {"name": "conv4_block11_1_relu", "class_name": "Activation", "config": {"name": "conv4_block11_1_relu", "trainable": true, "dtype": "float32", "activation": "relu"}, "inbound_nodes": [[["conv4_block11_1_bn", 0, 0, {}]]]}, {"name": "conv4_block11_2_conv", "class_name": "Conv2D", "config": {"name": "conv4_block11_2_conv", "trainable": true, "dtype": "float32", "filters": 256, "kernel_size": [3, 3], "strides": [1, 1], "padding": "same", "data_format": "channels_last", "dilation_rate": [1, 1], "activation": "linear", "use_bias": true, "kernel_initializer": {"class_name": "VarianceScaling", "config": {"scale": 1.0, "mode": "fan_avg", "distribution": "uniform", "seed": null}}, "bias_initializer": {"class_name": "Zeros", "config": {}}, "kernel_regularizer": null, "bias_regularizer": null, "activity_regularizer": null, "kernel_constraint": null, "bias_constraint": null}, "inbound_nodes": [[["conv4_block11_1_relu", 0, 0, {}]]]}, {"name": "conv4_block11_2_bn", "class_name": "BatchNormalization", "config": {"name": "conv4_block11_2_bn", "trainable": true, "dtype": "float32", "axis": 3, "momentum": 0.99, "epsilon": 1.001e-05, "center": true, "scale": true, "beta_initializer": {"class_name": "Zeros", "config": {}}, "gamma_initializer": {"class_name": "Ones", "config": {}}, "moving_mean_initializer": {"class_name": "Zeros", "config": {}}, "moving_variance_initializer": {"class_name": "Ones", "config": {}}, "beta_regularizer": null, "gamma_regularizer": null, "beta_constraint": null, "gamma_constraint": null}, "inbound_nodes": [[["conv4_block11_2_conv", 0, 0, {}]]]}, {"name": "conv4_block11_2_relu", "class_name": "Activation", "config": {"name": "conv4_block11_2_relu", "trainable": true, "dtype": "float32", "activation": "relu"}, "inbound_nodes": [[["conv4_block11_2_bn", 0, 0, {}]]]}, {"name": "conv4_block11_3_conv", "class_name": "Conv2D", "config": {"name": "conv4_block11_3_conv", "trainable": true, "dtype": "float32", "filters": 1024, "kernel_size": [1, 1], "strides": [1, 1], "padding": "valid", "data_format": "channels_last", "dilation_rate": [1, 1], "activation": "linear", "use_bias": true, "kernel_initializer": {"class_name": "VarianceScaling", "config": {"scale": 1.0, "mode": "fan_avg", "distribution": "uniform", "seed": null}}, "bias_initializer": {"class_name": "Zeros", "config": {}}, "kernel_regularizer": null, "bias_regularizer": null, "activity_regularizer": null, "kernel_constraint": null, "bias_constraint": null}, "inbound_nodes": [[["conv4_block11_2_relu", 0, 0, {}]]]}, {"name": "conv4_block11_3_bn", "class_name": "BatchNormalization", "config": {"name": "conv4_block11_3_bn", "trainable": true, "dtype": "float32", "axis": 3, "momentum": 0.99, "epsilon": 1.001e-05, "center": true, "scale": true, "beta_initializer": {"class_name": "Zeros", "config": {}}, "gamma_initializer": {"class_name": "Ones", "config": {}}, "moving_mean_initializer": {"class_name": "Zeros", "config": {}}, "moving_variance_initializer": {"class_name": "Ones", "config": {}}, "beta_regularizer": null, "gamma_regularizer": null, "beta_constraint": null, "gamma_constraint": null}, "inbound_nodes": [[["conv4_block11_3_conv", 0, 0, {}]]]}, {"name": "conv4_block11_add", "class_name": "Add", "config": {"name": "conv4_block11_add", "trainable": true, "dtype": "float32"}, "inbound_nodes": [[["conv4_block10_out", 0, 0, {}], ["conv4_block11_3_bn", 0, 0, {}]]]}, {"name": "conv4_block11_out", "class_name": "Activation", "config": {"name": "conv4_block11_out", "trainable": true, "dtype": "float32", "activation": "relu"}, "inbound_nodes": [[["conv4_block11_add", 0, 0, {}]]]}, {"name": "conv4_block12_1_conv", "class_name": "Conv2D", "config": {"name": "conv4_block12_1_conv", "trainable": true, "dtype": "float32", "filters": 256, "kernel_size": [1, 1], "strides": [1, 1], "padding": "valid", "data_format": "channels_last", "dilation_rate": [1, 1], "activation": "linear", "use_bias": true, "kernel_initializer": {"class_name": "VarianceScaling", "config": {"scale": 1.0, "mode": "fan_avg", "distribution": "uniform", "seed": null}}, "bias_initializer": {"class_name": "Zeros", "config": {}}, "kernel_regularizer": null, "bias_regularizer": null, "activity_regularizer": null, "kernel_constraint": null, "bias_constraint": null}, "inbound_nodes": [[["conv4_block11_out", 0, 0, {}]]]}, {"name": "conv4_block12_1_bn", "class_name": "BatchNormalization", "config": {"name": "conv4_block12_1_bn", "trainable": true, "dtype": "float32", "axis": 3, "momentum": 0.99, "epsilon": 1.001e-05, "center": true, "scale": true, "beta_initializer": {"class_name": "Zeros", "config": {}}, "gamma_initializer": {"class_name": "Ones", "config": {}}, "moving_mean_initializer": {"class_name": "Zeros", "config": {}}, "moving_variance_initializer": {"class_name": "Ones", "config": {}}, "beta_regularizer": null, "gamma_regularizer": null, "beta_constraint": null, "gamma_constraint": null}, "inbound_nodes": [[["conv4_block12_1_conv", 0, 0, {}]]]}, {"name": "conv4_block12_1_relu", "class_name": "Activation", "config": {"name": "conv4_block12_1_relu", "trainable": true, "dtype": "float32", "activation": "relu"}, "inbound_nodes": [[["conv4_block12_1_bn", 0, 0, {}]]]}, {"name": "conv4_block12_2_conv", "class_name": "Conv2D", "config": {"name": "conv4_block12_2_conv", "trainable": true, "dtype": "float32", "filters": 256, "kernel_size": [3, 3], "strides": [1, 1], "padding": "same", "data_format": "channels_last", "dilation_rate": [1, 1], "activation": "linear", "use_bias": true, "kernel_initializer": {"class_name": "VarianceScaling", "config": {"scale": 1.0, "mode": "fan_avg", "distribution": "uniform", "seed": null}}, "bias_initializer": {"class_name": "Zeros", "config": {}}, "kernel_regularizer": null, "bias_regularizer": null, "activity_regularizer": null, "kernel_constraint": null, "bias_constraint": null}, "inbound_nodes": [[["conv4_block12_1_relu", 0, 0, {}]]]}, {"name": "conv4_block12_2_bn", "class_name": "BatchNormalization", "config": {"name": "conv4_block12_2_bn", "trainable": true, "dtype": "float32", "axis": 3, "momentum": 0.99, "epsilon": 1.001e-05, "center": true, "scale": true, "beta_initializer": {"class_name": "Zeros", "config": {}}, "gamma_initializer": {"class_name": "Ones", "config": {}}, "moving_mean_initializer": {"class_name": "Zeros", "config": {}}, "moving_variance_initializer": {"class_name": "Ones", "config": {}}, "beta_regularizer": null, "gamma_regularizer": null, "beta_constraint": null, "gamma_constraint": null}, "inbound_nodes": [[["conv4_block12_2_conv", 0, 0, {}]]]}, {"name": "conv4_block12_2_relu", "class_name": "Activation", "config": {"name": "conv4_block12_2_relu", "trainable": true, "dtype": "float32", "activation": "relu"}, "inbound_nodes": [[["conv4_block12_2_bn", 0, 0, {}]]]}, {"name": "conv4_block12_3_conv", "class_name": "Conv2D", "config": {"name": "conv4_block12_3_conv", "trainable": true, "dtype": "float32", "filters": 1024, "kernel_size": [1, 1], "strides": [1, 1], "padding": "valid", "data_format": "channels_last", "dilation_rate": [1, 1], "activation": "linear", "use_bias": true, "kernel_initializer": {"class_name": "VarianceScaling", "config": {"scale": 1.0, "mode": "fan_avg", "distribution": "uniform", "seed": null}}, "bias_initializer": {"class_name": "Zeros", "config": {}}, "kernel_regularizer": null, "bias_regularizer": null, "activity_regularizer": null, "kernel_constraint": null, "bias_constraint": null}, "inbound_nodes": [[["conv4_block12_2_relu", 0, 0, {}]]]}, {"name": "conv4_block12_3_bn", "class_name": "BatchNormalization", "config": {"name": "conv4_block12_3_bn", "trainable": true, "dtype": "float32", "axis": 3, "momentum": 0.99, "epsilon": 1.001e-05, "center": true, "scale": true, "beta_initializer": {"class_name": "Zeros", "config": {}}, "gamma_initializer": {"class_name": "Ones", "config": {}}, "moving_mean_initializer": {"class_name": "Zeros", "config": {}}, "moving_variance_initializer": {"class_name": "Ones", "config": {}}, "beta_regularizer": null, "gamma_regularizer": null, "beta_constraint": null, "gamma_constraint": null}, "inbound_nodes": [[["conv4_block12_3_conv", 0, 0, {}]]]}, {"name": "conv4_block12_add", "class_name": "Add", "config": {"name": "conv4_block12_add", "trainable": true, "dtype": "float32"}, "inbound_nodes": [[["conv4_block11_out", 0, 0, {}], ["conv4_block12_3_bn", 0, 0, {}]]]}, {"name": "conv4_block12_out", "class_name": "Activation", "config": {"name": "conv4_block12_out", "trainable": true, "dtype": "float32", "activation": "relu"}, "inbound_nodes": [[["conv4_block12_add", 0, 0, {}]]]}, {"name": "conv4_block13_1_conv", "class_name": "Conv2D", "config": {"name": "conv4_block13_1_conv", "trainable": true, "dtype": "float32", "filters": 256, "kernel_size": [1, 1], "strides": [1, 1], "padding": "valid", "data_format": "channels_last", "dilation_rate": [1, 1], "activation": "linear", "use_bias": true, "kernel_initializer": {"class_name": "VarianceScaling", "config": {"scale": 1.0, "mode": "fan_avg", "distribution": "uniform", "seed": null}}, "bias_initializer": {"class_name": "Zeros", "config": {}}, "kernel_regularizer": null, "bias_regularizer": null, "activity_regularizer": null, "kernel_constraint": null, "bias_constraint": null}, "inbound_nodes": [[["conv4_block12_out", 0, 0, {}]]]}, {"name": "conv4_block13_1_bn", "class_name": "BatchNormalization", "config": {"name": "conv4_block13_1_bn", "trainable": true, "dtype": "float32", "axis": 3, "momentum": 0.99, "epsilon": 1.001e-05, "center": true, "scale": true, "beta_initializer": {"class_name": "Zeros", "config": {}}, "gamma_initializer": {"class_name": "Ones", "config": {}}, "moving_mean_initializer": {"class_name": "Zeros", "config": {}}, "moving_variance_initializer": {"class_name": "Ones", "config": {}}, "beta_regularizer": null, "gamma_regularizer": null, "beta_constraint": null, "gamma_constraint": null}, "inbound_nodes": [[["conv4_block13_1_conv", 0, 0, {}]]]}, {"name": "conv4_block13_1_relu", "class_name": "Activation", "config": {"name": "conv4_block13_1_relu", "trainable": true, "dtype": "float32", "activation": "relu"}, "inbound_nodes": [[["conv4_block13_1_bn", 0, 0, {}]]]}, {"name": "conv4_block13_2_conv", "class_name": "Conv2D", "config": {"name": "conv4_block13_2_conv", "trainable": true, "dtype": "float32", "filters": 256, "kernel_size": [3, 3], "strides": [1, 1], "padding": "same", "data_format": "channels_last", "dilation_rate": [1, 1], "activation": "linear", "use_bias": true, "kernel_initializer": {"class_name": "VarianceScaling", "config": {"scale": 1.0, "mode": "fan_avg", "distribution": "uniform", "seed": null}}, "bias_initializer": {"class_name": "Zeros", "config": {}}, "kernel_regularizer": null, "bias_regularizer": null, "activity_regularizer": null, "kernel_constraint": null, "bias_constraint": null}, "inbound_nodes": [[["conv4_block13_1_relu", 0, 0, {}]]]}, {"name": "conv4_block13_2_bn", "class_name": "BatchNormalization", "config": {"name": "conv4_block13_2_bn", "trainable": true, "dtype": "float32", "axis": 3, "momentum": 0.99, "epsilon": 1.001e-05, "center": true, "scale": true, "beta_initializer": {"class_name": "Zeros", "config": {}}, "gamma_initializer": {"class_name": "Ones", "config": {}}, "moving_mean_initializer": {"class_name": "Zeros", "config": {}}, "moving_variance_initializer": {"class_name": "Ones", "config": {}}, "beta_regularizer": null, "gamma_regularizer": null, "beta_constraint": null, "gamma_constraint": null}, "inbound_nodes": [[["conv4_block13_2_conv", 0, 0, {}]]]}, {"name": "conv4_block13_2_relu", "class_name": "Activation", "config": {"name": "conv4_block13_2_relu", "trainable": true, "dtype": "float32", "activation": "relu"}, "inbound_nodes": [[["conv4_block13_2_bn", 0, 0, {}]]]}, {"name": "conv4_block13_3_conv", "class_name": "Conv2D", "config": {"name": "conv4_block13_3_conv", "trainable": true, "dtype": "float32", "filters": 1024, "kernel_size": [1, 1], "strides": [1, 1], "padding": "valid", "data_format": "channels_last", "dilation_rate": [1, 1], "activation": "linear", "use_bias": true, "kernel_initializer": {"class_name": "VarianceScaling", "config": {"scale": 1.0, "mode": "fan_avg", "distribution": "uniform", "seed": null}}, "bias_initializer": {"class_name": "Zeros", "config": {}}, "kernel_regularizer": null, "bias_regularizer": null, "activity_regularizer": null, "kernel_constraint": null, "bias_constraint": null}, "inbound_nodes": [[["conv4_block13_2_relu", 0, 0, {}]]]}, {"name": "conv4_block13_3_bn", "class_name": "BatchNormalization", "config": {"name": "conv4_block13_3_bn", "trainable": true, "dtype": "float32", "axis": 3, "momentum": 0.99, "epsilon": 1.001e-05, "center": true, "scale": true, "beta_initializer": {"class_name": "Zeros", "config": {}}, "gamma_initializer": {"class_name": "Ones", "config": {}}, "moving_mean_initializer": {"class_name": "Zeros", "config": {}}, "moving_variance_initializer": {"class_name": "Ones", "config": {}}, "beta_regularizer": null, "gamma_regularizer": null, "beta_constraint": null, "gamma_constraint": null}, "inbound_nodes": [[["conv4_block13_3_conv", 0, 0, {}]]]}, {"name": "conv4_block13_add", "class_name": "Add", "config": {"name": "conv4_block13_add", "trainable": true, "dtype": "float32"}, "inbound_nodes": [[["conv4_block12_out", 0, 0, {}], ["conv4_block13_3_bn", 0, 0, {}]]]}, {"name": "conv4_block13_out", "class_name": "Activation", "config": {"name": "conv4_block13_out", "trainable": true, "dtype": "float32", "activation": "relu"}, "inbound_nodes": [[["conv4_block13_add", 0, 0, {}]]]}, {"name": "conv4_block14_1_conv", "class_name": "Conv2D", "config": {"name": "conv4_block14_1_conv", "trainable": true, "dtype": "float32", "filters": 256, "kernel_size": [1, 1], "strides": [1, 1], "padding": "valid", "data_format": "channels_last", "dilation_rate": [1, 1], "activation": "linear", "use_bias": true, "kernel_initializer": {"class_name": "VarianceScaling", "config": {"scale": 1.0, "mode": "fan_avg", "distribution": "uniform", "seed": null}}, "bias_initializer": {"class_name": "Zeros", "config": {}}, "kernel_regularizer": null, "bias_regularizer": null, "activity_regularizer": null, "kernel_constraint": null, "bias_constraint": null}, "inbound_nodes": [[["conv4_block13_out", 0, 0, {}]]]}, {"name": "conv4_block14_1_bn", "class_name": "BatchNormalization", "config": {"name": "conv4_block14_1_bn", "trainable": true, "dtype": "float32", "axis": 3, "momentum": 0.99, "epsilon": 1.001e-05, "center": true, "scale": true, "beta_initializer": {"class_name": "Zeros", "config": {}}, "gamma_initializer": {"class_name": "Ones", "config": {}}, "moving_mean_initializer": {"class_name": "Zeros", "config": {}}, "moving_variance_initializer": {"class_name": "Ones", "config": {}}, "beta_regularizer": null, "gamma_regularizer": null, "beta_constraint": null, "gamma_constraint": null}, "inbound_nodes": [[["conv4_block14_1_conv", 0, 0, {}]]]}, {"name": "conv4_block14_1_relu", "class_name": "Activation", "config": {"name": "conv4_block14_1_relu", "trainable": true, "dtype": "float32", "activation": "relu"}, "inbound_nodes": [[["conv4_block14_1_bn", 0, 0, {}]]]}, {"name": "conv4_block14_2_conv", "class_name": "Conv2D", "config": {"name": "conv4_block14_2_conv", "trainable": true, "dtype": "float32", "filters": 256, "kernel_size": [3, 3], "strides": [1, 1], "padding": "same", "data_format": "channels_last", "dilation_rate": [1, 1], "activation": "linear", "use_bias": true, "kernel_initializer": {"class_name": "VarianceScaling", "config": {"scale": 1.0, "mode": "fan_avg", "distribution": "uniform", "seed": null}}, "bias_initializer": {"class_name": "Zeros", "config": {}}, "kernel_regularizer": null, "bias_regularizer": null, "activity_regularizer": null, "kernel_constraint": null, "bias_constraint": null}, "inbound_nodes": [[["conv4_block14_1_relu", 0, 0, {}]]]}, {"name": "conv4_block14_2_bn", "class_name": "BatchNormalization", "config": {"name": "conv4_block14_2_bn", "trainable": true, "dtype": "float32", "axis": 3, "momentum": 0.99, "epsilon": 1.001e-05, "center": true, "scale": true, "beta_initializer": {"class_name": "Zeros", "config": {}}, "gamma_initializer": {"class_name": "Ones", "config": {}}, "moving_mean_initializer": {"class_name": "Zeros", "config": {}}, "moving_variance_initializer": {"class_name": "Ones", "config": {}}, "beta_regularizer": null, "gamma_regularizer": null, "beta_constraint": null, "gamma_constraint": null}, "inbound_nodes": [[["conv4_block14_2_conv", 0, 0, {}]]]}, {"name": "conv4_block14_2_relu", "class_name": "Activation", "config": {"name": "conv4_block14_2_relu", "trainable": true, "dtype": "float32", "activation": "relu"}, "inbound_nodes": [[["conv4_block14_2_bn", 0, 0, {}]]]}, {"name": "conv4_block14_3_conv", "class_name": "Conv2D", "config": {"name": "conv4_block14_3_conv", "trainable": true, "dtype": "float32", "filters": 1024, "kernel_size": [1, 1], "strides": [1, 1], "padding": "valid", "data_format": "channels_last", "dilation_rate": [1, 1], "activation": "linear", "use_bias": true, "kernel_initializer": {"class_name": "VarianceScaling", "config": {"scale": 1.0, "mode": "fan_avg", "distribution": "uniform", "seed": null}}, "bias_initializer": {"class_name": "Zeros", "config": {}}, "kernel_regularizer": null, "bias_regularizer": null, "activity_regularizer": null, "kernel_constraint": null, "bias_constraint": null}, "inbound_nodes": [[["conv4_block14_2_relu", 0, 0, {}]]]}, {"name": "conv4_block14_3_bn", "class_name": "BatchNormalization", "config": {"name": "conv4_block14_3_bn", "trainable": true, "dtype": "float32", "axis": 3, "momentum": 0.99, "epsilon": 1.001e-05, "center": true, "scale": true, "beta_initializer": {"class_name": "Zeros", "config": {}}, "gamma_initializer": {"class_name": "Ones", "config": {}}, "moving_mean_initializer": {"class_name": "Zeros", "config": {}}, "moving_variance_initializer": {"class_name": "Ones", "config": {}}, "beta_regularizer": null, "gamma_regularizer": null, "beta_constraint": null, "gamma_constraint": null}, "inbound_nodes": [[["conv4_block14_3_conv", 0, 0, {}]]]}, {"name": "conv4_block14_add", "class_name": "Add", "config": {"name": "conv4_block14_add", "trainable": true, "dtype": "float32"}, "inbound_nodes": [[["conv4_block13_out", 0, 0, {}], ["conv4_block14_3_bn", 0, 0, {}]]]}, {"name": "conv4_block14_out", "class_name": "Activation", "config": {"name": "conv4_block14_out", "trainable": true, "dtype": "float32", "activation": "relu"}, "inbound_nodes": [[["conv4_block14_add", 0, 0, {}]]]}, {"name": "conv4_block15_1_conv", "class_name": "Conv2D", "config": {"name": "conv4_block15_1_conv", "trainable": true, "dtype": "float32", "filters": 256, "kernel_size": [1, 1], "strides": [1, 1], "padding": "valid", "data_format": "channels_last", "dilation_rate": [1, 1], "activation": "linear", "use_bias": true, "kernel_initializer": {"class_name": "VarianceScaling", "config": {"scale": 1.0, "mode": "fan_avg", "distribution": "uniform", "seed": null}}, "bias_initializer": {"class_name": "Zeros", "config": {}}, "kernel_regularizer": null, "bias_regularizer": null, "activity_regularizer": null, "kernel_constraint": null, "bias_constraint": null}, "inbound_nodes": [[["conv4_block14_out", 0, 0, {}]]]}, {"name": "conv4_block15_1_bn", "class_name": "BatchNormalization", "config": {"name": "conv4_block15_1_bn", "trainable": true, "dtype": "float32", "axis": 3, "momentum": 0.99, "epsilon": 1.001e-05, "center": true, "scale": true, "beta_initializer": {"class_name": "Zeros", "config": {}}, "gamma_initializer": {"class_name": "Ones", "config": {}}, "moving_mean_initializer": {"class_name": "Zeros", "config": {}}, "moving_variance_initializer": {"class_name": "Ones", "config": {}}, "beta_regularizer": null, "gamma_regularizer": null, "beta_constraint": null, "gamma_constraint": null}, "inbound_nodes": [[["conv4_block15_1_conv", 0, 0, {}]]]}, {"name": "conv4_block15_1_relu", "class_name": "Activation", "config": {"name": "conv4_block15_1_relu", "trainable": true, "dtype": "float32", "activation": "relu"}, "inbound_nodes": [[["conv4_block15_1_bn", 0, 0, {}]]]}, {"name": "conv4_block15_2_conv", "class_name": "Conv2D", "config": {"name": "conv4_block15_2_conv", "trainable": true, "dtype": "float32", "filters": 256, "kernel_size": [3, 3], "strides": [1, 1], "padding": "same", "data_format": "channels_last", "dilation_rate": [1, 1], "activation": "linear", "use_bias": true, "kernel_initializer": {"class_name": "VarianceScaling", "config": {"scale": 1.0, "mode": "fan_avg", "distribution": "uniform", "seed": null}}, "bias_initializer": {"class_name": "Zeros", "config": {}}, "kernel_regularizer": null, "bias_regularizer": null, "activity_regularizer": null, "kernel_constraint": null, "bias_constraint": null}, "inbound_nodes": [[["conv4_block15_1_relu", 0, 0, {}]]]}, {"name": "conv4_block15_2_bn", "class_name": "BatchNormalization", "config": {"name": "conv4_block15_2_bn", "trainable": true, "dtype": "float32", "axis": 3, "momentum": 0.99, "epsilon": 1.001e-05, "center": true, "scale": true, "beta_initializer": {"class_name": "Zeros", "config": {}}, "gamma_initializer": {"class_name": "Ones", "config": {}}, "moving_mean_initializer": {"class_name": "Zeros", "config": {}}, "moving_variance_initializer": {"class_name": "Ones", "config": {}}, "beta_regularizer": null, "gamma_regularizer": null, "beta_constraint": null, "gamma_constraint": null}, "inbound_nodes": [[["conv4_block15_2_conv", 0, 0, {}]]]}, {"name": "conv4_block15_2_relu", "class_name": "Activation", "config": {"name": "conv4_block15_2_relu", "trainable": true, "dtype": "float32", "activation": "relu"}, "inbound_nodes": [[["conv4_block15_2_bn", 0, 0, {}]]]}, {"name": "conv4_block15_3_conv", "class_name": "Conv2D", "config": {"name": "conv4_block15_3_conv", "trainable": true, "dtype": "float32", "filters": 1024, "kernel_size": [1, 1], "strides": [1, 1], "padding": "valid", "data_format": "channels_last", "dilation_rate": [1, 1], "activation": "linear", "use_bias": true, "kernel_initializer": {"class_name": "VarianceScaling", "config": {"scale": 1.0, "mode": "fan_avg", "distribution": "uniform", "seed": null}}, "bias_initializer": {"class_name": "Zeros", "config": {}}, "kernel_regularizer": null, "bias_regularizer": null, "activity_regularizer": null, "kernel_constraint": null, "bias_constraint": null}, "inbound_nodes": [[["conv4_block15_2_relu", 0, 0, {}]]]}, {"name": "conv4_block15_3_bn", "class_name": "BatchNormalization", "config": {"name": "conv4_block15_3_bn", "trainable": true, "dtype": "float32", "axis": 3, "momentum": 0.99, "epsilon": 1.001e-05, "center": true, "scale": true, "beta_initializer": {"class_name": "Zeros", "config": {}}, "gamma_initializer": {"class_name": "Ones", "config": {}}, "moving_mean_initializer": {"class_name": "Zeros", "config": {}}, "moving_variance_initializer": {"class_name": "Ones", "config": {}}, "beta_regularizer": null, "gamma_regularizer": null, "beta_constraint": null, "gamma_constraint": null}, "inbound_nodes": [[["conv4_block15_3_conv", 0, 0, {}]]]}, {"name": "conv4_block15_add", "class_name": "Add", "config": {"name": "conv4_block15_add", "trainable": true, "dtype": "float32"}, "inbound_nodes": [[["conv4_block14_out", 0, 0, {}], ["conv4_block15_3_bn", 0, 0, {}]]]}, {"name": "conv4_block15_out", "class_name": "Activation", "config": {"name": "conv4_block15_out", "trainable": true, "dtype": "float32", "activation": "relu"}, "inbound_nodes": [[["conv4_block15_add", 0, 0, {}]]]}, {"name": "conv4_block16_1_conv", "class_name": "Conv2D", "config": {"name": "conv4_block16_1_conv", "trainable": true, "dtype": "float32", "filters": 256, "kernel_size": [1, 1], "strides": [1, 1], "padding": "valid", "data_format": "channels_last", "dilation_rate": [1, 1], "activation": "linear", "use_bias": true, "kernel_initializer": {"class_name": "VarianceScaling", "config": {"scale": 1.0, "mode": "fan_avg", "distribution": "uniform", "seed": null}}, "bias_initializer": {"class_name": "Zeros", "config": {}}, "kernel_regularizer": null, "bias_regularizer": null, "activity_regularizer": null, "kernel_constraint": null, "bias_constraint": null}, "inbound_nodes": [[["conv4_block15_out", 0, 0, {}]]]}, {"name": "conv4_block16_1_bn", "class_name": "BatchNormalization", "config": {"name": "conv4_block16_1_bn", "trainable": true, "dtype": "float32", "axis": 3, "momentum": 0.99, "epsilon": 1.001e-05, "center": true, "scale": true, "beta_initializer": {"class_name": "Zeros", "config": {}}, "gamma_initializer": {"class_name": "Ones", "config": {}}, "moving_mean_initializer": {"class_name": "Zeros", "config": {}}, "moving_variance_initializer": {"class_name": "Ones", "config": {}}, "beta_regularizer": null, "gamma_regularizer": null, "beta_constraint": null, "gamma_constraint": null}, "inbound_nodes": [[["conv4_block16_1_conv", 0, 0, {}]]]}, {"name": "conv4_block16_1_relu", "class_name": "Activation", "config": {"name": "conv4_block16_1_relu", "trainable": true, "dtype": "float32", "activation": "relu"}, "inbound_nodes": [[["conv4_block16_1_bn", 0, 0, {}]]]}, {"name": "conv4_block16_2_conv", "class_name": "Conv2D", "config": {"name": "conv4_block16_2_conv", "trainable": true, "dtype": "float32", "filters": 256, "kernel_size": [3, 3], "strides": [1, 1], "padding": "same", "data_format": "channels_last", "dilation_rate": [1, 1], "activation": "linear", "use_bias": true, "kernel_initializer": {"class_name": "VarianceScaling", "config": {"scale": 1.0, "mode": "fan_avg", "distribution": "uniform", "seed": null}}, "bias_initializer": {"class_name": "Zeros", "config": {}}, "kernel_regularizer": null, "bias_regularizer": null, "activity_regularizer": null, "kernel_constraint": null, "bias_constraint": null}, "inbound_nodes": [[["conv4_block16_1_relu", 0, 0, {}]]]}, {"name": "conv4_block16_2_bn", "class_name": "BatchNormalization", "config": {"name": "conv4_block16_2_bn", "trainable": true, "dtype": "float32", "axis": 3, "momentum": 0.99, "epsilon": 1.001e-05, "center": true, "scale": true, "beta_initializer": {"class_name": "Zeros", "config": {}}, "gamma_initializer": {"class_name": "Ones", "config": {}}, "moving_mean_initializer": {"class_name": "Zeros", "config": {}}, "moving_variance_initializer": {"class_name": "Ones", "config": {}}, "beta_regularizer": null, "gamma_regularizer": null, "beta_constraint": null, "gamma_constraint": null}, "inbound_nodes": [[["conv4_block16_2_conv", 0, 0, {}]]]}, {"name": "conv4_block16_2_relu", "class_name": "Activation", "config": {"name": "conv4_block16_2_relu", "trainable": true, "dtype": "float32", "activation": "relu"}, "inbound_nodes": [[["conv4_block16_2_bn", 0, 0, {}]]]}, {"name": "conv4_block16_3_conv", "class_name": "Conv2D", "config": {"name": "conv4_block16_3_conv", "trainable": true, "dtype": "float32", "filters": 1024, "kernel_size": [1, 1], "strides": [1, 1], "padding": "valid", "data_format": "channels_last", "dilation_rate": [1, 1], "activation": "linear", "use_bias": true, "kernel_initializer": {"class_name": "VarianceScaling", "config": {"scale": 1.0, "mode": "fan_avg", "distribution": "uniform", "seed": null}}, "bias_initializer": {"class_name": "Zeros", "config": {}}, "kernel_regularizer": null, "bias_regularizer": null, "activity_regularizer": null, "kernel_constraint": null, "bias_constraint": null}, "inbound_nodes": [[["conv4_block16_2_relu", 0, 0, {}]]]}, {"name": "conv4_block16_3_bn", "class_name": "BatchNormalization", "config": {"name": "conv4_block16_3_bn", "trainable": true, "dtype": "float32", "axis": 3, "momentum": 0.99, "epsilon": 1.001e-05, "center": true, "scale": true, "beta_initializer": {"class_name": "Zeros", "config": {}}, "gamma_initializer": {"class_name": "Ones", "config": {}}, "moving_mean_initializer": {"class_name": "Zeros", "config": {}}, "moving_variance_initializer": {"class_name": "Ones", "config": {}}, "beta_regularizer": null, "gamma_regularizer": null, "beta_constraint": null, "gamma_constraint": null}, "inbound_nodes": [[["conv4_block16_3_conv", 0, 0, {}]]]}, {"name": "conv4_block16_add", "class_name": "Add", "config": {"name": "conv4_block16_add", "trainable": true, "dtype": "float32"}, "inbound_nodes": [[["conv4_block15_out", 0, 0, {}], ["conv4_block16_3_bn", 0, 0, {}]]]}, {"name": "conv4_block16_out", "class_name": "Activation", "config": {"name": "conv4_block16_out", "trainable": true, "dtype": "float32", "activation": "relu"}, "inbound_nodes": [[["conv4_block16_add", 0, 0, {}]]]}, {"name": "conv4_block17_1_conv", "class_name": "Conv2D", "config": {"name": "conv4_block17_1_conv", "trainable": true, "dtype": "float32", "filters": 256, "kernel_size": [1, 1], "strides": [1, 1], "padding": "valid", "data_format": "channels_last", "dilation_rate": [1, 1], "activation": "linear", "use_bias": true, "kernel_initializer": {"class_name": "VarianceScaling", "config": {"scale": 1.0, "mode": "fan_avg", "distribution": "uniform", "seed": null}}, "bias_initializer": {"class_name": "Zeros", "config": {}}, "kernel_regularizer": null, "bias_regularizer": null, "activity_regularizer": null, "kernel_constraint": null, "bias_constraint": null}, "inbound_nodes": [[["conv4_block16_out", 0, 0, {}]]]}, {"name": "conv4_block17_1_bn", "class_name": "BatchNormalization", "config": {"name": "conv4_block17_1_bn", "trainable": true, "dtype": "float32", "axis": 3, "momentum": 0.99, "epsilon": 1.001e-05, "center": true, "scale": true, "beta_initializer": {"class_name": "Zeros", "config": {}}, "gamma_initializer": {"class_name": "Ones", "config": {}}, "moving_mean_initializer": {"class_name": "Zeros", "config": {}}, "moving_variance_initializer": {"class_name": "Ones", "config": {}}, "beta_regularizer": null, "gamma_regularizer": null, "beta_constraint": null, "gamma_constraint": null}, "inbound_nodes": [[["conv4_block17_1_conv", 0, 0, {}]]]}, {"name": "conv4_block17_1_relu", "class_name": "Activation", "config": {"name": "conv4_block17_1_relu", "trainable": true, "dtype": "float32", "activation": "relu"}, "inbound_nodes": [[["conv4_block17_1_bn", 0, 0, {}]]]}, {"name": "conv4_block17_2_conv", "class_name": "Conv2D", "config": {"name": "conv4_block17_2_conv", "trainable": true, "dtype": "float32", "filters": 256, "kernel_size": [3, 3], "strides": [1, 1], "padding": "same", "data_format": "channels_last", "dilation_rate": [1, 1], "activation": "linear", "use_bias": true, "kernel_initializer": {"class_name": "VarianceScaling", "config": {"scale": 1.0, "mode": "fan_avg", "distribution": "uniform", "seed": null}}, "bias_initializer": {"class_name": "Zeros", "config": {}}, "kernel_regularizer": null, "bias_regularizer": null, "activity_regularizer": null, "kernel_constraint": null, "bias_constraint": null}, "inbound_nodes": [[["conv4_block17_1_relu", 0, 0, {}]]]}, {"name": "conv4_block17_2_bn", "class_name": "BatchNormalization", "config": {"name": "conv4_block17_2_bn", "trainable": true, "dtype": "float32", "axis": 3, "momentum": 0.99, "epsilon": 1.001e-05, "center": true, "scale": true, "beta_initializer": {"class_name": "Zeros", "config": {}}, "gamma_initializer": {"class_name": "Ones", "config": {}}, "moving_mean_initializer": {"class_name": "Zeros", "config": {}}, "moving_variance_initializer": {"class_name": "Ones", "config": {}}, "beta_regularizer": null, "gamma_regularizer": null, "beta_constraint": null, "gamma_constraint": null}, "inbound_nodes": [[["conv4_block17_2_conv", 0, 0, {}]]]}, {"name": "conv4_block17_2_relu", "class_name": "Activation", "config": {"name": "conv4_block17_2_relu", "trainable": true, "dtype": "float32", "activation": "relu"}, "inbound_nodes": [[["conv4_block17_2_bn", 0, 0, {}]]]}, {"name": "conv4_block17_3_conv", "class_name": "Conv2D", "config": {"name": "conv4_block17_3_conv", "trainable": true, "dtype": "float32", "filters": 1024, "kernel_size": [1, 1], "strides": [1, 1], "padding": "valid", "data_format": "channels_last", "dilation_rate": [1, 1], "activation": "linear", "use_bias": true, "kernel_initializer": {"class_name": "VarianceScaling", "config": {"scale": 1.0, "mode": "fan_avg", "distribution": "uniform", "seed": null}}, "bias_initializer": {"class_name": "Zeros", "config": {}}, "kernel_regularizer": null, "bias_regularizer": null, "activity_regularizer": null, "kernel_constraint": null, "bias_constraint": null}, "inbound_nodes": [[["conv4_block17_2_relu", 0, 0, {}]]]}, {"name": "conv4_block17_3_bn", "class_name": "BatchNormalization", "config": {"name": "conv4_block17_3_bn", "trainable": true, "dtype": "float32", "axis": 3, "momentum": 0.99, "epsilon": 1.001e-05, "center": true, "scale": true, "beta_initializer": {"class_name": "Zeros", "config": {}}, "gamma_initializer": {"class_name": "Ones", "config": {}}, "moving_mean_initializer": {"class_name": "Zeros", "config": {}}, "moving_variance_initializer": {"class_name": "Ones", "config": {}}, "beta_regularizer": null, "gamma_regularizer": null, "beta_constraint": null, "gamma_constraint": null}, "inbound_nodes": [[["conv4_block17_3_conv", 0, 0, {}]]]}, {"name": "conv4_block17_add", "class_name": "Add", "config": {"name": "conv4_block17_add", "trainable": true, "dtype": "float32"}, "inbound_nodes": [[["conv4_block16_out", 0, 0, {}], ["conv4_block17_3_bn", 0, 0, {}]]]}, {"name": "conv4_block17_out", "class_name": "Activation", "config": {"name": "conv4_block17_out", "trainable": true, "dtype": "float32", "activation": "relu"}, "inbound_nodes": [[["conv4_block17_add", 0, 0, {}]]]}, {"name": "conv4_block18_1_conv", "class_name": "Conv2D", "config": {"name": "conv4_block18_1_conv", "trainable": true, "dtype": "float32", "filters": 256, "kernel_size": [1, 1], "strides": [1, 1], "padding": "valid", "data_format": "channels_last", "dilation_rate": [1, 1], "activation": "linear", "use_bias": true, "kernel_initializer": {"class_name": "VarianceScaling", "config": {"scale": 1.0, "mode": "fan_avg", "distribution": "uniform", "seed": null}}, "bias_initializer": {"class_name": "Zeros", "config": {}}, "kernel_regularizer": null, "bias_regularizer": null, "activity_regularizer": null, "kernel_constraint": null, "bias_constraint": null}, "inbound_nodes": [[["conv4_block17_out", 0, 0, {}]]]}, {"name": "conv4_block18_1_bn", "class_name": "BatchNormalization", "config": {"name": "conv4_block18_1_bn", "trainable": true, "dtype": "float32", "axis": 3, "momentum": 0.99, "epsilon": 1.001e-05, "center": true, "scale": true, "beta_initializer": {"class_name": "Zeros", "config": {}}, "gamma_initializer": {"class_name": "Ones", "config": {}}, "moving_mean_initializer": {"class_name": "Zeros", "config": {}}, "moving_variance_initializer": {"class_name": "Ones", "config": {}}, "beta_regularizer": null, "gamma_regularizer": null, "beta_constraint": null, "gamma_constraint": null}, "inbound_nodes": [[["conv4_block18_1_conv", 0, 0, {}]]]}, {"name": "conv4_block18_1_relu", "class_name": "Activation", "config": {"name": "conv4_block18_1_relu", "trainable": true, "dtype": "float32", "activation": "relu"}, "inbound_nodes": [[["conv4_block18_1_bn", 0, 0, {}]]]}, {"name": "conv4_block18_2_conv", "class_name": "Conv2D", "config": {"name": "conv4_block18_2_conv", "trainable": true, "dtype": "float32", "filters": 256, "kernel_size": [3, 3], "strides": [1, 1], "padding": "same", "data_format": "channels_last", "dilation_rate": [1, 1], "activation": "linear", "use_bias": true, "kernel_initializer": {"class_name": "VarianceScaling", "config": {"scale": 1.0, "mode": "fan_avg", "distribution": "uniform", "seed": null}}, "bias_initializer": {"class_name": "Zeros", "config": {}}, "kernel_regularizer": null, "bias_regularizer": null, "activity_regularizer": null, "kernel_constraint": null, "bias_constraint": null}, "inbound_nodes": [[["conv4_block18_1_relu", 0, 0, {}]]]}, {"name": "conv4_block18_2_bn", "class_name": "BatchNormalization", "config": {"name": "conv4_block18_2_bn", "trainable": true, "dtype": "float32", "axis": 3, "momentum": 0.99, "epsilon": 1.001e-05, "center": true, "scale": true, "beta_initializer": {"class_name": "Zeros", "config": {}}, "gamma_initializer": {"class_name": "Ones", "config": {}}, "moving_mean_initializer": {"class_name": "Zeros", "config": {}}, "moving_variance_initializer": {"class_name": "Ones", "config": {}}, "beta_regularizer": null, "gamma_regularizer": null, "beta_constraint": null, "gamma_constraint": null}, "inbound_nodes": [[["conv4_block18_2_conv", 0, 0, {}]]]}, {"name": "conv4_block18_2_relu", "class_name": "Activation", "config": {"name": "conv4_block18_2_relu", "trainable": true, "dtype": "float32", "activation": "relu"}, "inbound_nodes": [[["conv4_block18_2_bn", 0, 0, {}]]]}, {"name": "conv4_block18_3_conv", "class_name": "Conv2D", "config": {"name": "conv4_block18_3_conv", "trainable": true, "dtype": "float32", "filters": 1024, "kernel_size": [1, 1], "strides": [1, 1], "padding": "valid", "data_format": "channels_last", "dilation_rate": [1, 1], "activation": "linear", "use_bias": true, "kernel_initializer": {"class_name": "VarianceScaling", "config": {"scale": 1.0, "mode": "fan_avg", "distribution": "uniform", "seed": null}}, "bias_initializer": {"class_name": "Zeros", "config": {}}, "kernel_regularizer": null, "bias_regularizer": null, "activity_regularizer": null, "kernel_constraint": null, "bias_constraint": null}, "inbound_nodes": [[["conv4_block18_2_relu", 0, 0, {}]]]}, {"name": "conv4_block18_3_bn", "class_name": "BatchNormalization", "config": {"name": "conv4_block18_3_bn", "trainable": true, "dtype": "float32", "axis": 3, "momentum": 0.99, "epsilon": 1.001e-05, "center": true, "scale": true, "beta_initializer": {"class_name": "Zeros", "config": {}}, "gamma_initializer": {"class_name": "Ones", "config": {}}, "moving_mean_initializer": {"class_name": "Zeros", "config": {}}, "moving_variance_initializer": {"class_name": "Ones", "config": {}}, "beta_regularizer": null, "gamma_regularizer": null, "beta_constraint": null, "gamma_constraint": null}, "inbound_nodes": [[["conv4_block18_3_conv", 0, 0, {}]]]}, {"name": "conv4_block18_add", "class_name": "Add", "config": {"name": "conv4_block18_add", "trainable": true, "dtype": "float32"}, "inbound_nodes": [[["conv4_block17_out", 0, 0, {}], ["conv4_block18_3_bn", 0, 0, {}]]]}, {"name": "conv4_block18_out", "class_name": "Activation", "config": {"name": "conv4_block18_out", "trainable": true, "dtype": "float32", "activation": "relu"}, "inbound_nodes": [[["conv4_block18_add", 0, 0, {}]]]}, {"name": "conv4_block19_1_conv", "class_name": "Conv2D", "config": {"name": "conv4_block19_1_conv", "trainable": true, "dtype": "float32", "filters": 256, "kernel_size": [1, 1], "strides": [1, 1], "padding": "valid", "data_format": "channels_last", "dilation_rate": [1, 1], "activation": "linear", "use_bias": true, "kernel_initializer": {"class_name": "VarianceScaling", "config": {"scale": 1.0, "mode": "fan_avg", "distribution": "uniform", "seed": null}}, "bias_initializer": {"class_name": "Zeros", "config": {}}, "kernel_regularizer": null, "bias_regularizer": null, "activity_reg…
conv4_block30_2_conv", "trainable": true, "dtype": "float32", "filters": 256, "kernel_size": [3, 3], "strides": [1, 1], "padding": "same", "data_format": "channels_last", "dilation_rate": [1, 1], "activation": "linear", "use_bias": true, "kernel_initializer": {"class_name": "VarianceScaling", "config": {"scale": 1.0, "mode": "fan_avg", "distribution": "uniform", "seed": null}}, "bias_initializer": {"class_name": "Zeros", "config": {}}, "kernel_regularizer": null, "bias_regularizer": null, "activity_regularizer": null, "kernel_constraint": null, "bias_constraint": null}, "inbound_nodes": [[["conv4_block30_1_relu", 0, 0, {}]]]}, {"name": "conv4_block30_2_bn", "class_name": "BatchNormalization", "config": {"name": "conv4_block30_2_bn", "trainable": true, "dtype": "float32", "axis": 3, "momentum": 0.99, "epsilon": 1.001e-05, "center": true, "scale": true, "beta_initializer": {"class_name": "Zeros", "config": {}}, "gamma_initializer": {"class_name": "Ones", "config": {}}, "moving_mean_initializer": {"class_name": "Zeros", "config": {}}, "moving_variance_initializer": {"class_name": "Ones", "config": {}}, "beta_regularizer": null, "gamma_regularizer": null, "beta_constraint": null, "gamma_constraint": null}, "inbound_nodes": [[["conv4_block30_2_conv", 0, 0, {}]]]}, {"name": "conv4_block30_2_relu", "class_name": "Activation", "config": {"name": "conv4_block30_2_relu", "trainable": true, "dtype": "float32", "activation": "relu"}, "inbound_nodes": [[["conv4_block30_2_bn", 0, 0, {}]]]}, {"name": "conv4_block30_3_conv", "class_name": "Conv2D", "config": {"name": "conv4_block30_3_conv", "trainable": true, "dtype": "float32", "filters": 1024, "kernel_size": [1, 1], "strides": [1, 1], "padding": "valid", "data_format": "channels_last", "dilation_rate": [1, 1], "activation": "linear", "use_bias": true, "kernel_initializer": {"class_name": "VarianceScaling", "config": {"scale": 1.0, "mode": "fan_avg", "distribution": "uniform", "seed": null}}, "bias_initializer": {"class_name": "Zeros", "config": {}}, "kernel_regularizer": null, "bias_regularizer": null, "activity_regularizer": null, "kernel_constraint": null, "bias_constraint": null}, "inbound_nodes": [[["conv4_block30_2_relu", 0, 0, {}]]]}, {"name": "conv4_block30_3_bn", "class_name": "BatchNormalization", "config": {"name": "conv4_block30_3_bn", "trainable": true, "dtype": "float32", "axis": 3, "momentum": 0.99, "epsilon": 1.001e-05, "center": true, "scale": true, "beta_initializer": {"class_name": "Zeros", "config": {}}, "gamma_initializer": {"class_name": "Ones", "config": {}}, "moving_mean_initializer": {"class_name": "Zeros", "config": {}}, "moving_variance_initializer": {"class_name": "Ones", "config": {}}, "beta_regularizer": null, "gamma_regularizer": null, "beta_constraint": null, "gamma_constraint": null}, "inbound_nodes": [[["conv4_block30_3_conv", 0, 0, {}]]]}, {"name": "conv4_block30_add", "class_name": "Add", "config": {"name": "conv4_block30_add", "trainable": true, "dtype": "float32"}, "inbound_nodes": [[["conv4_block29_out", 0, 0, {}], ["conv4_block30_3_bn", 0, 0, {}]]]}, {"name": "conv4_block30_out", "class_name": "Activation", "config": {"name": "conv4_block30_out", "trainable": true, "dtype": "float32", "activation": "relu"}, "inbound_nodes": [[["conv4_block30_add", 0, 0, {}]]]}, {"name": "conv4_block31_1_conv", "class_name": "Conv2D", "config": {"name": "conv4_block31_1_conv", "trainable": true, "dtype": "float32", "filters": 256, "kernel_size": [1, 1], "strides": [1, 1], "padding": "valid", "data_format": "channels_last", "dilation_rate": [1, 1], "activation": "linear", "use_bias": true, "kernel_initializer": {"class_name": "VarianceScaling", "config": {"scale": 1.0, "mode": "fan_avg", "distribution": "uniform", "seed": null}}, "bias_initializer": {"class_name": "Zeros", "config": {}}, "kernel_regularizer": null, "bias_regularizer": null, "activity_regularizer": null, "kernel_constraint": null, "bias_constraint": null}, "inbound_nodes": [[["conv4_block30_out", 0, 0, {}]]]}, {"name": "conv4_block31_1_bn", "class_name": "BatchNormalization", "config": {"name": "conv4_block31_1_bn", "trainable": true, "dtype": "float32", "axis": 3, "momentum": 0.99, "epsilon": 1.001e-05, "center": true, "scale": true, "beta_initializer": {"class_name": "Zeros", "config": {}}, "gamma_initializer": {"class_name": "Ones", "config": {}}, "moving_mean_initializer": {"class_name": "Zeros", "config": {}}, "moving_variance_initializer": {"class_name": "Ones", "config": {}}, "beta_regularizer": null, "gamma_regularizer": null, "beta_constraint": null, "gamma_constraint": null}, "inbound_nodes": [[["conv4_block31_1_conv", 0, 0, {}]]]}, {"name": "conv4_block31_1_relu", "class_name": "Activation", "config": {"name": "conv4_block31_1_relu", "trainable": true, "dtype": "float32", "activation": "relu"}, "inbound_nodes": [[["conv4_block31_1_bn", 0, 0, {}]]]}, {"name": "conv4_block31_2_conv", "class_name": "Conv2D", "config": {"name": "conv4_block31_2_conv", "trainable": true, "dtype": "float32", "filters": 256, "kernel_size": [3, 3], "strides": [1, 1], "padding": "same", "data_format": "channels_last", "dilation_rate": [1, 1], "activation": "linear", "use_bias": true, "kernel_initializer": {"class_name": "VarianceScaling", "config": {"scale": 1.0, "mode": "fan_avg", "distribution": "uniform", "seed": null}}, "bias_initializer": {"class_name": "Zeros", "config": {}}, "kernel_regularizer": null, "bias_regularizer": null, "activity_regularizer": null, "kernel_constraint": null, "bias_constraint": null}, "inbound_nodes": [[["conv4_block31_1_relu", 0, 0, {}]]]}, {"name": "conv4_block31_2_bn", "class_name": "BatchNormalization", "config": {"name": "conv4_block31_2_bn", "trainable": true, "dtype": "float32", "axis": 3, "momentum": 0.99, "epsilon": 1.001e-05, "center": true, "scale": true, "beta_initializer": {"class_name": "Zeros", "config": {}}, "gamma_initializer": {"class_name": "Ones", "config": {}}, "moving_mean_initializer": {"class_name": "Zeros", "config": {}}, "moving_variance_initializer": {"class_name": "Ones", "config": {}}, "beta_regularizer": null, "gamma_regularizer": null, "beta_constraint": null, "gamma_constraint": null}, "inbound_nodes": [[["conv4_block31_2_conv", 0, 0, {}]]]}, {"name": "conv4_block31_2_relu", "class_name": "Activation", "config": {"name": "conv4_block31_2_relu", "trainable": true, "dtype": "float32", "activation": "relu"}, "inbound_nodes": [[["conv4_block31_2_bn", 0, 0, {}]]]}, {"name": "conv4_block31_3_conv", "class_name": "Conv2D", "config": {"name": "conv4_block31_3_conv", "trainable": true, "dtype": "float32", "filters": 1024, "kernel_size": [1, 1], "strides": [1, 1], "padding": "valid", "data_format": "channels_last", "dilation_rate": [1, 1], "activation": "linear", "use_bias": true, "kernel_initializer": {"class_name": "VarianceScaling", "config": {"scale": 1.0, "mode": "fan_avg", "distribution": "uniform", "seed": null}}, "bias_initializer": {"class_name": "Zeros", "config": {}}, "kernel_regularizer": null, "bias_regularizer": null, "activity_regularizer": null, "kernel_constraint": null, "bias_constraint": null}, "inbound_nodes": [[["conv4_block31_2_relu", 0, 0, {}]]]}, {"name": "conv4_block31_3_bn", "class_name": "BatchNormalization", "config": {"name": "conv4_block31_3_bn", "trainable": true, "dtype": "float32", "axis": 3, "momentum": 0.99, "epsilon": 1.001e-05, "center": true, "scale": true, "beta_initializer": {"class_name": "Zeros", "config": {}}, "gamma_initializer": {"class_name": "Ones", "config": {}}, "moving_mean_initializer": {"class_name": "Zeros", "config": {}}, "moving_variance_initializer": {"class_name": "Ones", "config": {}}, "beta_regularizer": null, "gamma_regularizer": null, "beta_constraint": null, "gamma_constraint": null}, "inbound_nodes": [[["conv4_block31_3_conv", 0, 0, {}]]]}, {"name": "conv4_block31_add", "class_name": "Add", "config": {"name": "conv4_block31_add", "trainable": true, "dtype": "float32"}, "inbound_nodes": [[["conv4_block30_out", 0, 0, {}], ["conv4_block31_3_bn", 0, 0, {}]]]}, {"name": "conv4_block31_out", "class_name": "Activation", "config": {"name": "conv4_block31_out", "trainable": true, "dtype": "float32", "activation": "relu"}, "inbound_nodes": [[["conv4_block31_add", 0, 0, {}]]]}, {"name": "conv4_block32_1_conv", "class_name": "Conv2D", "config": {"name": "conv4_block32_1_conv", "trainable": true, "dtype": "float32", "filters": 256, "kernel_size": [1, 1], "strides": [1, 1], "padding": "valid", "data_format": "channels_last", "dilation_rate": [1, 1], "activation": "linear", "use_bias": true, "kernel_initializer": {"class_name": "VarianceScaling", "config": {"scale": 1.0, "mode": "fan_avg", "distribution": "uniform", "seed": null}}, "bias_initializer": {"class_name": "Zeros", "config": {}}, "kernel_regularizer": null, "bias_regularizer": null, "activity_regularizer": null, "kernel_constraint": null, "bias_constraint": null}, "inbound_nodes": [[["conv4_block31_out", 0, 0, {}]]]}, {"name": "conv4_block32_1_bn", "class_name": "BatchNormalization", "config": {"name": "conv4_block32_1_bn", "trainable": true, "dtype": "float32", "axis": 3, "momentum": 0.99, "epsilon": 1.001e-05, "center": true, "scale": true, "beta_initializer": {"class_name": "Zeros", "config": {}}, "gamma_initializer": {"class_name": "Ones", "config": {}}, "moving_mean_initializer": {"class_name": "Zeros", "config": {}}, "moving_variance_initializer": {"class_name": "Ones", "config": {}}, "beta_regularizer": null, "gamma_regularizer": null, "beta_constraint": null, "gamma_constraint": null}, "inbound_nodes": [[["conv4_block32_1_conv", 0, 0, {}]]]}, {"name": "conv4_block32_1_relu", "class_name": "Activation", "config": {"name": "conv4_block32_1_relu", "trainable": true, "dtype": "float32", "activation": "relu"}, "inbound_nodes": [[["conv4_block32_1_bn", 0, 0, {}]]]}, {"name": "conv4_block32_2_conv", "class_name": "Conv2D", "config": {"name": "conv4_block32_2_conv", "trainable": true, "dtype": "float32", "filters": 256, "kernel_size": [3, 3], "strides": [1, 1], "padding": "same", "data_format": "channels_last", "dilation_rate": [1, 1], "activation": "linear", "use_bias": true, "kernel_initializer": {"class_name": "VarianceScaling", "config": {"scale": 1.0, "mode": "fan_avg", "distribution": "uniform", "seed": null}}, "bias_initializer": {"class_name": "Zeros", "config": {}}, "kernel_regularizer": null, "bias_regularizer": null, "activity_regularizer": null, "kernel_constraint": null, "bias_constraint": null}, "inbound_nodes": [[["conv4_block32_1_relu", 0, 0, {}]]]}, {"name": "conv4_block32_2_bn", "class_name": "BatchNormalization", "config": {"name": "conv4_block32_2_bn", "trainable": true, "dtype": "float32", "axis": 3, "momentum": 0.99, "epsilon": 1.001e-05, "center": true, "scale": true, "beta_initializer": {"class_name": "Zeros", "config": {}}, "gamma_initializer": {"class_name": "Ones", "config": {}}, "moving_mean_initializer": {"class_name": "Zeros", "config": {}}, "moving_variance_initializer": {"class_name": "Ones", "config": {}}, "beta_regularizer": null, "gamma_regularizer": null, "beta_constraint": null, "gamma_constraint": null}, "inbound_nodes": [[["conv4_block32_2_conv", 0, 0, {}]]]}, {"name": "conv4_block32_2_relu", "class_name": "Activation", "config": {"name": "conv4_block32_2_relu", "trainable": true, "dtype": "float32", "activation": "relu"}, "inbound_nodes": [[["conv4_block32_2_bn", 0, 0, {}]]]}, {"name": "conv4_block32_3_conv", "class_name": "Conv2D", "config": {"name": "conv4_block32_3_conv", "trainable": true, "dtype": "float32", "filters": 1024, "kernel_size": [1, 1], "strides": [1, 1], "padding": "valid", "data_format": "channels_last", "dilation_rate": [1, 1], "activation": "linear", "use_bias": true, "kernel_initializer": {"class_name": "VarianceScaling", "config": {"scale": 1.0, "mode": "fan_avg", "distribution": "uniform", "seed": null}}, "bias_initializer": {"class_name": "Zeros", "config": {}}, "kernel_regularizer": null, "bias_regularizer": null, "activity_regularizer": null, "kernel_constraint": null, "bias_constraint": null}, "inbound_nodes": [[["conv4_block32_2_relu", 0, 0, {}]]]}, {"name": "conv4_block32_3_bn", "class_name": "BatchNormalization", "config": {"name": "conv4_block32_3_bn", "trainable": true, "dtype": "float32", "axis": 3, "momentum": 0.99, "epsilon": 1.001e-05, "center": true, "scale": true, "beta_initializer": {"class_name": "Zeros", "config": {}}, "gamma_initializer": {"class_name": "Ones", "config": {}}, "moving_mean_initializer": {"class_name": "Zeros", "config": {}}, "moving_variance_initializer": {"class_name": "Ones", "config": {}}, "beta_regularizer": null, "gamma_regularizer": null, "beta_constraint": null, "gamma_constraint": null}, "inbound_nodes": [[["conv4_block32_3_conv", 0, 0, {}]]]}, {"name": "conv4_block32_add", "class_name": "Add", "config": {"name": "conv4_block32_add", "trainable": true, "dtype": "float32"}, "inbound_nodes": [[["conv4_block31_out", 0, 0, {}], ["conv4_block32_3_bn", 0, 0, {}]]]}, {"name": "conv4_block32_out", "class_name": "Activation", "config": {"name": "conv4_block32_out", "trainable": true, "dtype": "float32", "activation": "relu"}, "inbound_nodes": [[["conv4_block32_add", 0, 0, {}]]]}, {"name": "conv4_block33_1_conv", "class_name": "Conv2D", "config": {"name": "conv4_block33_1_conv", "trainable": true, "dtype": "float32", "filters": 256, "kernel_size": [1, 1], "strides": [1, 1], "padding": "valid", "data_format": "channels_last", "dilation_rate": [1, 1], "activation": "linear", "use_bias": true, "kernel_initializer": {"class_name": "VarianceScaling", "config": {"scale": 1.0, "mode": "fan_avg", "distribution": "uniform", "seed": null}}, "bias_initializer": {"class_name": "Zeros", "config": {}}, "kernel_regularizer": null, "bias_regularizer": null, "activity_regularizer": null, "kernel_constraint": null, "bias_constraint": null}, "inbound_nodes": [[["conv4_block32_out", 0, 0, {}]]]}, {"name": "conv4_block33_1_bn", "class_name": "BatchNormalization", "config": {"name": "conv4_block33_1_bn", "trainable": true, "dtype": "float32", "axis": 3, "momentum": 0.99, "epsilon": 1.001e-05, "center": true, "scale": true, "beta_initializer": {"class_name": "Zeros", "config": {}}, "gamma_initializer": {"class_name": "Ones", "config": {}}, "moving_mean_initializer": {"class_name": "Zeros", "config": {}}, "moving_variance_initializer": {"class_name": "Ones", "config": {}}, "beta_regularizer": null, "gamma_regularizer": null, "beta_constraint": null, "gamma_constraint": null}, "inbound_nodes": [[["conv4_block33_1_conv", 0, 0, {}]]]}, {"name": "conv4_block33_1_relu", "class_name": "Activation", "config": {"name": "conv4_block33_1_relu", "trainable": true, "dtype": "float32", "activation": "relu"}, "inbound_nodes": [[["conv4_block33_1_bn", 0, 0, {}]]]}, {"name": "conv4_block33_2_conv", "class_name": "Conv2D", "config": {"name": "conv4_block33_2_conv", "trainable": true, "dtype": "float32", "filters": 256, "kernel_size": [3, 3], "strides": [1, 1], "padding": "same", "data_format": "channels_last", "dilation_rate": [1, 1], "activation": "linear", "use_bias": true, "kernel_initializer": {"class_name": "VarianceScaling", "config": {"scale": 1.0, "mode": "fan_avg", "distribution": "uniform", "seed": null}}, "bias_initializer": {"class_name": "Zeros", "config": {}}, "kernel_regularizer": null, "bias_regularizer": null, "activity_regularizer": null, "kernel_constraint": null, "bias_constraint": null}, "inbound_nodes": [[["conv4_block33_1_relu", 0, 0, {}]]]}, {"name": "conv4_block33_2_bn", "class_name": "BatchNormalization", "config": {"name": "conv4_block33_2_bn", "trainable": true, "dtype": "float32", "axis": 3, "momentum": 0.99, "epsilon": 1.001e-05, "center": true, "scale": true, "beta_initializer": {"class_name": "Zeros", "config": {}}, "gamma_initializer": {"class_name": "Ones", "config": {}}, "moving_mean_initializer": {"class_name": "Zeros", "config": {}}, "moving_variance_initializer": {"class_name": "Ones", "config": {}}, "beta_regularizer": null, "gamma_regularizer": null, "beta_constraint": null, "gamma_constraint": null}, "inbound_nodes": [[["conv4_block33_2_conv", 0, 0, {}]]]}, {"name": "conv4_block33_2_relu", "class_name": "Activation", "config": {"name": "conv4_block33_2_relu", "trainable": true, "dtype": "float32", "activation": "relu"}, "inbound_nodes": [[["conv4_block33_2_bn", 0, 0, {}]]]}, {"name": "conv4_block33_3_conv", "class_name": "Conv2D", "config": {"name": "conv4_block33_3_conv", "trainable": true, "dtype": "float32", "filters": 1024, "kernel_size": [1, 1], "strides": [1, 1], "padding": "valid", "data_format": "channels_last", "dilation_rate": [1, 1], "activation": "linear", "use_bias": true, "kernel_initializer": {"class_name": "VarianceScaling", "config": {"scale": 1.0, "mode": "fan_avg", "distribution": "uniform", "seed": null}}, "bias_initializer": {"class_name": "Zeros", "config": {}}, "kernel_regularizer": null, "bias_regularizer": null, "activity_regularizer": null, "kernel_constraint": null, "bias_constraint": null}, "inbound_nodes": [[["conv4_block33_2_relu", 0, 0, {}]]]}, {"name": "conv4_block33_3_bn", "class_name": "BatchNormalization", "config": {"name": "conv4_block33_3_bn", "trainable": true, "dtype": "float32", "axis": 3, "momentum": 0.99, "epsilon": 1.001e-05, "center": true, "scale": true, "beta_initializer": {"class_name": "Zeros", "config": {}}, "gamma_initializer": {"class_name": "Ones", "config": {}}, "moving_mean_initializer": {"class_name": "Zeros", "config": {}}, "moving_variance_initializer": {"class_name": "Ones", "config": {}}, "beta_regularizer": null, "gamma_regularizer": null, "beta_constraint": null, "gamma_constraint": null}, "inbound_nodes": [[["conv4_block33_3_conv", 0, 0, {}]]]}, {"name": "conv4_block33_add", "class_name": "Add", "config": {"name": "conv4_block33_add", "trainable": true, "dtype": "float32"}, "inbound_nodes": [[["conv4_block32_out", 0, 0, {}], ["conv4_block33_3_bn", 0, 0, {}]]]}, {"name": "conv4_block33_out", "class_name": "Activation", "config": {"name": "conv4_block33_out", "trainable": true, "dtype": "float32", "activation": "relu"}, "inbound_nodes": [[["conv4_block33_add", 0, 0, {}]]]}, {"name": "conv4_block34_1_conv", "class_name": "Conv2D", "config": {"name": "conv4_block34_1_conv", "trainable": true, "dtype": "float32", "filters": 256, "kernel_size": [1, 1], "strides": [1, 1], "padding": "valid", "data_format": "channels_last", "dilation_rate": [1, 1], "activation": "linear", "use_bias": true, "kernel_initializer": {"class_name": "VarianceScaling", "config": {"scale": 1.0, "mode": "fan_avg", "distribution": "uniform", "seed": null}}, "bias_initializer": {"class_name": "Zeros", "config": {}}, "kernel_regularizer": null, "bias_regularizer": null, "activity_regularizer": null, "kernel_constraint": null, "bias_constraint": null}, "inbound_nodes": [[["conv4_block33_out", 0, 0, {}]]]}, {"name": "conv4_block34_1_bn", "class_name": "BatchNormalization", "config": {"name": "conv4_block34_1_bn", "trainable": true, "dtype": "float32", "axis": 3, "momentum": 0.99, "epsilon": 1.001e-05, "center": true, "scale": true, "beta_initializer": {"class_name": "Zeros", "config": {}}, "gamma_initializer": {"class_name": "Ones", "config": {}}, "moving_mean_initializer": {"class_name": "Zeros", "config": {}}, "moving_variance_initializer": {"class_name": "Ones", "config": {}}, "beta_regularizer": null, "gamma_regularizer": null, "beta_constraint": null, "gamma_constraint": null}, "inbound_nodes": [[["conv4_block34_1_conv", 0, 0, {}]]]}, {"name": "conv4_block34_1_relu", "class_name": "Activation", "config": {"name": "conv4_block34_1_relu", "trainable": true, "dtype": "float32", "activation": "relu"}, "inbound_nodes": [[["conv4_block34_1_bn", 0, 0, {}]]]}, {"name": "conv4_block34_2_conv", "class_name": "Conv2D", "config": {"name": "conv4_block34_2_conv", "trainable": true, "dtype": "float32", "filters": 256, "kernel_size": [3, 3], "strides": [1, 1], "padding": "same", "data_format": "channels_last", "dilation_rate": [1, 1], "activation": "linear", "use_bias": true, "kernel_initializer": {"class_name": "VarianceScaling", "config": {"scale": 1.0, "mode": "fan_avg", "distribution": "uniform", "seed": null}}, "bias_initializer": {"class_name": "Zeros", "config": {}}, "kernel_regularizer": null, "bias_regularizer": null, "activity_regularizer": null, "kernel_constraint": null, "bias_constraint": null}, "inbound_nodes": [[["conv4_block34_1_relu", 0, 0, {}]]]}, {"name": "conv4_block34_2_bn", "class_name": "BatchNormalization", "config": {"name": "conv4_block34_2_bn", "trainable": true, "dtype": "float32", "axis": 3, "momentum": 0.99, "epsilon": 1.001e-05, "center": true, "scale": true, "beta_initializer": {"class_name": "Zeros", "config": {}}, "gamma_initializer": {"class_name": "Ones", "config": {}}, "moving_mean_initializer": {"class_name": "Zeros", "config": {}}, "moving_variance_initializer": {"class_name": "Ones", "config": {}}, "beta_regularizer": null, "gamma_regularizer": null, "beta_constraint": null, "gamma_constraint": null}, "inbound_nodes": [[["conv4_block34_2_conv", 0, 0, {}]]]}, {"name": "conv4_block34_2_relu", "class_name": "Activation", "config": {"name": "conv4_block34_2_relu", "trainable": true, "dtype": "float32", "activation": "relu"}, "inbound_nodes": [[["conv4_block34_2_bn", 0, 0, {}]]]}, {"name": "conv4_block34_3_conv", "class_name": "Conv2D", "config": {"name": "conv4_block34_3_conv", "trainable": true, "dtype": "float32", "filters": 1024, "kernel_size": [1, 1], "strides": [1, 1], "padding": "valid", "data_format": "channels_last", "dilation_rate": [1, 1], "activation": "linear", "use_bias": true, "kernel_initializer": {"class_name": "VarianceScaling", "config": {"scale": 1.0, "mode": "fan_avg", "distribution": "uniform", "seed": null}}, "bias_initializer": {"class_name": "Zeros", "config": {}}, "kernel_regularizer": null, "bias_regularizer": null, "activity_regularizer": null, "kernel_constraint": null, "bias_constraint": null}, "inbound_nodes": [[["conv4_block34_2_relu", 0, 0, {}]]]}, {"name": "conv4_block34_3_bn", "class_name": "BatchNormalization", "config": {"name": "conv4_block34_3_bn", "trainable": true, "dtype": "float32", "axis": 3, "momentum": 0.99, "epsilon": 1.001e-05, "center": true, "scale": true, "beta_initializer": {"class_name": "Zeros", "config": {}}, "gamma_initializer": {"class_name": "Ones", "config": {}}, "moving_mean_initializer": {"class_name": "Zeros", "config": {}}, "moving_variance_initializer": {"class_name": "Ones", "config": {}}, "beta_regularizer": null, "gamma_regularizer": null, "beta_constraint": null, "gamma_constraint": null}, "inbound_nodes": [[["conv4_block34_3_conv", 0, 0, {}]]]}, {"name": "conv4_block34_add", "class_name": "Add", "config": {"name": "conv4_block34_add", "trainable": true, "dtype": "float32"}, "inbound_nodes": [[["conv4_block33_out", 0, 0, {}], ["conv4_block34_3_bn", 0, 0, {}]]]}, {"name": "conv4_block34_out", "class_name": "Activation", "config": {"name": "conv4_block34_out", "trainable": true, "dtype": "float32", "activation": "relu"}, "inbound_nodes": [[["conv4_block34_add", 0, 0, {}]]]}, {"name": "conv4_block35_1_conv", "class_name": "Conv2D", "config": {"name": "conv4_block35_1_conv", "trainable": true, "dtype": "float32", "filters": 256, "kernel_size": [1, 1], "strides": [1, 1], "padding": "valid", "data_format": "channels_last", "dilation_rate": [1, 1], "activation": "linear", "use_bias": true, "kernel_initializer": {"class_name": "VarianceScaling", "config": {"scale": 1.0, "mode": "fan_avg", "distribution": "uniform", "seed": null}}, "bias_initializer": {"class_name": "Zeros", "config": {}}, "kernel_regularizer": null, "bias_regularizer": null, "activity_regularizer": null, "kernel_constraint": null, "bias_constraint": null}, "inbound_nodes": [[["conv4_block34_out", 0, 0, {}]]]}, {"name": "conv4_block35_1_bn", "class_name": "BatchNormalization", "config": {"name": "conv4_block35_1_bn", "trainable": true, "dtype": "float32", "axis": 3, "momentum": 0.99, "epsilon": 1.001e-05, "center": true, "scale": true, "beta_initializer": {"class_name": "Zeros", "config": {}}, "gamma_initializer": {"class_name": "Ones", "config": {}}, "moving_mean_initializer": {"class_name": "Zeros", "config": {}}, "moving_variance_initializer": {"class_name": "Ones", "config": {}}, "beta_regularizer": null, "gamma_regularizer": null, "beta_constraint": null, "gamma_constraint": null}, "inbound_nodes": [[["conv4_block35_1_conv", 0, 0, {}]]]}, {"name": "conv4_block35_1_relu", "class_name": "Activation", "config": {"name": "conv4_block35_1_relu", "trainable": true, "dtype": "float32", "activation": "relu"}, "inbound_nodes": [[["conv4_block35_1_bn", 0, 0, {}]]]}, {"name": "conv4_block35_2_conv", "class_name": "Conv2D", "config": {"name": "conv4_block35_2_conv", "trainable": true, "dtype": "float32", "filters": 256, "kernel_size": [3, 3], "strides": [1, 1], "padding": "same", "data_format": "channels_last", "dilation_rate": [1, 1], "activation": "linear", "use_bias": true, "kernel_initializer": {"class_name": "VarianceScaling", "config": {"scale": 1.0, "mode": "fan_avg", "distribution": "uniform", "seed": null}}, "bias_initializer": {"class_name": "Zeros", "config": {}}, "kernel_regularizer": null, "bias_regularizer": null, "activity_regularizer": null, "kernel_constraint": null, "bias_constraint": null}, "inbound_nodes": [[["conv4_block35_1_relu", 0, 0, {}]]]}, {"name": "conv4_block35_2_bn", "class_name": "BatchNormalization", "config": {"name": "conv4_block35_2_bn", "trainable": true, "dtype": "float32", "axis": 3, "momentum": 0.99, "epsilon": 1.001e-05, "center": true, "scale": true, "beta_initializer": {"class_name": "Zeros", "config": {}}, "gamma_initializer": {"class_name": "Ones", "config": {}}, "moving_mean_initializer": {"class_name": "Zeros", "config": {}}, "moving_variance_initializer": {"class_name": "Ones", "config": {}}, "beta_regularizer": null, "gamma_regularizer": null, "beta_constraint": null, "gamma_constraint": null}, "inbound_nodes": [[["conv4_block35_2_conv", 0, 0, {}]]]}, {"name": "conv4_block35_2_relu", "class_name": "Activation", "config": {"name": "conv4_block35_2_relu", "trainable": true, "dtype": "float32", "activation": "relu"}, "inbound_nodes": [[["conv4_block35_2_bn", 0, 0, {}]]]}, {"name": "conv4_block35_3_conv", "class_name": "Conv2D", "config": {"name": "conv4_block35_3_conv", "trainable": true, "dtype": "float32", "filters": 1024, "kernel_size": [1, 1], "strides": [1, 1], "padding": "valid", "data_format": "channels_last", "dilation_rate": [1, 1], "activation": "linear", "use_bias": true, "kernel_initializer": {"class_name": "VarianceScaling", "config": {"scale": 1.0, "mode": "fan_avg", "distribution": "uniform", "seed": null}}, "bias_initializer": {"class_name": "Zeros", "config": {}}, "kernel_regularizer": null, "bias_regularizer": null, "activity_regularizer": null, "kernel_constraint": null, "bias_constraint": null}, "inbound_nodes": [[["conv4_block35_2_relu", 0, 0, {}]]]}, {"name": "conv4_block35_3_bn", "class_name": "BatchNormalization", "config": {"name": "conv4_block35_3_bn", "trainable": true, "dtype": "float32", "axis": 3, "momentum": 0.99, "epsilon": 1.001e-05, "center": true, "scale": true, "beta_initializer": {"class_name": "Zeros", "config": {}}, "gamma_initializer": {"class_name": "Ones", "config": {}}, "moving_mean_initializer": {"class_name": "Zeros", "config": {}}, "moving_variance_initializer": {"class_name": "Ones", "config": {}}, "beta_regularizer": null, "gamma_regularizer": null, "beta_constraint": null, "gamma_constraint": null}, "inbound_nodes": [[["conv4_block35_3_conv", 0, 0, {}]]]}, {"name": "conv4_block35_add", "class_name": "Add", "config": {"name": "conv4_block35_add", "trainable": true, "dtype": "float32"}, "inbound_nodes": [[["conv4_block34_out", 0, 0, {}], ["conv4_block35_3_bn", 0, 0, {}]]]}, {"name": "conv4_block35_out", "class_name": "Activation", "config": {"name": "conv4_block35_out", "trainable": true, "dtype": "float32", "activation": "relu"}, "inbound_nodes": [[["conv4_block35_add", 0, 0, {}]]]}, {"name": "conv4_block36_1_conv", "class_name": "Conv2D", "config": {"name": "conv4_block36_1_conv", "trainable": true, "dtype": "float32", "filters": 256, "kernel_size": [1, 1], "strides": [1, 1], "padding": "valid", "data_format": "channels_last", "dilation_rate": [1, 1], "activation": "linear", "use_bias": true, "kernel_initializer": {"class_name": "VarianceScaling", "config": {"scale": 1.0, "mode": "fan_avg", "distribution": "uniform", "seed": null}}, "bias_initializer": {"class_name": "Zeros", "config": {}}, "kernel_regularizer": null, "bias_regularizer": null, "activity_regularizer": null, "kernel_constraint": null, "bias_constraint": null}, "inbound_nodes": [[["conv4_block35_out", 0, 0, {}]]]}, {"name": "conv4_block36_1_bn", "class_name": "BatchNormalization", "config": {"name": "conv4_block36_1_bn", "trainable": true, "dtype": "float32", "axis": 3, "momentum": 0.99, "epsilon": 1.001e-05, "center": true, "scale": true, "beta_initializer": {"class_name": "Zeros", "config": {}}, "gamma_initializer": {"class_name": "Ones", "config": {}}, "moving_mean_initializer": {"class_name": "Zeros", "config": {}}, "moving_variance_initializer": {"class_name": "Ones", "config": {}}, "beta_regularizer": null, "gamma_regularizer": null, "beta_constraint": null, "gamma_constraint": null}, "inbound_nodes": [[["conv4_block36_1_conv", 0, 0, {}]]]}, {"name": "conv4_block36_1_relu", "class_name": "Activation", "config": {"name": "conv4_block36_1_relu", "trainable": true, "dtype": "float32", "activation": "relu"}, "inbound_nodes": [[["conv4_block36_1_bn", 0, 0, {}]]]}, {"name": "conv4_block36_2_conv", "class_name": "Conv2D", "config": {"name": "conv4_block36_2_conv", "trainable": true, "dtype": "float32", "filters": 256, "kernel_size": [3, 3], "strides": [1, 1], "padding": "same", "data_format": "channels_last", "dilation_rate": [1, 1], "activation": "linear", "use_bias": true, "kernel_initializer": {"class_name": "VarianceScaling", "config": {"scale": 1.0, "mode": "fan_avg", "distribution": "uniform", "seed": null}}, "bias_initializer": {"class_name": "Zeros", "config": {}}, "kernel_regularizer": null, "bias_regularizer": null, "activity_regularizer": null, "kernel_constraint": null, "bias_constraint": null}, "inbound_nodes": [[["conv4_block36_1_relu", 0, 0, {}]]]}, {"name": "conv4_block36_2_bn", "class_name": "BatchNormalization", "config": {"name": "conv4_block36_2_bn", "trainable": true, "dtype": "float32", "axis": 3, "momentum": 0.99, "epsilon": 1.001e-05, "center": true, "scale": true, "beta_initializer": {"class_name": "Zeros", "config": {}}, "gamma_initializer": {"class_name": "Ones", "config": {}}, "moving_mean_initializer": {"class_name": "Zeros", "config": {}}, "moving_variance_initializer": {"class_name": "Ones", "config": {}}, "beta_regularizer": null, "gamma_regularizer": null, "beta_constraint": null, "gamma_constraint": null}, "inbound_nodes": [[["conv4_block36_2_conv", 0, 0, {}]]]}, {"name": "conv4_block36_2_relu", "class_name": "Activation", "config": {"name": "conv4_block36_2_relu", "trainable": true, "dtype": "float32", "activation": "relu"}, "inbound_nodes": [[["conv4_block36_2_bn", 0, 0, {}]]]}, {"name": "conv4_block36_3_conv", "class_name": "Conv2D", "config": {"name": "conv4_block36_3_conv", "trainable": true, "dtype": "float32", "filters": 1024, "kernel_size": [1, 1], "strides": [1, 1], "padding": "valid", "data_format": "channels_last", "dilation_rate": [1, 1], "activation": "linear", "use_bias": true, "kernel_initializer": {"class_name": "VarianceScaling", "config": {"scale": 1.0, "mode": "fan_avg", "distribution": "uniform", "seed": null}}, "bias_initializer": {"class_name": "Zeros", "config": {}}, "kernel_regularizer": null, "bias_regularizer": null, "activity_regularizer": null, "kernel_constraint": null, "bias_constraint": null}, "inbound_nodes": [[["conv4_block36_2_relu", 0, 0, {}]]]}, {"name": "conv4_block36_3_bn", "class_name": "BatchNormalization", "config": {"name": "conv4_block36_3_bn", "trainable": true, "dtype": "float32", "axis": 3, "momentum": 0.99, "epsilon": 1.001e-05, "center": true, "scale": true, "beta_initializer": {"class_name": "Zeros", "config": {}}, "gamma_initializer": {"class_name": "Ones", "config": {}}, "moving_mean_initializer": {"class_name": "Zeros", "config": {}}, "moving_variance_initializer": {"class_name": "Ones", "config": {}}, "beta_regularizer": null, "gamma_regularizer": null, "beta_constraint": null, "gamma_constraint": null}, "inbound_nodes": [[["conv4_block36_3_conv", 0, 0, {}]]]}, {"name": "conv4_block36_add", "class_name": "Add", "config": {"name": "conv4_block36_add", "trainable": true, "dtype": "float32"}, "inbound_nodes": [[["conv4_block35_out", 0, 0, {}], ["conv4_block36_3_bn", 0, 0, {}]]]}, {"name": "conv4_block36_out", "class_name": "Activation", "config": {"name": "conv4_block36_out", "trainable": true, "dtype": "float32", "activation": "relu"}, "inbound_nodes": [[["conv4_block36_add", 0, 0, {}]]]}, {"name": "conv5_block1_1_conv", "class_name": "Conv2D", "config": {"name": "conv5_block1_1_conv", "trainable": true, "dtype": "float32", "filters": 512, "kernel_size": [1, 1], "strides": [2, 2], "padding": "valid", "data_format": "channels_last", "dilation_rate": [1, 1], "activation": "linear", "use_bias": true, "kernel_initializer": {"class_name": "VarianceScaling", "config": {"scale": 1.0, "mode": "fan_avg", "distribution": "uniform", "seed": null}}, "bias_initializer": {"class_name": "Zeros", "config": {}}, "kernel_regularizer": null, "bias_regularizer": null, "activity_regularizer": null, "kernel_constraint": null, "bias_constraint": null}, "inbound_nodes": [[["conv4_block36_out", 0, 0, {}]]]}, {"name": "conv5_block1_1_bn", "class_name": "BatchNormalization", "config": {"name": "conv5_block1_1_bn", "trainable": true, "dtype": "float32", "axis": 3, "momentum": 0.99, "epsilon": 1.001e-05, "center": true, "scale": true, "beta_initializer": {"class_name": "Zeros", "config": {}}, "gamma_initializer": {"class_name": "Ones", "config": {}}, "moving_mean_initializer": {"class_name": "Zeros", "config": {}}, "moving_variance_initializer": {"class_name": "Ones", "config": {}}, "beta_regularizer": null, "gamma_regularizer": null, "beta_constraint": null, "gamma_constraint": null}, "inbound_nodes": [[["conv5_block1_1_conv", 0, 0, {}]]]}, {"name": "conv5_block1_1_relu", "class_name": "Activation", "config": {"name": "conv5_block1_1_relu", "trainable": true, "dtype": "float32", "activation": "relu"}, "inbound_nodes": [[["conv5_block1_1_bn", 0, 0, {}]]]}, {"name": "conv5_block1_2_conv", "class_name": "Conv2D", "config": {"name": "conv5_block1_2_conv", "trainable": true, "dtype": "float32", "filters": 512, "kernel_size": [3, 3], "strides": [1, 1], "padding": "same", "data_format": "channels_last", "dilation_rate": [1, 1], "activation": "linear", "use_bias": true, "kernel_initializer": {"class_name": "VarianceScaling", "config": {"scale": 1.0, "mode": "fan_avg", "distribution": "uniform", "seed": null}}, "bias_initializer": {"class_name": "Zeros", "config": {}}, "kernel_regularizer": null, "bias_regularizer": null, "activity_regularizer": null, "kernel_constraint": null, "bias_constraint": null}, "inbound_nodes": [[["conv5_block1_1_relu", 0, 0, {}]]]}, {"name": "conv5_block1_2_bn", "class_name": "BatchNormalization", "config": {"name": "conv5_block1_2_bn", "trainable": true, "dtype": "float32", "axis": 3, "momentum": 0.99, "epsilon": 1.001e-05, "center": true, "scale": true, "beta_initializer": {"class_name": "Zeros", "config": {}}, "gamma_initializer": {"class_name": "Ones", "config": {}}, "moving_mean_initializer": {"class_name": "Zeros", "config": {}}, "moving_variance_initializer": {"class_name": "Ones", "config": {}}, "beta_regularizer": null, "gamma_regularizer": null, "beta_constraint": null, "gamma_constraint": null}, "inbound_nodes": [[["conv5_block1_2_conv", 0, 0, {}]]]}, {"name": "conv5_block1_2_relu", "class_name": "Activation", "config": {"name": "conv5_block1_2_relu", "trainable": true, "dtype": "float32", "activation": "relu"}, "inbound_nodes": [[["conv5_block1_2_bn", 0, 0, {}]]]}, {"name": "conv5_block1_0_conv", "class_name": "Conv2D", "config": {"name": "conv5_block1_0_conv", "trainable": true, "dtype": "float32", "filters": 2048, "kernel_size": [1, 1], "strides": [2, 2], "padding": "valid", "data_format": "channels_last", "dilation_rate": [1, 1], "activation": "linear", "use_bias": true, "kernel_initializer": {"class_name": "VarianceScaling", "config": {"scale": 1.0, "mode": "fan_avg", "distribution": "uniform", "seed": null}}, "bias_initializer": {"class_name": "Zeros", "config": {}}, "kernel_regularizer": null, "bias_regularizer": null, "activity_regularizer": null, "kernel_constraint": null, "bias_constraint": null}, "inbound_nodes": [[["conv4_block36_out", 0, 0, {}]]]}, {"name": "conv5_block1_3_conv", "class_name": "Conv2D", "config": {"name": "conv5_block1_3_conv", "trainable": true, "dtype": "float32", "filters": 2048, "kernel_size": [1, 1], "strides": [1, 1], "padding": "valid", "data_format": "channels_last", "dilation_rate": [1, 1], "activation": "linear", "use_bias": true, "kernel_initializer": {"class_name": "VarianceScaling", "config": {"scale": 1.0, "mode": "fan_avg", "distribution": "uniform", "seed": null}}, "bias_initializer": {"class_name": "Zeros", "config": {}}, "kernel_regularizer": null, "bias_regularizer": null, "activity_regularizer": null, "kernel_constraint": null, "bias_constraint": null}, "inbound_nodes": [[["conv5_block1_2_relu", 0, 0, {}]]]}, {"name": "conv5_block1_0_bn", "class_name": "BatchNormalization", "config": {"name": "conv5_block1_0_bn", "trainable": true, "dtype": "float32", "axis": 3, "momentum": 0.99, "epsilon": 1.001e-05, "center": true, "scale": true, "beta_initializer": {"class_name": "Zeros", "config": {}}, "gamma_initializer": {"class_name": "Ones", "config": {}}, "moving_mean_initializer": {"class_name": "Zeros", "config": {}}, "moving_variance_initializer": {"class_name": "Ones", "config": {}}, "beta_regularizer": null, "gamma_regularizer": null, "beta_constraint": null, "gamma_constraint": null}, "inbound_nodes": [[["conv5_block1_0_conv", 0, 0, {}]]]}, {"name": "conv5_block1_3_bn", "class_name": "BatchNormalization", "config": {"name": "conv5_block1_3_bn", "trainable": true, "dtype": "float32", "axis": 3, "momentum": 0.99, "epsilon": 1.001e-05, "center": true, "scale": true, "beta_initializer": {"class_name": "Zeros", "config": {}}, "gamma_initializer": {"class_name": "Ones", "config": {}}, "moving_mean_initializer": {"class_name": "Zeros", "config": {}}, "moving_variance_initializer": {"class_name": "Ones", "config": {}}, "beta_regularizer": null, "gamma_regularizer": null, "beta_constraint": null, "gamma_constraint": null}, "inbound_nodes": [[["conv5_block1_3_conv", 0, 0, {}]]]}, {"name": "conv5_block1_add", "class_name": "Add", "config": {"name": "conv5_block1_add", "trainable": true, "dtype": "float32"}, "inbound_nodes": [[["conv5_block1_0_bn", 0, 0, {}], ["conv5_block1_3_bn", 0, 0, {}]]]}, {"name": "conv5_block1_out", "class_name": "Activation", "config": {"name": "conv5_block1_out", "trainable": true, "dtype": "float32", "activation": "relu"}, "inbound_nodes": [[["conv5_block1_add", 0, 0, {}]]]}, {"name": "conv5_block2_1_conv", "class_name": "Conv2D", "config": {"name": "conv5_block2_1_conv", "trainable": true, "dtype": "float32", "filters": 512, "kernel_size": [1, 1], "strides": [1, 1], "padding": "valid", "data_format": "channels_last", "dilation_rate": [1, 1], "activation": "linear", "use_bias": true, "kernel_initializer": {"class_name": "VarianceScaling", "config": {"scale": 1.0, "mode": "fan_avg", "distribution": "uniform", "seed": null}}, "bias_initializer": {"class_name": "Zeros", "config": {}}, "kernel_regularizer": null, "bias_regularizer": null, "activity_regularizer": null, "kernel_constraint": null, "bias_constraint": null}, "inbound_nodes": [[["conv5_block1_out", 0, 0, {}]]]}, {"name": "conv5_block2_1_bn", "class_name": "BatchNormalization", "config": {"name": "conv5_block2_1_bn", "trainable": true, "dtype": "float32", "axis": 3, "momentum": 0.99, "epsilon": 1.001e-05, "center": true, "scale": true, "beta_initializer": {"class_name": "Zeros", "config": {}}, "gamma_initializer": {"class_name": "Ones", "config": {}}, "moving_mean_initializer": {"class_name": "Zeros", "config": {}}, "moving_variance_initializer": {"class_name": "Ones", "config": {}}, "beta_regularizer": null, "gamma_regularizer": null, "beta_constraint": null, "gamma_constraint": null}, "inbound_nodes": [[["conv5_block2_1_conv", 0, 0, {}]]]}, {"name": "conv5_block2_1_relu", "class_name": "Activation", "config": {"name": "conv5_block2_1_relu", "trainable": true, "dtype": "float32", "activation": "relu"}, "inbound_nodes": [[["conv5_block2_1_bn", 0, 0, {}]]]}, {"name": "conv5_block2_2_conv", "class_name": "Conv2D", "config": {"name": "conv5_block2_2_conv", "trainable": true, "dtype": "float32", "filters": 512, "kernel_size": [3, 3], "strides": [1, 1], "padding": "same", "data_format": "channels_last", "dilation_rate": [1, 1], "activation": "linear", "use_bias": true, "kernel_initializer": {"class_name": "VarianceScaling", "config": {"scale": 1.0, "mode": "fan_avg", "distribution": "uniform", "seed": null}}, "bias_initializer": {"class_name": "Zeros", "config": {}}, "kernel_regularizer": null, "bias_regularizer": null, "activity_regularizer": null, "kernel_constraint": null, "bias_constraint": null}, "inbound_nodes": [[["conv5_block2_1_relu", 0, 0, {}]]]}, {"name": "conv5_block2_2_bn", "class_name": "BatchNormalization", "config": {"name": "conv5_block2_2_bn", "trainable": true, "dtype": "float32", "axis": 3, "momentum": 0.99, "epsilon": 1.001e-05, "center": true, "scale": true, "beta_initializer": {"class_name": "Zeros", "config": {}}, "gamma_initializer": {"class_name": "Ones", "config": {}}, "moving_mean_initializer": {"class_name": "Zeros", "config": {}}, "moving_variance_initializer": {"class_name": "Ones", "config": {}}, "beta_regularizer": null, "gamma_regularizer": null, "beta_constraint": null, "gamma_constraint": null}, "inbound_nodes": [[["conv5_block2_2_conv", 0, 0, {}]]]}, {"name": "conv5_block2_2_relu", "class_name": "Activation", "config": {"name": "conv5_block2_2_relu", "trainable": true, "dtype": "float32", "activation": "relu"}, "inbound_nodes": [[["conv5_block2_2_bn", 0, 0, {}]]]}, {"name": "conv5_block2_3_conv", "class_name": "Conv2D", "config": {"name": "conv5_block2_3_conv", "trainable": true, "dtype": "float32", "filters": 2048, "kernel_size": [1, 1], "strides": [1, 1], "padding": "valid", "data_format": "channels_last", "dilation_rate": [1, 1], "activation": "linear", "use_bias": true, "kernel_initializer": {"class_name": "VarianceScaling", "config": {"scale": 1.0, "mode": "fan_avg", "distribution": "uniform", "seed": null}}, "bias_initializer": {"class_name": "Zeros", "config": {}}, "kernel_regularizer": null, "bias_regularizer": null, "activity_regularizer": null, "kernel_constraint": null, "bias_constraint": null}, "inbound_nodes": [[["conv5_block2_2_relu", 0, 0, {}]]]}, {"name": "conv5_block2_3_bn", "class_name": "BatchNormalization", "config": {"name": "conv5_block2_3_bn", "trainable": true, "dtype": "float32", "axis": 3, "momentum": 0.99, "epsilon": 1.001e-05, "center": true, "scale": true, "beta_initializer": {"class_name": "Zeros", "config": {}}, "gamma_initializer": {"class_name": "Ones", "config": {}}, "moving_mean_initializer": {"class_name": "Zeros", "config": {}}, "moving_variance_initializer": {"class_name": "Ones", "config": {}}, "beta_regularizer": null, "gamma_regularizer": null, "beta_constraint": null, "gamma_constraint": null}, "inbound_nodes": [[["conv5_block2_3_conv", 0, 0, {}]]]}, {"name": "conv5_block2_add", "class_name": "Add", "config": {"name": "conv5_block2_add", "trainable": true, "dtype": "float32"}, "inbound_nodes": [[["conv5_block1_out", 0, 0, {}], ["conv5_block2_3_bn", 0, 0, {}]]]}, {"name": "conv5_block2_out", "class_name": "Activation", "config": {"name": "conv5_block2_out", "trainable": true, "dtype": "float32", "activation": "relu"}, "inbound_nodes": [[["conv5_block2_add", 0, 0, {}]]]}, {"name": "conv5_block3_1_conv", "class_name": "Conv2D", "config": {"name": "conv5_block3_1_conv", "trainable": true, "dtype": "float32", "filters": 512, "kernel_size": [1, 1], "strides": [1, 1], "padding": "valid", "data_format": "channels_last", "dilation_rate": [1, 1], "activation": "linear", "use_bias": true, "kernel_initializer": {"class_name": "VarianceScaling", "config": {"scale": 1.0, "mode": "fan_avg", "distribution": "uniform", "seed": null}}, "bias_initializer": {"class_name": "Zeros", "config": {}}, "kernel_regularizer": null, "bias_regularizer": null, "activity_regularizer": null, "kernel_constraint": null, "bias_constraint": null}, "inbound_nodes": [[["conv5_block2_out", 0, 0, {}]]]}, {"name": "conv5_block3_1_bn", "class_name": "BatchNormalization", "config": {"name": "conv5_block3_1_bn", "trainable": true, "dtype": "float32", "axis": 3, "momentum": 0.99, "epsilon": 1.001e-05, "center": true, "scale": true, "beta_initializer": {"class_name": "Zeros", "config": {}}, "gamma_initializer": {"class_name": "Ones", "config": {}}, "moving_mean_initializer": {"class_name": "Zeros", "config": {}}, "moving_variance_initializer": {"class_name": "Ones", "config": {}}, "beta_regularizer": null, "gamma_regularizer": null, "beta_constraint": null, "gamma_constraint": null}, "inbound_nodes": [[["conv5_block3_1_conv", 0, 0, {}]]]}, {"name": "conv5_block3_1_relu", "class_name": "Activation", "config": {"name": "conv5_block3_1_relu", "trainable": true, "dtype": "float32", "activation": "relu"}, "inbound_nodes": [[["conv5_block3_1_bn", 0, 0, {}]]]}, {"name": "conv5_block3_2_conv", "class_name": "Conv2D", "config": {"name": "conv5_block3_2_conv", "trainable": true, "dtype": "float32", "filters": 512, "kernel_size": [3, 3], "strides": [1, 1], "padding": "same", "data_format": "channels_last", "dilation_rate": [1, 1], "activation": "linear", "use_bias": true, "kernel_initializer": {"class_name": "VarianceScaling", "config": {"scale": 1.0, "mode": "fan_avg", "distribution": "uniform", "seed": null}}, "bias_initializer": {"class_name": "Zeros", "config": {}}, "kernel_regularizer": null, "bias_regularizer": null, "activity_regularizer": null, "kernel_constraint": null, "bias_constraint": null}, "inbound_nodes": [[["conv5_block3_1_relu", 0, 0, {}]]]}, {"name": "conv5_block3_2_bn", "class_name": "BatchNormalization", "config": {"name": "conv5_block3_2_bn", "trainable": true, "dtype": "float32", "axis": 3, "momentum": 0.99, "epsilon": 1.001e-05, "center": true, "scale": true, "beta_initializer": {"class_name": "Zeros", "config": {}}, "gamma_initializer": {"class_name": "Ones", "config": {}}, "moving_mean_initializer": {"class_name": "Zeros", "config": {}}, "moving_variance_initializer": {"class_name": "Ones", "config": {}}, "beta_regularizer": null, "gamma_regularizer": null, "beta_constraint": null, "gamma_constraint": null}, "inbound_nodes": [[["conv5_block3_2_conv", 0, 0, {}]]]}, {"name": "conv5_block3_2_relu", "class_name": "Activation", "config": {"name": "conv5_block3_2_relu", "trainable": true, "dtype": "float32", "activation": "relu"}, "inbound_nodes": [[["conv5_block3_2_bn", 0, 0, {}]]]}, {"name": "conv5_block3_3_conv", "class_name": "Conv2D", "config": {"name": "conv5_block3_3_conv", "trainable": true, "dtype": "float32", "filters": 2048, "kernel_size": [1, 1], "strides": [1, 1], "padding": "valid", "data_format": "channels_last", "dilation_rate": [1, 1], "activation": "linear", "use_bias": true, "kernel_initializer": {"class_name": "VarianceScaling", "config": {"scale": 1.0, "mode": "fan_avg", "distribution": "uniform", "seed": null}}, "bias_initializer": {"class_name": "Zeros", "config": {}}, "kernel_regularizer": null, "bias_regularizer": null, "activity_regularizer": null, "kernel_constraint": null, "bias_constraint": null}, "inbound_nodes": [[["conv5_block3_2_relu", 0, 0, {}]]]}, {"name": "conv5_block3_3_bn", "class_name": "BatchNormalization", "config": {"name": "conv5_block3_3_bn", "trainable": true, "dtype": "float32", "axis": 3, "momentum": 0.99, "epsilon": 1.001e-05, "center": true, "scale": true, "beta_initializer": {"class_name": "Zeros", "config": {}}, "gamma_initializer": {"class_name": "Ones", "config": {}}, "moving_mean_initializer": {"class_name": "Zeros", "config": {}}, "moving_variance_initializer": {"class_name": "Ones", "config": {}}, "beta_regularizer": null, "gamma_regularizer": null, "beta_constraint": null, "gamma_constraint": null}, "inbound_nodes": [[["conv5_block3_3_conv", 0, 0, {}]]]}, {"name": "conv5_block3_add", "class_name": "Add", "config": {"name": "conv5_block3_add", "trainable": true, "dtype": "float32"}, "inbound_nodes": [[["conv5_block2_out", 0, 0, {}], ["conv5_block3_3_bn", 0, 0, {}]]]}, {"name": "conv5_block3_out", "class_name": "Activation", "config": {"name": "conv5_block3_out", "trainable": true, "dtype": "float32", "activation": "relu"}, "inbound_nodes": [[["conv5_block3_add", 0, 0, {}]]]}, {"name": "avg_pool", "class_name": "GlobalAveragePooling2D", "config": {"name": "avg_pool", "trainable": true, "dtype": "float32", "data_format": "channels_last"}, "inbound_nodes": [[["conv5_block3_out", 0, 0, {}]]]}, {"name": "probs", "class_name": "Dense", "config": {"name": "probs", "trainable": true, "dtype": "float32", "units": 1000, "activation": "softmax", "use_bias": true, "kernel_initializer": {"class_name": "VarianceScaling", "config": {"scale": 1.0, "mode": "fan_avg", "distribution": "uniform", "seed": null}}, "bias_initializer": {"class_name": "Zeros", "config": {}}, "kernel_regularizer": null, "bias_regularizer": null, "activity_regularizer": null, "kernel_constraint": null, "bias_constraint": null}, "inbound_nodes": [[["avg_pool", 0, 0, {}]]]}], "input_layers": [["input_1", 0, 0]], "output_layers": [["probs", 0, 0]]}, "keras_version": "2.3.1", "backend": "tensorflow"}